model_gan/discriminator.pt (torch, 352664 bytes, 12 tensors)

features.0.weight f4 [128, 32]
00000000: f37e f33d 6c63 78bd 7dd8 6a3d 07ec 363e
00000010: 4ebf b4bd e1b5 9bbb 5c6e 19bf 31b4 08be
00000020: e21f 59be bd48 503e db43 bcbd a783 fa3d
00000030: 14e5 6d3d 98f7 1abe 79e2 6bbc a316 e7bd
00000040: 8dbb b3bd a538 e3bd 3053 d43c dcb5 1abe
00000050: c19c 033e 1c67 b93c fbdd a73c 810a ddbb
00000060: 43e4 083d ef2c 943d 4f26 56be 934e d43d
00000070: 57e4 d73c a6c2 e9bc 418d 71bd 05d5 933d
00000080: feb1 a8bd 7079 7f3d 186c eb3d bd9c 9a3d
00000090: 1984 083d 5b3f 973d bf39 4abe 4159 123e
000000a0: d5a7 19be 20a0 c93d 3b88 45be a314 c33d
000000b0: e373 2bbd 4ab4 78bc 9020 b33d 0a9c 33be
000000c0: c8ff 42bd 676d 933d 2184 d43c a7f2 683e
000000d0: 86dc 36be 244b 603d 6265 0d3e 9ee1 32be
000000e0: 82d3 123d 7c06 483d 4bea a43d bc44 bfbd
000000f0: 4240 eabd 55e4 21be f74c cebd 8211 033e
00000100: 28e1 d2bd 1ec8 62be 5885 8a3d fd3d c43d
00000110: b784 f1bc 1c34 563d 9810 98be e964 a53c
00000120: 5bbf 86be d33c a3bb 3a15 a63d 1215 e2bd
00000130: d901 64bd ba69 0f3e 3b36 d73c 1e3e a5bd
00000140: fe87 6d3d 4034 a6bb 080f d43b bbb5 f9bd
00000150: 2c5d 31be dfe6 293e 7378 033d 5acb 08be
00000160: 6e3f 6bbe eb14 72bc 2896 d8bd 8250 1fbe
00000170: d56b 3b3d 26f2 2ebe 99c7 023e f559 0a3e
00000180: 5771 8abc e1ce a1bd ee1e 39be 61e1 d43c
00000190: e83c 73be 42f0 893d 3bd0 df3e edd7 2d3e
000001a0: e839 933e 5872 bbbd 365f 1e3e 9eb6 ecbd
000001b0: c8ba 83bd 548b b83b c70e 8abd 6504 6cba
000001c0: dd27 313d 8b40 203d 5e0f 99bd b5e0 9b3d
000001d0: 2b1e b9bc dafd c33a 002a 2c3e 7ce9 a6bd
000001e0: d3d5 8ebd 8122 c2bb edbf de3d fcfd 163e
000001f0: 28f4 e83c a542 8dbd c7fa 1e3e d239 2d3c
00000200: f0f6 f5bc 9e28 143e 8407 683c baa3 9dbd
00000210: ec25 dfbd 469e 36bd 235a c43d 6e88 10be
00000220: cc0d 25be b5f4 36bd c7d0 a9bc ac6a 0ebd
00000230: 5a98 98bd 3ef2 b7bd 92ba f63b 3f80 d5bd
00000240: faeb afbd 7f29 20be eeb5 67bd 9481 58bd
00000250: 971e 0b3e 57d2 ccbc 8292 063e 284b eebd
00000260: d7e9 97bd 7c82 3ebe c962 573e bfde 96bb
00000270: 43f3 2c3e 01f8 fbbd 0f83 20bc c4a7 6a3e
00000280: 663c ba3d d4b4 b5bc 4ce1 8cbd 568f 4cbd
00000290: 3efd e73a 2cc9 903a 6790 f8be a06a d9be
000002a0: b6bf 87be 74c2 c039 f2c5 a63d 3bb8 023e
000002b0: 605b 00bd 5bd7 773d aebb 56bd 8b1e 1b3e
000002c0: db6c 5f3d 8861 eebd a60e f3bd 6114 8d3d
000002d0: e83a 84bd e304 b73c bdc5 923d 561a ffbd
000002e0: 132c 8e3d 8d90 d63b 8a90 94be ef03 0b3e
000002f0: 2c90 ac3d 95a4 eb3d 0082 73bd 5e2c bebd
00000300: bc8a 493e daee ca3c daaa 9abc 2759 7e3d
00000310: 09e0 b1bb a141 9fbc cff0 843e 47e0 26bd
00000320: 06c9 6b3d 9a38 66bd 363e 1a3e 9c5f f8bd
00000330: fb21 5b3e c6e4 01be 45af 203e 5534 e4bd
00000340: 5605 89bd d531 f53d 9503 203c 2a01 24b9
00000350: bc7e 51bc f5a9 293e acd3 38bc 1003 0c3e
00000360: 1c3c bbbd 940d 503e 4a80 ecbd 1e31 45bd
00000370: a826 9ebd f189 5dbd 8bad 9dbc 7525 d8bd
00000380: 396f c93c 1b36 b63d 06aa 79bd 26ad f23d
00000390: 5cab b63d 5b6f 333e 9748 be3e 7bd7 86be
000003a0: ffde 3c3e c653 013c 8de3 2a3d e829 393d
000003b0: 5ea9 adbd 0338 08be fe33 fcbd f5cb 2d3e
000003c0: 79e9 fbbd 7dcb cf3d 1cf8 39be d0ec c7bd
000003d0: 430e d93c ae47 20be 5291 7dba 739f a1bd
000003e0: dd76 84bd 7c56 adbd 4422 243d 1c63 4abe
000003f0: 1121 4b3d 8e88 1dbd c79c 1b3e 4232 8bbd
0.11889448 -0.06064169 0.057335366 0.17863475 -0.08825551 -0.0047519063 -0.5993402 -0.13349988
-0.21203569 0.20340247 -0.0919263 0.12232142 0.058079794 -0.15133512 -0.014397257 -0.112836145
-0.08776007 -0.110947885 0.025918573 -0.15108436 0.12852766 0.022632174 0.02049159 -0.006745637
0.033420812 0.07235133 -0.20913051 0.10366549 0.026353998 -0.028535198 -0.0589726 0.072183646
-0.08237074 0.06237167 0.114952266 0.07549427 0.033329103 0.07385131 -0.19748591 0.1429186
-0.15005429 0.098449945 -0.19290249 0.095254205 -0.041858565 -0.015179703 0.08746445 -0.17539993
-0.047607213 0.07198601 0.02594191 0.22748815 -0.1785756 0.05475916 0.13808206 -0.17468879
0.03584624 0.04883431 0.080525 -0.09339282 -0.114380375 -0.15809758 -0.10073274 0.12799647
-0.102968514 -0.22146651 0.067637146 0.09582136 -0.029482229 0.05229579 -0.2970016 0.02018972
-0.26317868 -0.004981616 0.081095174 -0.11039175 -0.055665825 0.14005175 0.026270976 -0.080684885
0.05799102 -0.0050721467 0.0064715184 -0.121928655 -0.17320698 0.16591977 0.03209729 -0.13358822
-0.22973415 -0.014775495 -0.10575515 -0.15558055 0.045757134 -0.1708456 0.12771453 0.13510878
-0.016899748 -0.07900787 -0.18078205 0.025986375 -0.23753703 0.06735279 0.43713555 0.169769
0.28755116 -0.09152669 0.15466008 -0.11558269 -0.0643211 0.0056318436 -0.067411 -0.00090033404
0.043250907 0.039124053 -0.07473634 0.07611219 -0.022597393 0.0014952973 0.16812897 -0.08150002
-0.069743775 -0.0059245233 0.10876451 0.14745325 0.028436735 -0.06897477 0.15525351 0.0105728675
-0.030024976 0.14468619 0.014161948 -0.07697244 -0.10895905 -0.044584535 0.09587505 -0.14114544
-0.16118544 -0.044666965 -0.020729436 -0.0347697 -0.07450934 -0.08981751 0.007529565 -0.104248516
-0.08589931 -0.1564083 -0.056569986 -0.05285795 0.13585888 -0.025002642 0.13141826 -0.11635429
-0.07417648 -0.18604463 0.21033777 -0.00460419 0.16889672 -0.12303162 -0.009796872 0.2291556
0.09093551 -0.022180952 -0.068789095 -0.049941383 0.0017699373 0.0011046282 -0.4854767 -0.4246416
-0.2651345 0.00036765973 0.08143224 0.12765591 -0.031337142 0.060508113 -0.05242508 0.1514837
0.054547172 -0.11639696 -0.11868028 0.068886526 -0.06456548 0.022341197 0.07166622 -0.12456195
0.06942 0.0065479935 -0.29016525 0.1357572 0.08425936 0.11506001 -0.05945015 -0.09285806
0.19681829 0.024772096 -0.018880296 0.06209674 -0.0054283184 -0.019440474 0.25964972 -0.04074123
0.057564758 -0.056206323 0.15062794 -0.12127611 0.21399681 -0.12684926 0.1569186 -0.11142794
-0.06690471 0.11972395 0.009766479 -0.00015640692 -0.0127865635 0.1656874 -0.011280935 0.13673043
-0.09142324 0.2031768 -0.11547907 -0.048142545 -0.07722217 -0.05408663 -0.01924779 -0.10554019
0.024589168 0.088970385 -0.060953163 0.11849432 0.08919403 0.17522947 0.37164757 -0.26336274
0.18444441 0.007893508 0.041720916 0.04520598 -0.0847957 -0.13302617 -0.12314604 0.16972335
-0.12300391 0.10146234 -0.18161052 -0.09761965 0.026496058 -0.15652344 -0.00096728385 -0.07891741
-0.06467984 -0.08463761 0.04007174 -0.1976437 0.04959208 -0.038460307 0.15196525 -0.06796695

features.0.bias f4 [128]
00000000: c72a 1dbe 6b3b 40bd 01d5 e13c dd89 d43c
00000010: ff64 713e f105 64be a38d 45be 419b bfbc
00000020: 55fe 583e 11bb 313d c133 ae3d 94dc 38be
00000030: 2dd7 b7bd b1dd 2cbe b879 473e 9896 b33c
00000040: 2120 2abe 4e29 8cbe ca6e 243d c1a4 3b3e
00000050: a3db febc c140 023e 6bc7 36bd b0d2 30be
00000060: 8da7 29be 67ff 983e 917f 09be 2656 65bd
00000070: 40d7 06be a4bd 233d 9ae8 6fbe c79a d2bc
00000080: 14f1 80be f469 59be c7f7 6fbe 4833 f33d
00000090: 6ecb 853d a6e4 bbbd 19b6 aabd f5c1 2c3e
000000a0: 4f39 79bc b9bc 003e b53e 3c3e e26d 833d
000000b0: c4da 113d 8a0d 6bbe 3a03 0c3d 6bc6 10be
000000c0: cd8e 103e e931 3d3e 6f24 34be 595c 2a3e
000000d0: 4a12 87bd 748b 393e ab59 82bd b4d6 823d
000000e0: ef09 083e b3a2 1d3c 6761 03be 1252 b03d
000000f0: 2fe2 973d f980 5dbe 880a f9bc 24de 8d3e
00000100: e188 193e c321 e0bc 5494 3cbd bf00 1fbe
00000110: cb34 92be ea44 063e c0a4 8f3c 603b 3dbe
00000120: d332 64be 5a7c 873d 1215 f93d 8ad2 463e
00000130: d01f 8abc 7106 4c3e c5bb 82bd 191c 163d
00000140: b7f3 453e a58d e6bd 1729 4bbe e0e3 7ebd
00000150: 2591 9c3e e211 303e fd9f 41bd e7ea 8abe
00000160: 9e20 e4bd 532e a6bd 988c 66be ef21 e3bd
00000170: d5fd 35be 8771 153e b98e 81be 782c e7bc
00000180: afdb 23bd 5520 c13d ba03 52be 96b9 6b3d
00000190: 58fa 06be 199a 4b3d cdef 8c3c 269f e8bc
000001a0: 6fac e138 31f6 00be 2885 143e 4ba3 413b
000001b0: 8ee3 5b3e a770 263d 05fd 9bbd 0edd 1dbd
000001c0: c78d f03d 5c4f 52bb 3434 a63d 9f45 f53d
000001d0: 7b47 43be 069c 063e 4a56 a13d 6a55 1e3e
000001e0: a5ad 57be 8324 cfbd 1426 043e 0164 c8bd
000001f0: 1083 4dbd 011f 45bd d51e 88be c094 443c
-0.1534835 -0.046931665 0.027567388 0.025944645 0.23573683 -0.22267891 -0.19292311 -0.02338946
0.2119077 0.04339129 0.08505965 -0.18052894 -0.089765884 -0.16881444 0.19480026 0.021922395
-0.16613819 -0.27375263 0.04014472 0.18324567 -0.03111059 0.12720014 -0.044623774 -0.17267871
-0.16567822 0.29882357 -0.13427569 -0.05599036 -0.13168049 0.039975777 -0.23428574 -0.02570857
-0.25183928 -0.21231824 -0.23434363 0.118750155 0.06532942 -0.091744706 -0.083355136 0.16870864
-0.015211417 0.12571992 0.18383296 0.06417443 0.03560902 -0.22954383 0.034182765 -0.1413819
0.14116974 0.1847607 -0.17592023 0.1663679 -0.06595285 0.18119603 -0.06364759 0.063886076
0.1328504 0.00962131 -0.12830125 0.08609404 0.07416188 -0.2163123 -0.03040053 0.27708542
0.14993621 -0.027359849 -0.046039894 -0.15527628 -0.28555903 0.13112226 0.017534614 -0.18479681
-0.22285013 0.06615515 0.12162222 0.19416252 -0.016860873 0.19924332 -0.063834704 0.03664789
0.19331251 -0.11257485 -0.19839893 -0.062229037 0.30579486 0.17194322 -0.047271717 -0.2713234
-0.11139034 -0.081143044 -0.2251457 -0.11090457 -0.1777261 0.14594088 -0.253042 -0.028219447
-0.04000443 0.09429995 -0.20509234 0.057550035 -0.13181436 0.049707506 0.01720419 -0.0283962
0.00010760954 -0.12593915 0.1450392 0.0029546793 0.21473524 0.040634777 -0.07616619 -0.038540892
0.11745792 -0.003209076 0.08115426 0.1197617 -0.19070236 0.13145456 0.078777865 0.1546227
-0.21062334 -0.10114386 0.1290515 -0.09784699 -0.05017382 -0.04812527 -0.26586023 0.011998355

features.3.weight f4 [256, 128]
00000000: a040 90bc ddbb 3a3d fbe1 73bd cdb2 b0bd
00000010: 9fed 96bd 148a 243d 4bc2 993c 5e95 80bd
00000020: 3d39 3c3d d6b2 9c3c da6a 043e 55be 023c
00000030: d9b1 8b3d 25a9 e3bb e86d 03bd 05b6 fcbc
00000040: 5a19 193b 7efa 113e 4936 843b d038 6dbe
00000050: a68f a3bb 3fa3 533b 82a3 63bc 8650 a13d
00000060: 16b2 6a3d 5c96 afbd 18ad 953c 2406 56bc
00000070: e2ad 0a3d e4b2 0c3c c542 623d 96e8 08bd
00000080: 3119 14bc cf45 86bd 2eac 2f3d 6afe 773b
00000090: d7f5 d03d 7878 97bd 5130 b03d 8a4c ee3d
000000a0: 299d 4e3d 2ea0 06bd dfc4 e3bd a621 543d
000000b0: e369 563d 8eb6 313d a1cd 14be da1c ac3c
000000c0: caa9 83bd 065f cbb9 5450 efbd 8fb2 943d
000000d0: ae80 233e 3ee6 5cbd 4243 90bd 9fc3 0f3d
000000e0: acc8 fb3d 9414 6d3d 4224 65bd 1ac9 df3d
000000f0: dbc3 663d f3c5 4a3e b780 9abd 35fe 9fbd
00000100: 76a7 14be ccd8 933d c3f0 bd3c e3be 5f3d
00000110: 82c0 a13c 5cb3 2cbd ecdb 393c 0c2c 2abd
00000120: f192 673b f314 3dbd 8c31 2dbd d9e1 f339
00000130: 26bc babd e498 84bd 2304 6c3d 29af 343d
00000140: acae 18be 6bb7 9f3d 0a11 c0bd 19e0 e0bc
00000150: 06ac 1abe 173f b83c 458e 533d 725d 653c
00000160: e2fd f33b 392d c03d a4b1 a83d 23db 513d
00000170: 7870 223d 50b2 a6bc e5fd 2e3e dd3d b23c
00000180: ca22 7ebd b809 69bd 9d90 12bd 7309 c7bc
00000190: c44c 4d3d 81b9 32bd 137e a3bc ded4 0fbd
000001a0: cb98 b13b ffe6 f03d 3851 5cbc baac fe3c
000001b0: b05e f83d ed59 a4bd 5ce1 893d e2db 6fbd
000001c0: 08d6 883c 5bad 4dbd 90fc 903d f05d 903c
000001d0: 9d4e 2c3b 36ee b2bd 8c85 793d f84f 6ebd
000001e0: 71b7 f13d 4f42 f5bd 96ab 86bd cc97 433d
000001f0: cca2 9cbd e252 0cbe 9f73 eabd 8315 0d3d
00000200: 3238 aa3c cf40 c43d ddce 37bd b459 be3c
00000210: bea8 d1bd 5a4d 39bd 3c0a eebd 52d6 37bc
00000220: 72cb ad3c 50a5 f2bd 9d51 0d3d 59f9 59bd
00000230: 2790 223d 1df7 9e3d b5d4 c83d b88d efbc
00000240: 9c63 a3bd d227 00bd 1ee9 d43b 81b6 a03c
00000250: 0ecd 083d 982a 7e3d 712b dabc 7760 34be
00000260: 98c1 c9bd 2ea2 16bb 811b 25bd 8e33 b63d
00000270: 13b8 62bc 0c75 63bd cfe3 423c 496c b9bd
00000280: ede1 22bd 96d3 0c3d f5db 0fbe 5266 763d
00000290: b903 a9bd 1d77 c5bc ae45 8c3d 8710 4ebd
000002a0: 599d 1ebe 1053 743d 0343 703d 175d b1bd
000002b0: 429f c83d e042 84bd 99be 1abd d6d4 583d
000002c0: dca5 89bb 9bdc 23bc 0165 a93c 3432 f3bc
000002d0: db8b 9abd 7fa3 773d 0756 c43d 37bb 48bd
000002e0: b741 d03d 32bd 8ebd 6a49 94bd b6cd bc3c
000002f0: 93e5 ccbd 5d79 093d 0c8b a9bd df22 1fbc
00000300: 927a 423e 95ad 49bd be07 b63d 45b3 49bd
00000310: f64e 9c3d 3ae1 b73c 1323 a3bd d4a5 bc3c
00000320: 2d25 13bd 83d4 833b 1d6e 063c 873a 51bd
00000330: 3f74 c93b f233 eabd c246 05be e9ac 083d
00000340: 05a7 28be 887d 10be 8db7 ce3d 279a bbbd
00000350: 631a 343e 5f6f 983d e3c4 a2bd 8e5e cabd
00000360: 34e9 dbbd a1fe 0dbd f2c8 91bd f37b b8bd
00000370: 92bf 93bc cebc 18be e18a ae3c 02f7 f73d
00000380: 7830 e53c 8302 903d a2d9 743d ee87 9bbb
00000390: b8e6 c13d 3901 00bd 3ca9 fa3b f398 0cbd
000003a0: 1334 a23d 569c 03bd 838a 40bd d550 aebc
000003b0: 0cee fcbd 0807 71bd 2556 e33c 4ab5 3f3a
000003c0: 36a6 173d e9ec 80bc 9a87 473a 994f b73d
000003d0: 4d2e 4abd 758c ae3d e59b 993c 0191 e8bd
000003e0: f0dc 323d 779a d9bd 2b0f 163d 4e75 d4bd
000003f0: 4bd3 34bd cc70 93bc 268a 8abd 54b3 39bd
-0.01760894 0.045589317 -0.059541684 -0.086278535 -0.073695414 0.040170744 0.018769404 -0.062784895
0.045953024 0.019128244 0.12931386 0.007979949 0.06821031 -0.006947654 -0.032087237 -0.030848512
0.0023361058 0.14255711 0.0040347916 -0.23166203 -0.0049914895 0.0032293347 -0.013893964 0.07876687
0.057298742 -0.08573601 0.018271014 -0.0130629875 0.033857234 0.008587573 0.055239458 -0.033424936
-0.009039209 -0.06556284 0.042888813 0.0037840852 0.1020314 -0.073960245 0.086029656 0.116356924
0.05044285 -0.032867603 -0.111215346 0.051789902 0.052347075 0.04338699 -0.14531566 0.021009851
-0.06428869 -0.00038789975 -0.11685243 0.0726062 0.15967056 -0.053930514 -0.070440784 0.03509867
0.122941345 0.057880953 -0.05594278 0.10927029 0.056339126 0.19802074 -0.07544082 -0.07812158
-0.14517006 0.07219085 0.023186093 0.054625403 0.019745115 -0.042163238 0.011343937 -0.041545913
0.0035335387 -0.046162557 -0.04228358 0.0004651684 -0.09117918 -0.06474474 0.057621133 0.04411236
-0.14910382 0.07798656 -0.0937825 -0.027450608 -0.15104684 0.022491021 0.05164935 0.01399933
0.0074460367 0.093836255 0.08237007 0.051234376 0.03965804 -0.020348698 0.1708904 0.021758014
-0.062044896 -0.056894034 -0.035782445 -0.024296498 0.050122038 -0.04363394 -0.019957578 -0.035115115
0.0054198257 0.11762809 -0.013447098 0.031088222 0.12127435 -0.080249645 0.06732437 -0.058559306
0.01670362 -0.050214153 0.070794225 0.017622918 0.0026291974 -0.087368414 0.060918376 -0.058181733
0.11802567 -0.11975538 -0.06575696 0.047752187 -0.076482385 -0.13703492 -0.11447834 0.034444343
0.02077875 0.09582674 -0.044875015 0.023236133 -0.10237263 -0.045239784 -0.11623046 -0.011220532
0.021215174 -0.11847937 0.03450166 -0.053216312 0.039688256 0.07761977 0.09806196 -0.029242381
-0.07977983 -0.031287976 0.0064975163 0.019618275 0.03339868 0.06205234 -0.026632043 -0.17614923
-0.09851378 -0.002298485 -0.040309433 0.08896552 -0.013837832 -0.055531546 0.011895134 -0.09053857
-0.03976624 0.03438147 -0.1404875 0.060156174 -0.08252663 -0.02410465 0.06849228 -0.05030873
-0.15489711 0.059649527 0.058657657 -0.086603336 0.09796001 -0.06458068 -0.037779424 0.05293735
-0.00420068 -0.010001327 0.020678045 -0.029687025 -0.075462066 0.060458656 0.09586721 -0.049006667
0.10168784 -0.0696968 -0.07240565 0.02304731 -0.10004725 0.033563007 -0.08278474 -0.009712904
0.1899207 -0.049237806 0.088881955 -0.04924323 0.07632248 0.022446264 -0.07965674 0.023028292
-0.035924125 0.004023136 0.008204964 -0.051081207 0.006147891 -0.11435689 -0.13015273 0.033368025
-0.16469963 -0.14110386 0.10093603 -0.091602616 0.1758819 0.07443117 -0.079477094 -0.09881316
-0.10737839 -0.03466666 -0.071184054 -0.090080164 -0.018035684 -0.14915773 0.021306457 0.1210766
0.027977213 0.07031729 0.059777863 -0.0047464287 0.09467834 -0.031251166 0.007649569 -0.03432555
0.079200886 -0.032131515 -0.047007095 -0.021278778 -0.12350091 -0.058844596 0.027751038 0.0007313086
0.037023745 -0.015737968 0.0007611454 0.08950729 -0.049360562 0.08522884 0.018751094 -0.11355782
0.043667734 -0.10625165 0.03663556 -0.103739366 -0.044146817 -0.017998122 -0.06764631 -0.045337036

features.3.bias f4 [256]
00000000: 5a5d b7bd 5fd6 483d 7ef9 78bd 3805 9ebc
00000010: 4277 363d e2ec 2d3d b2db e03c c847 e93a
00000020: 0fc9 e33c 5488 77bd 2f73 f3bd 64a7 813d
00000030: 4f50 00bd f165 bfbd bbe4 a0bd bb04 8cbd
00000040: 89f7 9e3c 8f3a 8abc 4e67 1d3c ab50 3e3d
00000050: 88fc 323d d094 5ebd 79e9 22bd 3dea 2bbd
00000060: 747c 78bc 0365 8a3d 5b99 76bd e9e1 63bb
00000070: 9c46 87bd d43c 53bd 8f15 e9bb f556 013e
00000080: 50ea 8d3b b7a6 babb 0e6a 09bd 7978 4c3d
00000090: f3a3 cbbc 2f59 473b 5982 3f3c f143 39bd
000000a0: 1d34 0fbd 5d72 42bd 1e7a 14bd 5764 a43c
000000b0: 42ff 1fbd d1f2 39bd 0ab0 3f3d 0bae 64bc
000000c0: 8af4 5ebb 77d2 b1bd dd40 583c 0803 90bc
000000d0: 58f5 3ebd bc8d 643d 8610 463d 7e96 56bd
000000e0: f3c1 943c 2413 493d 0519 89bd 5103 bb3b
000000f0: 963c 86bd ba98 023d 85b9 a1bd 5354 983c
00000100: f120 213a a41f 89bd dc6e b33d ed41 61bd
00000110: 0823 323d 6da1 2a3d 6947 b7bd fb1a 073d
00000120: 6561 82bc 4ef9 cf3a fd19 173d 55a4 0fbd
00000130: a9e0 2abd 9590 dbbb 6222 1abe 5f4d 493c
00000140: 1116 ce3c 2e1b cdbd a663 21bc 138d 50bd
00000150: 2bee c3bd e547 bcbb ba37 8fbc 9792 83bd
00000160: 8e13 313d ffe9 a73d 33e3 8ebc 7bf8 6dbc
00000170: c5cd 1ebd ea68 cd3c 07de d4bd 8146 953c
00000180: baf6 94bd 211b 833d b857 f9bc 3956 033d
00000190: 7a57 1fbd 4433 a1bd 207b 0a3d f5b3 0e3c
000001a0: 5b6c 093d 367b 21bd 5c6d 04bd cde9 a13d
000001b0: bdae 973c 9bb8 9b3d 42ae ec3c 0867 74bd
000001c0: 21ae 58bc 5c21 10bd 388c 243c 8d09 5b3b
000001d0: 0e8b 443d 8451 933d bc01 d0bd 44c5 60bd
000001e0: 0bdb 3e3d 8d59 483b a150 ea3c b690 8dbd
000001f0: 1a64 58bd 5e5e a3bd 9ac3 f73c 1b41 56bc
00000200: 674c 03bd bf24 643d 27ca 823d 1068 3b3d
00000210: 785e 40bd acf0 bfbd 79a5 44bc e145 b0bc
00000220: 2409 3d3d 7e7f 983b 0f8e 8a3d 154d 2e3d
00000230: 4017 593d 72e0 923c dd31 b3bc 3267 c4bd
00000240: 1a4f f63c 9b2b 08bd b3fb 40bd 27ae dfbb
00000250: 851e 1d3d 1bea 8b3d 718d b2bc bba0 fe3c
00000260: 7bda 5dbd e4d0 c73c ddc3 fd3b a830 843d
00000270: 775d 8cbc 16ff 123d 5255 703c 0563 76bb
00000280: 90d3 5dbd fbdb 39bc 464f 223c 8c95 56bd
00000290: 99fd 633c 8aa0 19be 6e53 42bd 1745 f2bd
000002a0: c342 1fbe 02c2 5fbc e025 db3b a2c6 183d
000002b0: 23dc 833d b335 0dbb b52c 9dbd c63e 3f3d
000002c0: 6209 39bc 7172 e6bc 23d5 223b d3eb 983c
000002d0: 6d03 043d 6684 46bd 8b6d 95bd 70f0 063d
000002e0: 792e 8ebc 2c4d c33d cc6b 3fbc 3f93 c33d
000002f0: c745 383d 96a6 1839 4c63 74bb 02b6 963b
00000300: 5efd d13c 8dcf 003c da07 b43c 920f 4ebd
00000310: 0370 db3d 742c 9bbd 3d88 45bd ccd6 7bbd
00000320: a563 8e3b cf21 013d a762 29bd 5992 43bd
00000330: c7ab 23be 2995 6e3d a87a 253d 2052 463c
00000340: defd 13bd 51f4 883d 8ebd 0fbd 9605 b93d
00000350: 5ed4 04bd c3e8 f2bc d850 73bc 5740 703d
00000360: 051c d1bc 8926 28bd 628f eb3c a096 7a3d
00000370: 3446 edbd d557 9bbd 5504 5cbd 1d2e 7c3d
00000380: 6561 0a3c 373a e0bd 58ad e03d ce75 64bd
00000390: 6110 983d 04cb 943d 1a4a 86bd 1cb3 2c3d
000003a0: 5712 d13d e902 97bc ab6a 283d 6203 483d
000003b0: b289 65bd 8822 7e3d d7ee 983d eea4 38be
000003c0: bfd9 fe3b 2201 e43d c752 9bbd ca76 70bd
000003d0: 8964 20be e956 babd e37e 3ebd 5238 bd3d
000003e0: f9c0 d83c bca1 68bd 6036 38bd 321c 6bbd
000003f0: 4fb6 673d dc92 a1bb ea83 ae3c c50d bebd
-0.08953352 0.049032565 -0.06078481 -0.019289598 0.044547327 0.042462237 0.027448509 0.0017797882
0.027805833 -0.060432747 -0.11887204 0.06330755 -0.03132659 -0.09345616 -0.07856127 -0.0683684
0.019405143 -0.016873626 0.009607149 0.04646365 0.043697864 -0.054341137 -0.039773438 -0.041971434
-0.015166391 0.06757548 -0.060204845 -0.0034772104 -0.066052645 -0.051571682 -0.0071131657 0.12630828
0.0043309107 -0.0056961435 -0.033548407 0.04991958 -0.02485845 0.0030418148 0.011688792 -0.04523081
-0.03496181 -0.047472347 -0.036249273 0.020067377 -0.039061792 -0.045397583 0.046798743 -0.013957511
-0.0034020268 -0.08682721 0.013199058 -0.01757957 -0.046620697 0.05579923 0.0483556 -0.052389614
0.018158888 0.04909052 -0.06694225 0.0057071825 -0.065545246 0.031883933 -0.07896713 0.018594896
0.0006146571 -0.06695488 0.08761379 -0.054994512 0.04349044 0.041657854 -0.08949167 0.032984715
-0.015915582 0.0015867145 0.03689002 -0.03506883 -0.04171816 -0.006700585 -0.15052179 0.012286513
0.025157006 -0.1001495 -0.009850418 -0.05091579 -0.09566911 -0.005745875 -0.017482627 -0.06424444
0.04323154 0.08198928 -0.017442321 -0.014524574 -0.038770456 0.025074441 -0.10393911 0.018222095
-0.07273622 0.06401659 -0.030437335 0.03206465 -0.038901784 -0.07871106 0.033808827 0.008709897
0.0335506 -0.039424144 -0.032330856 0.07905922 0.018515939 0.0760357 0.028891686 -0.05966857
-0.013225109 -0.035188064 0.010043196 0.003342244 0.047984175 0.07193282 -0.10156581 -0.054875627
0.046595614 0.0030570955 0.0286029 -0.06912367 -0.05282984 -0.079769835 0.030244637 -0.013077046
-0.032055285 0.055699106 0.06386214 0.04575354 -0.046965092 -0.093720764 -0.012002342 -0.021517696
0.046151295 0.00465387 0.06765377 0.04255398 0.05300069 0.01792929 -0.021874363 -0.095899954
0.030067015 -0.03324471 -0.04711504 -0.0068261805 0.038359184 0.068317614 -0.02179596 0.031082502
-0.054163437 0.024391599 0.007744296 0.06454593 -0.017134411 0.0358878 0.014668779 -0.0037595641
-0.05415684 -0.011343951 0.009906596 -0.052388713 0.013915443 -0.15002647 -0.047442846 -0.11829584
-0.15552811 -0.013657095 0.0066878647 0.037298806 0.06438472 -0.00215469 -0.07674543 0.046690725
-0.011293741 -0.028130742 0.0024846278 0.018667137 0.03222983 -0.04846611 -0.07296284 0.032944143
-0.017356144 0.09536204 -0.011683416 0.09549569 0.04498842 0.00014557908 -0.003729063 0.0045993337
0.02563351 0.007861984 0.0219764 -0.050307818 0.10714724 -0.07576838 -0.04822563 -0.061484143
0.0043453746 0.031526383 -0.041353848 -0.04774699 -0.15983497 0.05824772 0.040400177 0.012104541
-0.03613078 0.06687225 -0.035092883 0.090342686 -0.03242909 -0.029652005 -0.014850818 0.05865511
-0.025526056 -0.041052375 0.028754894 0.061178803 -0.11585656 -0.07585112 -0.05371507 0.061567415
0.008446072 -0.109486036 0.10970563 -0.05577641 0.07424999 0.07265285 -0.065571025 0.042163
0.10208576 -0.018434005 0.04111735 0.04883135 -0.05603952 0.06204465 0.0746743 -0.18031666
0.007777422 0.111330286 -0.07584148 -0.058707036 -0.15663351 -0.09098608 -0.046507727 0.09239258
0.026459204 -0.056794867 -0.04497373 -0.057399936 0.056570347 -0.004930837 0.021303136 -0.0927997

features.6.weight f4 [128, 256]
00000000: 3d26 1fbd eee3 8a3d 0940 0ebe 6862 b0bd
00000010: ad0c d23a 0c57 a4bd 24db d3ba 1335 82bd
00000020: bb22 3bbd 9706 91bc 04ec 12be 753f 14bb
00000030: a81c 693d a582 87bd 8a70 d13b 048c c7bd
00000040: 7d67 073d ab54 053d a2cb 9d3d 5ee5 6dbc
00000050: f0e3 803d 26aa ecbd b942 f2bc c95f 4dbd
00000060: 7942 c2bc b7a5 1f3c f9d5 6abd e733 3cbd
00000070: 3db9 20bd 484b 7fbc 1f2a 143d 70c1 95bc
00000080: 22a3 bb3d 0a28 6d3c d21d 42be 0977 3cbd
00000090: 5861 6b3c 18f3 c1bd 5a5d 3dbd f64d 87bd
000000a0: 2bba 273d b4b4 eb3c 909e 8fbd e598 873c
000000b0: b509 9bbd a113 3dbe 0580 e53a 6b41 2dbe
000000c0: e822 adbc 9e99 203d 61e1 00be a89c 99bd
000000d0: 1676 c2bd 93af af3d 9aa6 e1bc 7118 cfbd
000000e0: 1a93 23bb e16e 03bc 207d 95bc b2a8 37bb
000000f0: 0fd8 10bd 4d96 6d3c 947b 89bd 31f3 b33d
00000100: 20df 043b a15a e93c e079 bebc 4255 70bc
00000110: 6f80 a2bc 4249 1e3b d9fb 633c 20ba 793d
00000120: bf6c d2bd 1c97 3cbe b08d debc 8da4 8c3d
00000130: 687e dcbd 6f2c 7f3d 2c6e bfbb 2f9f d6ba
00000140: 35f7 f13b 0f9f d1bc c730 a93d f9d8 e9bd
00000150: 6a8e 06bb 038f 91bd d672 24bd 803d b3bc
00000160: 8947 27bd c015 36bd e760 ffb9 0e31 0b3e
00000170: 3fe0 3c3d bff6 483d a75e 3bbd 1995 d13c
00000180: 21ba 82bd 7106 4abb cb1b 12bd f0b8 b0bd
00000190: 45b0 12be 7faa 85bd 2705 bf3c b871 613d
000001a0: 717d f23d 6d16 2f3d ab7f a73d 372c a33c
000001b0: 7508 0c3d 5ffa ab3c f953 02bd aafe bf3b
000001c0: aba9 81bd 4a74 38bd cd80 8cbc 6b2a f03d
000001d0: 4cde 743d e54d 313c 6bda 063c 20d1 433b
000001e0: 1936 bd3d 176b 0d3d 791d 6ebc 2cf1 c9bb
000001f0: 9002 03bd 468a 28bd 3d6e 3fbd 1311 1cbe
00000200: 0286 fabc 0df3 923c a9f3 77bd a2a5 0fbd
00000210: 417b 12bd 36a0 94bb a60c b4bd 2ed8 e1bd
00000220: 7bcf fabc 56a6 413d 5c0d 85bd 6794 3d3c
00000230: 84da 053d 3499 933d aaa1 a9bd f19f 12bd
00000240: e76c 193d 2372 32bd 1257 02bd 0bed febd
00000250: eefb 14bd 9912 053d 12d2 ca3d a815 503d
00000260: 94be 5ebd 372e 32bd 395f 863d 6c06 37bd
00000270: f963 8a3d 36de 67b9 e883 adbb 2129 233d
00000280: 4ae1 aabd e531 afbd 14af f03c 8358 06bd
00000290: 7e90 193d 817a 9ebc c6ef 37bd 990d fabc
000002a0: 0d19 0dbd 6218 38be f5bc 363d 5e3e 943d
000002b0: 26b2 6f3d d8c4 17bd fa95 abbd faa0 e1bd
000002c0: 08ff afbb 6130 fabc c5e4 71bb 4d78 833c
000002d0: 2868 883d 9027 d6bd 7291 a5bc ced4 e1bc
000002e0: c66f 52bc cdd9 483d 0bec cd3c 360e 1cbc
000002f0: c651 69bd a15e a3bc 4e06 4a3c 3dfe 823d
00000300: 00be 08be 0adb 5abd 6dd4 823b 2730 783d
00000310: b303 e93c 9b5e 50bd f7f3 133c 3281 91bd
00000320: 372d aa3d db6e 88bc af2d aabd 9df9 87bd
00000330: 5737 06bd 81df 31bd 85c9 313d 07e3 493d
00000340: 2606 97bd 61cd 42bd 6c7b 28bd 0930 d1bb
00000350: 42a5 603b e8b1 47bd 15ad f1bc 18b5 a9bb
00000360: da86 a7ba fdfb 3dbe 05dd c73d 9928 d7bc
00000370: 1024 de3c 22c5 aabd fde2 113c 4e90 2f3c
00000380: dc1e 073c c2aa a9bd d70d 553d 210f b2bc
00000390: 8d90 5cbd 5c1b 62bd 44e4 52bd 7790 0abb
000003a0: 6401 533c c710 22bd 6380 22bc 2ba1 223d
000003b0: d7c8 52be 46d9 473d 17b1 da3c 76c1 cfbb
000003c0: a3c4 ffbb f369 28bb ccf5 cfba 4261 32bd
000003d0: bde3 29bd 454c 6fbc ed76 59bd f031 423b
000003e0: 73eb 993c 1a6a cdbd 1d09 92bd 8a5a 01be
000003f0: d3c5 ab3c 14a5 cfbd baff d23d 2bd5 613d
-0.038854826 0.067817554 -0.13891615 -0.086125195 0.0016025506 -0.080244154 -0.0016163331 -0.06357779
-0.04568742 -0.017703338 -0.14347845 -0.002262083 0.056912094 -0.06616715 0.0063915895 -0.09743503
0.03305768 0.03255145 0.077048555 -0.014520017 0.06293476 -0.11555891 -0.029572831 -0.050140176
-0.023713337 0.009744099 -0.057332966 -0.045947935 -0.039239157 -0.015581913 0.036172982 -0.018280715
0.091619745 0.014474878 -0.18956688 -0.04601196 0.01436647 -0.094701946 -0.046231605 -0.06606667
0.040949028 0.02877269 -0.07012665 0.016552398 -0.07570211 -0.18464519 0.0017509466 -0.16919486
-0.021134809 0.039209 -0.12585975 -0.07500583 -0.09495179 0.0857841 -0.027545262 -0.10112084
-0.0024959506 -0.008022041 -0.01824814 -0.0028024134 -0.0353623 0.0145011665 -0.06713024 0.087866195
0.0020274594 0.028485598 -0.023251474 -0.014668765 -0.019836633 0.0024152552 0.013915026 0.06096852
-0.10274648 -0.18417019 -0.027167171 0.06867323 -0.107662976 0.062298235 -0.005841991 -0.0016374345
0.0073842057 -0.02558854 0.08261257 -0.114183374 -0.0020531663 -0.071073554 -0.04014858 -0.021879911
-0.040839706 -0.044454336 -0.00048709588 0.13592932 0.046112295 0.04906344 -0.045744564 0.02558379
-0.063831575 -0.0030826593 -0.035671037 -0.08629024 -0.14325054 -0.0652666 0.023317887 0.05504009
0.11840332 0.042745996 0.081786476 0.019918544 0.034187753 0.02099341 -0.031818364 0.0058592157
-0.0633119 -0.045032777 -0.01715126 0.117268406 0.05978231 0.010821794 0.008230786 0.0029879287
0.09238834 0.034525957 -0.014533394 -0.006162783 -0.031984866 -0.041147493 -0.04673599 -0.15240888
-0.030581478 0.017938161 -0.060535107 -0.03507007 -0.035762075 -0.0045357 -0.08791475 -0.11027561
-0.030616513 0.04727777 -0.06496689 0.011571026 0.032679096 0.072069556 -0.08282788 -0.035797063
0.037457373 -0.04356588 -0.031821318 -0.12447556 -0.03637307 0.03248844 0.09903349 0.050801903
-0.05438097 -0.043501105 0.06561131 -0.04468386 0.067573495 -0.00022112657 -0.0052952655 0.039834145
-0.08343752 -0.085544385 0.029380359 -0.032799255 0.037491314 -0.019345524 -0.0449064 -0.030524062
-0.03444772 -0.17978051 0.044613797 0.07238458 0.058519505 -0.03705296 -0.08378215 -0.11017032
-0.0053709783 -0.030540647 -0.003691004 0.016048575 0.06660491 -0.10456765 -0.020210955 -0.027567293
-0.012844032 0.049035836 0.025136968 -0.0095248725 -0.05696275 -0.019942584 0.012330605 0.06396148
-0.13353729 -0.05343155 0.0039926083 0.060592797 0.028444147 -0.050871473 0.009030334 -0.0710472
0.08309405 -0.016654423 -0.08309495 -0.06639407 -0.03276762 -0.04342604 0.043405075 0.049288776
-0.073742196 -0.047559146 -0.04113333 -0.0063839 0.0034278189 -0.04875365 -0.029501477 -0.0051790588
-0.0012781278 -0.18553157 0.09758953 -0.026264476 0.027116805 -0.08338381 0.008904216 0.010715557
0.008247104 -0.082845226 0.05201515 -0.02173573 -0.053848792 -0.055201873 -0.051487222 -0.0021143237
0.0128787495 -0.03956678 -0.009918305 0.039704483 -0.20584427 0.048791192 0.026695771 -0.006340201
-0.0078054233 -0.0025697916 -0.00158661 -0.043549784 -0.041476954 -0.014605586 -0.053091932 0.0029631816
0.018789029 -0.10030003 -0.071306445 -0.12632194 0.020968353 -0.10138908 0.10302682 0.055134933

features.6.bias f4 [128]
00000000: 0e8a 8c3d a52d 20bd 4739 2cbd e4cd 54bb
00000010: f183 07be e5b3 a53d 53f0 c83d 08b1 c13c
00000020: 4e54 063d 2e07 533a 9b85 a13d 3099 77bd
00000030: e345 37bd 05d9 f5bc 650b 45bd 10d7 063d
00000040: 5a60 7a3d cdf2 463d 5b35 ce3d 4fe8 6c3c
00000050: 9ced 6d3d f417 d43c 4801 a1bb c213 ab3d
00000060: 2c02 32bd 4b97 3e3d 9cd8 8b3d e7a2 7d3d
00000070: cc53 b63c f270 bbbd d43b 6d3a eb45 673c
00000080: 248d dc3c defa fdbd fef3 a53c 61c9 83bc
00000090: 7b06 4c3b 583f 083d d21a ef3d ac0e f8bc
000000a0: 3c60 9f3c 78b0 853b da27 f7bd 1780 883a
000000b0: d23a dfbd 6d37 c03d 054f d43d 5af1 3c3d
000000c0: 601d b83d eab9 9f3d d788 82bd f255 323e
000000d0: acf4 073d d920 c13d 0dc1 0f3d 1bd9 aa3d
000000e0: c8d1 7a3d 8fa6 48bd c8aa 9a3d 3b90 9e3b
000000f0: 6010 e43c a8fc 2abd f563 b13d 158d cd3c
00000100: 19fa 41be c606 ea3d d97b e23d 2a5e 713d
00000110: 3f11 1abd ab52 39bc 92e9 f5bc 797f e23d
00000120: 23d6 2bbd 19d8 f13d c8e2 5f3d 315e ed3d
00000130: b50e a93d 81bf 54bc 1921 aa3d 3b09 713d
00000140: 8dc2 40ba 10eb 5c3d 6dcd 2d3d 1b73 9fbc
00000150: 11e4 52bc ce7d 983c 2d7f c6ba b8f0 bd3d
00000160: 82e7 973d c6b2 573d 6e56 913c 1bad 083d
00000170: a052 b83c 0953 48bd eb3d c73d c77f 0b3d
00000180: 8a81 0c3e 29ed 923c 393c 303d 1835 c43c
00000190: a60b f53d a4db 013c 73a1 3d3d 514a 053d
000001a0: 80de e83d 0e92 813c eb47 d9bc 596b d4bb
000001b0: 4cb0 573c 0754 0c3e fa82 c83c 16dd 5d3d
000001c0: acaa 2abc dbcd b73c f66f dcbc 3546 f63d
000001d0: c57c 30bd 7d28 46bc 6baa 463a 51c1 2f3c
000001e0: b7c1 943d 6814 c7bd 77a5 4f3d 9064 503d
000001f0: 6ca3 d0bc 13a7 613d 9a1c 203d 3c21 993c
0.06862269 -0.03910603 -0.04204681 -0.0032471353 -0.13233925 0.08090953 0.09811463 0.023643985
0.032795243 0.0008050081 0.07886811 -0.060448825 -0.044744384 -0.03001071 -0.04810657 0.032919943
0.061127044 0.048571397 0.100687705 0.014459684 0.05808793 0.025890328 -0.004913483 0.08353378
-0.043459103 0.046531003 0.06828424 0.061922934 0.022256754 -0.09152402 0.00090497476 0.014115791
0.02692277 -0.12401365 0.020257946 -0.016087236 0.0031131792 0.033263534 0.116750374 -0.030280434
0.019455068 0.0040798746 -0.12068148 0.001041415 -0.10899891 0.09385572 0.10366634 0.04612861
0.08989978 0.07799132 -0.063737564 0.17415598 0.03319232 0.09430093 0.035096217 0.08342191
0.06123522 -0.048986968 0.07552105 0.004838971 0.02783984 -0.041744858 0.086616434 0.025091687
-0.18943061 0.11427073 0.11058778 0.058927692 -0.037614103 -0.0113112135 -0.030018602 0.1105947
-0.041952264 0.118087955 0.054659635 0.11590231 0.08254758 -0.012985111 0.08307094 0.058846693
-0.0007353209 0.05393511 0.042432237 -0.019464066 -0.012871758 0.018614676 -0.0015144103 0.09274429
0.074172035 0.052660726 0.017741408 0.03336821 0.022500336 -0.048907313 0.09728607 0.034057405
0.1372129 0.017935352 0.043026183 0.023951098 0.119651124 0.007925902 0.046296548 0.032541577
0.113705635 0.015816715 -0.026523551 -0.0064825234 0.013164591 0.13703929 0.024476517 0.054165922
-0.010416668 0.022437027 -0.026908856 0.1202511 -0.04308774 -0.012094614 0.0007578495 0.010727243
0.07263511 -0.09720689 0.05069491 0.050877154 -0.02546855 0.055090975 0.039089777 0.018692605

validity_head.0.weight f4 [64, 128]
00000000: 2b86 263d 4f45 6bbb 8fd5 6fbd c4e2 b5bd
00000010: 4c1f f83c e4a5 eebc c421 04bd bb83 02be
00000020: a329 2dbb 7837 17bd 9a71 b43d 7625 463d
00000030: 05e7 04be 5925 7fbd 9d94 83bd 3c99 4e3d
00000040: 41fc e7bc 76b2 f5ba 60d4 023d efa8 763d
00000050: f8f1 053c 1339 ee3c e602 61bd 6ad0 f73d
00000060: 2a51 e6bd cf29 033c 1d48 a03d 4f4e 633c
00000070: 0b23 0fbd 1362 debc b2c1 94bc 5cf6 0bbd
00000080: d89f aebd 933b 11be 3d7e 4a3d 14fc fcbd
00000090: 550c 84bc bf53 5dbd 3b6b c0bc 7292 fe3c
000000a0: e012 343e f763 2ebe a061 2fbd ea56 18bb
000000b0: cb1b 683d 5167 593d 8dd8 29bd a0a6 fa3d
000000c0: 10c6 26bd 37f8 8fbb e564 89bd 3f28 c13d
000000d0: bbef 0fbe 6782 243e 4a7d dd3d 1bbc 9bbb
000000e0: 328f febb 9407 2fbe 05ad db3d 04f5 633d
000000f0: c4c1 cc3c 1247 63bb 4700 413d 85a2 d23d
00000100: ab5f e8bd ec1e 773d 7e7d 563d 2a38 6a3d
00000110: cf69 dabd 26da 4ebd 4339 cdbd 06d8 1cbd
00000120: d1c3 273d ab5c a03d 1ec1 903d 8693 1c3e
00000130: bab5 1c3b b1c3 3ebe ee74 ba3d 35f7 363c
00000140: c03a 9bbd 7b9a 243e 4ce9 493d e417 703d
00000150: 37ff 1abc 2dd5 9cbd 2c01 4cbd 9ea5 6d3d
00000160: 94f7 b53c eb0a d13d df6f 993c 5df8 9ebd
00000170: e8bf 37bd bd33 1fbe 811a a43d 351c 363d
00000180: c34c 99bc de70 6cbd d736 e5bd a4ca 903d
00000190: 4620 76bc c8dd 4e3d 6638 543d 9207 3a3e
000001a0: 43c1 43bd 4a10 1dbd bb5d 563d e980 0ebd
000001b0: 1c53 853d 88a5 ff3d 5199 2ebd 045d bdbb
000001c0: b667 3d3d 56b6 b33c fed8 24be 786f a73d
000001d0: e54e 463d 757f 01be 06a4 04bd ffb2 0a3e
000001e0: e3e4 913c b599 4d3d 9dac 353d 0532 50bc
000001f0: 10f9 bcbd b8d1 dd3c 8157 86bc ee43 7f3d
00000200: d1bf c63c 780b 363e e14f cabc 3e4e 58bc
00000210: bb29 373d 4f8f 2e3d 316c de3c 13dd 193e
00000220: 647d 523d 3039 a93b d88e 43bc ab76 91bd
00000230: bf8b 183e 4874 0e3e 1146 4d3e ae2c 793d
00000240: 7b87 f73b 01a1 4ebc 3103 553d bb4e b93d
00000250: 0299 4b3d 56eb a5bc 3939 eb3d f16d 6c3d
00000260: aff7 c63d 6260 cd3d be81 d93b 9b53 293d
00000270: 97da 153d ca72 aebd cb88 f43c d269 373d
00000280: 4bb9 c43d 6888 813c c1a6 ae3c 3884 183e
00000290: 8944 623e 7f38 073e 6c9e 323d df5a 8d3d
000002a0: f38b aebd f6ca 5c3e 66a0 eebb cc53 b53d
000002b0: e9f6 40bd e647 e63d a3b4 9e3d 8129 91bd
000002c0: 4b52 8fbd 9e5e 43bd 2baa 273e a098 a2bd
000002d0: 3f8e 183e 9529 0abe df36 643d 999c 8fbd
000002e0: d9f5 45bd 40d3 653e faf1 3b3d a06f 443c
000002f0: b077 0cbd 1853 b6bc 1a21 57bd 68c7 993d
00000300: 8096 ccbd 7403 853c b1ff 263d dd7d 053c
00000310: 16b1 673d 20cf e33d 6ad6 093e 2df3 3dbd
00000320: 188b d43d 6591 a0bd 140a dfbd 2d90 d1bd
00000330: 8b9c 94bc f2f7 533e a1cb 9abd 38cf c1bb
00000340: 8ce2 da3d 55eb 28be f210 403d 44f1 99bd
00000350: 0068 4e3c 73c9 3d3d 3bd3 9b3d 4456 ee3d
00000360: 51c1 ca3d 003c ee3d 9da1 993c d3b0 6a3c
00000370: e933 503d a05c 743e 8277 76bc 03f7 a73d
00000380: 2da2 093d 8084 743d 5640 a63e 0f5f babc
00000390: e489 313c 66bd 4ebd 6447 053e 1bab ffbd
000003a0: 605b b03d 3a3d 2b3d 8664 9b3d f7bc fe3d
000003b0: a99c 92bb 64bf 403d aaf4 443d 154b b2bd
000003c0: bc4e e63d 12fc 893d 6167 593e f818 39bd
000003d0: 3df5 0e3d a999 2d3d c210 e1bd 3840 fbbd
000003e0: f04a b0bd bbc4 abbc 36df bcbc 7e8c 03bc
000003f0: c244 c33a 4916 823c c7b7 033e 92e2 a83d
0.040655296 -0.0035899465 -0.058553275 -0.08881143 0.030288361 -0.029131837 -0.032258764 -0.12745564
-0.0026422522 -0.036918133 0.0881073 0.04837557 -0.12978752 -0.062291477 -0.0642483 0.050439104
-0.028318526 -0.0018745202 0.031940818 0.0602197 0.008175366 0.02907995 -0.054934405 0.12100299
-0.112459496 0.008005573 0.078262545 0.013873651 -0.03494553 -0.027146375 -0.018158767 -0.034170493
-0.085265815 -0.14182882 0.049436796 -0.123527676 -0.016119162 -0.054034945 -0.023488631 0.03107569
0.17585325 -0.17030321 -0.04281771 -0.0023245164 0.05666713 0.053077046 -0.041466285 0.122388124
-0.04071623 -0.004393603 -0.06708697 0.094315045 -0.14056294 0.1606537 0.108149126 -0.0047526485
-0.007768535 -0.17092735 0.1072636 0.055653587 0.024994738 -0.0034679812 0.047119405 0.102849044
-0.11346372 0.060332224 0.052365772 0.05718247 -0.10664713 -0.05050101 -0.100206874 -0.038291954
0.04095823 0.07830175 0.07068084 0.1529065 0.0023912028 -0.18629338 0.09104334 0.011167337
-0.07579565 0.16074555 0.049294755 0.058616534 -0.009460262 -0.076578476 -0.049805805 0.058019273
0.022212781 0.102071606 0.018730102 -0.07762215 -0.04486075 -0.1554708 0.08012868 0.044460494
-0.01871336 -0.057724826 -0.111921005 0.07069901 -0.015022343 0.050504476 0.0518116 0.1816695
-0.04779173 -0.038345613 0.052335482 -0.034790907 0.065099925 0.124827445 -0.042626683 -0.0057789106
0.046241485 0.02193753 -0.16098401 0.08175558 0.048415083 -0.12646277 -0.032382987 0.13544844
0.017809337 0.050195415 0.04435407 -0.012707238 -0.092271924 0.02707754 -0.016399147 0.062320642
0.024261387 0.17777812 -0.024696292 -0.013202248 0.04471753 0.04261714 0.027151199 0.1502574
0.051389113 0.005164288 -0.011935912 -0.07102712 0.14897059 0.13911545 0.2004626 0.060833625
0.0075539923 -0.0126116285 0.052004997 0.0904822 0.049706466 -0.020253818 0.11485524 0.057722036
0.09715211 0.10028149 0.006637781 0.041339498 0.036585417 -0.08517988 0.029850384 0.044778652
0.09605654 0.015812114 0.021319749 0.14894187 0.22096457 0.13205145 0.043608114 0.06902098
-0.08522787 0.21561798 -0.0072823046 0.088538736 -0.047110472 0.11244182 0.077492975 -0.07087994
-0.06998118 -0.047697656 0.16373508 -0.07939267 0.14898013 -0.13492425 0.05571639 -0.070122905
-0.04833016 0.22443867 0.045885064 0.011989504 -0.03429383 -0.022256419 -0.052521802 0.07508737
-0.09989643 0.016236998 0.04077119 0.008147684 0.056565367 0.1112349 0.13460699 -0.04637449
0.103780925 -0.07840232 -0.10890594 -0.102325775 -0.018141052 0.20700052 -0.075583704 -0.005914595
0.10687742 -0.16496022 0.04689116 -0.07516721 0.012598038 0.046334695 0.076086484 0.116375476
0.099001534 0.11632538 0.018753821 0.014324385 0.050830755 0.23863459 -0.015043141 0.082014106
0.03360193 0.059696674 0.3247096 -0.022750406 0.010836098 -0.050473593 0.13015515 -0.12483808
0.086111784 0.041806437 0.07587533 0.12438386 -0.0044742418 0.047057524 0.048084892 -0.08705727
0.11245486 0.06737532 0.21230842 -0.045189828 0.034901846 0.04238287 -0.109895244 -0.12268108
-0.08608043 -0.020967832 -0.023055654 -0.008029101 0.0014897811 0.015879767 0.12863074 0.0824634

validity_head.0.bias f4 [64]
00000000: c9b1 b33d fef2 8abd 6fc3 d13d 7def 4cbb
00000010: 3b19 8a3c 4db9 2d3b d101 193d 1b2a 58bb
00000020: b746 c83d 372f ddbc b366 08bd b9a2 033e
00000030: cf07 9cbd 184d 84b9 4e9f 583d 8840 67bd
00000040: eb82 833c cfbd ec3d 5367 033b 5fab 7e3d
00000050: d896 083e 3d4d 98bd 9745 0c3d 5c6a 1abd
00000060: c972 3dbc 94fd 923d 38ee 1abb 441a 0b3e
00000070: 934e cc3c 8b15 963d d4f3 8cbd de4f 713d
00000080: bfcc 3dbc 0fbd b03d e71f ad3d 0c8a c7bc
00000090: 8605 843b 3e8a 9f3d 43de dc3c 461c 93bd
000000a0: a8f1 793d 3ada 83bc 5b48 0f3e 8cd5 88bd
000000b0: c4ac bc3d 4573 26bb e32b 833c 2047 a0bd
000000c0: 3436 40bd d522 233b 5f5f 0bbc 1522 e83d
000000d0: 0644 f33c d51f c23d 2268 a93d 3b9d 043e
000000e0: ce25 b9bd 58a3 ef3d 775a aebd 67b3 3b3d
000000f0: c95c db3d 5817 7f3c 9a2c 103c 4fe5 bdbb
0.08774144 -0.06784628 0.10242354 -0.0031270676 0.016857734 0.0026508153 0.037355248 -0.0032984081
0.09779113 -0.027000053 -0.033301067 0.12855043 -0.07618677 -0.0002523444 0.0528863 -0.056458026
0.016053637 0.115596406 0.00200506 0.06217515 0.13338792 -0.07436607 0.034246054 -0.03769909
-0.011563011 0.071772724 -0.0023640525 0.13584238 0.02493981 0.07328328 -0.06882444 0.058914058
-0.01158446 0.0862981 0.084533505 -0.024357818 0.0040289788 0.077900395 0.026961451 -0.07183127
0.061021477 -0.01609527 0.13992445 -0.06681356 0.0921264 -0.0025398296 0.016012138 -0.07826066
-0.046926692 0.0024892588 -0.008506625 0.11334626 0.029695522 0.09478728 0.08271815 0.12950604
-0.09040414 0.11701077 -0.085133485 0.04582539 0.10711057 0.01556953 0.008799696 -0.005795158

validity_head.2.weight f4 [1, 64]
00000000: f301 1fbe 0f90 263e b4b8 29be 8cf9 a1bd
00000010: 0fce eb3e 4ce8 283e af39 08be a2f8 58bd
00000020: c8e0 abbd c6bb ea3d 2bc6 093e 132f 29be
00000030: c584 313e 4505 2abe 6d9b c7bd 1999 7b3e
00000040: 56f3 f8bd 38a9 36be bb47 e23e 60f2 dd3e
00000050: fbdc 29be 8d0a 833e 725b 20be c1a3 a33e
00000060: bd09 f43d f66a bdbd 853b c63e 7d9e 08be
00000070: d787 8dbd 5482 b83e 7c87 5a3e e1d3 b53e
00000080: bfb6 91bd 85e3 113f 9e18 acbd 8562 be3e
00000090: 2326 06be a173 7abd 89c5 b43e d516 4e3e
000000a0: 0f42 953e eb7a 303e 83e4 8dbd 572c 223e
000000b0: 523e 23be 593f 42be 8206 37be e47d 1d3e
000000c0: 20c9 403e 7b0b dabd 0d91 d23e 29f2 bdbd
000000d0: 13f1 9ebd 0ab6 cfbd 68ba 39be b328 31be
000000e0: 6a07 893e 0890 27be e95c 2b3e d3a1 3ebe
000000f0: b2b5 0dbe b964 38be fc1f 2a3e 625d b83e
-0.15528087 0.16265891 -0.16574365 -0.079089254 0.46055648 0.16494864 -0.13303255 -0.05297149
-0.08392483 0.11461596 0.13454501 -0.16521864 0.17335804 -0.16603573 -0.09746442 0.24570121
-0.12155788 -0.1783799 0.4419535 0.4334898 -0.16588204 0.25593987 -0.15659884 0.31960872
0.1191592 -0.09248917 0.38717285 -0.13341708 -0.06910675 0.36036932 0.21340746 0.35513213
-0.07114934 0.5698779 -0.08403133 0.3718454 -0.13100486 -0.06114543 0.35306957 0.20125897
0.2915196 0.1723439 -0.06928351 0.15837227 -0.15941742 -0.18969478 -0.17873576 0.15380055
0.18826723 -0.10646721 0.4112629 -0.09274704 -0.07760825 -0.10142143 -0.18137515 -0.17300682
0.2676347 -0.16363537 0.16734661 -0.18616419 -0.13838843 -0.18007173 0.16613764 0.36008745

classification_head.0.weight f4 [64, 128]
00000000: a845 ec3c beff 933d 868b d6bc b3dd af3d
00000010: 088a 86bc c4b0 e53c 1acf fe3d c053 78bd
00000020: cfb6 a83d ad48 1bbd 5755 c53d 01fe 3c3d
00000030: d6fc 7a3d df88 843d c20d 17be a09b 29bd
00000040: c1ab 063c bb6c 10ba c939 223c f3fb 1cbc
00000050: 5502 df3d 8909 01bd dbb8 243d 5f4f 443c
00000060: 093c 01bd 68fc d33d f5cd cebc fa4b 713d
00000070: abca c33b 480b 5bbd e908 a93d f47e cd3c
00000080: 0c74 e4bb dbde 823d 718d 003c ebf9 6f3d
00000090: 4dfe a5bd f9f7 913d 9161 4a3d 50ec 253c
000000a0: cb10 65bd 7d81 cdbb 4599 9b3c e984 b63c
000000b0: 8937 e8bc 2b90 bf3d b0c8 073d e6a8 7dbc
000000c0: 2d1f 503e 16e3 243e cd0d 843d fa14 00be
000000d0: 0255 7a3c 742e efbd d3fc d33d 9e38 8abd
000000e0: bb60 0b3e f58b 873d a8a2 3d3e 4d49 17bb
000000f0: c969 003e ae5f fc3c 589b bc3c 5a03 ab3d
00000100: 17bb db3b 84e6 b53d 8f83 0a3e 0054 c33b
00000110: 13e9 933d 26ef 683d 50e9 e53c f13a 9dbb
00000120: 2541 553d 717f 813d f78f 2a3a 0f3a 16be
00000130: 9852 843d 139a 92bb c84b c63d d777 813d
00000140: 2483 e63c f69d dbbd b3b4 8b3d 3d71 e43d
00000150: a814 f63d 48c9 b43d a4d1 923d 3bed 4ebd
00000160: 87a0 66bc 0c1f 39bd 5d19 9d3d 35a6 16bd
00000170: 00a2 b63c c888 b93c d752 f13d 8f92 af3d
00000180: 4f80 b33d ac2d 143e 5c8c 5bbd db6c 4dbd
00000190: 7cb2 0dbd f1fd 273d 8892 ab3c 1b15 9437
000001a0: d271 4ebb 3c65 593d e48e a4bd 3d45 533d
000001b0: 18b6 b8bc 202a d03d 6da4 3c3d dfd3 363d
000001c0: 0c74 bc3c f90b 4ebc b29b 1ebd bfde 89be
000001d0: c725 4e3d e854 cfbc ff11 67bc 0042 6abc
000001e0: 43df 4e3c 91b6 2cbb cf78 62bd e179 38bd
000001f0: ef61 b0bd b9f7 9b3d 7edf 45bc 0e92 33bc
00000200: 3b78 02bd 6104 3c3d 1bc3 a0bd 1b2e 84bd
00000210: 5478 86bd 49c6 9cbc 8cdf 81bd ed89 a2bd
00000220: 0c5f fcbd f59c 97bd b245 57bc a676 d43d
00000230: 2052 c6bb 34d4 d4bc 7a97 103e 768c d03c
00000240: d75e 0abd 64a1 3fbd 04e1 b63d 6b78 d8bc
00000250: 2943 0fbd be35 cdbd f9d2 6c3c 3bd6 06be
00000260: ab8e a2bd cf86 113d ba7d 4fbc 7b1a 42bd
00000270: a262 8c3d 558a dabc 6587 84bd 78c6 773a
00000280: 0705 99bd ff38 71bc 55d5 6e3c 7bac 0f3c
00000290: 0678 21bd 5df1 973d 1af4 10bd 00bf de3c
000002a0: a671 253d c5ee 0f3d f538 04bd b433 b7bd
000002b0: 4b01 ea3c 9229 cfbd 0cc5 bcbd 2fab ad3d
000002c0: f37e 35bd 621b 15be 4a57 1d3d 1768 d13d
000002d0: ffcc 733c 3f2e e13d 7dad a4bd 6efe 34bd
000002e0: 74e4 09be 1eb2 823d 9fad adbc c7d9 85bd
000002f0: dc63 50bc b1c7 8dbd 1e0f 7ebd ccd7 c6bd
00000300: f427 91bc 4d51 10be be79 c7bd 233b c5bd
00000310: 62a0 babd 690c b4bd db22 acbd a39e 0c3c
00000320: 5f55 bebd e8ec a9bd 8eea dabb b771 443e
00000330: 816c babd b136 3e3c 076a d73c 2c3b 363c
00000340: 9605 023d 7e54 edbb 26a0 233c 3a35 563d
00000350: 5ab0 bbbd 215f a0bd 579c 02bd 51cc e23c
00000360: 0469 b8bc 21f2 4ebc f649 3a3d 338a 84bc
00000370: 5349 8b3c fd21 18bd 7052 043d cad5 f7bd
00000380: daf7 35be 2861 0fbe cf42 933b 2fa6 313d
00000390: 9ba7 123c dbd4 ec3c 4edf 36bd 9959 0e3e
000003a0: 1b72 1b3d 60ba 833c 03a7 51bc 9f16 b1bd
000003b0: 1866 bcbd 33ef 5cbd 88ae 473c cdde 1dbe
000003c0: cada e73b 87ba 94bc 043c 56bc 6557 f73d
000003d0: 5175 093c d3ed 8d3d 3458 cf3d 44a4 003d
000003e0: 8b70 41bd 5ea5 43bd eb07 b5bd fc33 f93c
000003f0: 1678 47bc d594 3bbd a86a b2bd 9c99 92bd
0.028841808 0.07226513 -0.026189577 0.08587208 -0.01642324 0.02803839 0.12441845 -0.060626745
0.08237993 -0.037911106 0.09635418 0.046140675 0.06127628 0.064714186 -0.14751342 -0.04140818
0.00821966 -0.0005509366 0.009901472 -0.009581554 0.10889117 -0.031503234 0.040215354 0.011981814
-0.031551395 0.10350877 -0.025244692 0.058910348 0.0059750876 -0.053477556 0.082536526 0.02508495
-0.0069718417 0.063901626 0.007846222 0.05858795 -0.08105145 0.07127375 0.049409453 0.010127142
-0.05592422 -0.0062715397 0.018993983 0.022280173 -0.028346794 0.0935367 0.033150375 -0.015482163
0.20324393 0.16102251 0.06447945 -0.12508002 0.0152790565 -0.11678782 0.10350957 -0.0674908
0.13611118 0.066184916 0.1851908 -0.0023084462 0.12540354 0.030807342 0.023023292 0.08350249
0.0067056525 0.08881858 0.13526748 0.0059609413 0.0722219 0.056868695 0.028065354 -0.004798286
0.05206408 0.06323136 0.0006506438 -0.14670585 0.06461066 -0.0044739335 0.09682423 0.06321686
0.028138705 -0.10723488 0.06821575 0.11154411 0.120156586 0.08827454 0.07168892 -0.05051921
-0.014076359 -0.045195624 0.07670853 -0.0367796 0.022294044 0.02264823 0.117833786 0.08572876
0.08764707 0.14470547 -0.053600654 -0.05015264 -0.034594044 0.04101366 0.020943895 1.7652803e-05
-0.0031500948 0.05307506 -0.08035067 0.051579703 -0.022547767 0.10164285 0.046055246 0.04463565
0.023004554 -0.012576097 -0.0387227 -0.26927754 0.050328996 -0.025309041 -0.014103412 -0.014297962
0.012626472 -0.0026353935 -0.055290993 -0.045038108 -0.08612429 0.07615609 -0.0120772105 -0.010960115
-0.031852942 0.045902614 -0.078497134 -0.064541064 -0.065659195 -0.019137518 -0.06341466 -0.079364635
-0.12322816 -0.07402984 -0.013139175 0.10374193 -0.0060522705 -0.025980093 0.14120284 0.025457602
-0.033781853 -0.046784773 0.08929637 -0.026424607 -0.03497616 -0.10020016 0.014454597 -0.1316766
-0.07937368 0.035528954 -0.012664253 -0.047388535 0.0685475 -0.02667729 -0.06471137 0.00094518764
-0.07471662 -0.014723062 0.0145772295 0.00876915 -0.039421104 0.07419083 -0.035389043 0.027190685
0.040391587 0.035139818 -0.03228088 -0.089454085 0.02856507 -0.10115351 -0.09217271 0.08479916
-0.04431052 -0.14561227 0.038413323 0.10224932 0.014880418 0.10995149 -0.08040903 -0.044187956
-0.13466054 0.063816294 -0.021200953 -0.06535678 -0.012719121 -0.06922854 -0.062026136 -0.09709129
-0.017719246 -0.14093514 -0.09740017 -0.0963042 -0.09112622 -0.087914295 -0.08405086 0.008582744
-0.09293627 -0.082971394 -0.006680793 0.19184004 -0.09102727 0.011609719 0.026295675 0.011122506
0.03174361 -0.0072427383 0.009986913 0.052296855 -0.09164496 -0.078306444 -0.03188738 0.027685316
-0.022511013 -0.01263097 0.04548069 -0.01617918 0.017002737 -0.03714179 0.03230518 -0.12101324
-0.17770329 -0.14001906 0.004494048 0.043371376 0.008951093 0.028910091 -0.044646554 0.13901366
0.037950616 0.016080081 -0.012796166 -0.08646893 -0.0919916 -0.053939056 0.012187608 -0.15417023
0.0070756422 -0.01815535 -0.013075832 0.12077216 0.008389787 0.06930127 0.10124245 0.031406656
-0.04722647 -0.04776513 -0.08839401 0.030420296 -0.012174627 -0.045796234 -0.08711749 -0.07158205

classification_head.0.bias f4 [64]
00000000: 6db8 ce3b 6ced a8bc ded6 e13c dbe0 a83d
00000010: b4b4 88bd ba6d ac3d 33a6 9c3d 818f ebbb
00000020: b4a0 16bc 7f9f 0b3d 9804 50bb 2b98 053e
00000030: 2b7a d53b 7677 fe3b 60b9 863d 230a 10bd
00000040: e9a5 643d 2a5e 193b 4e5b d63d 7089 993d
00000050: e67c e53c 04cd 793d 7ba0 a7bc 382a ddbc
00000060: 54c4 073d d160 5b3d 9d5d f63d 70a1 b439
00000070: 3d20 9e3d 6dc9 70bd 1e20 f8bd 8b2b 6b3d
00000080: ebcc 9ebc 94be 193d af98 a13d f304 b23d
00000090: bdfe 9e3c f5a6 da3b faa6 453d 3096 c1bc
000000a0: 89fa b73d 05c3 a53d 13ed c93d 4c98 003b
000000b0: 2855 fbbb b6f5 d5bb b939 513d 9ffa 3cbd
000000c0: fd97 dfbc 5f7f 9aba cf79 ce3d 116e 043a
000000d0: e474 89bc 4696 0bbd d9ea be3c 77ec 923c
000000e0: 860c abbd bfb5 57bd c238 f3bc e338 ef3d
000000f0: 6aff 39bd d939 7a3d 9e8e a13d 5897 c53d
0.0063086064 -0.020621024 0.027568277 0.08246013 -0.066750914 0.08419366 0.076488875 -0.007188738
-0.009193588 0.034087654 -0.003174102 0.13046329 0.0065148077 0.0077657057 0.06578326 -0.035165917
0.055822287 0.0023402073 0.10466634 0.07496917 0.028013658 0.060986534 -0.020462265 -0.02699767
0.033146217 0.05355913 0.12029574 0.00034452556 0.07720993 -0.058785845 -0.12115501 0.057414573
-0.019384822 0.037535265 0.0789045 0.0869235 0.019408578 0.006672735 0.048254944 -0.023631185
0.08983333 0.08093838 0.098596714 0.0019622026 -0.0076700635 -0.006529535 0.05108044 -0.04613745
-0.027294153 -0.0011787227 0.10081827 0.00050518016 -0.01677937 -0.03407886 0.023305343 0.01793502
-0.08351998 -0.05266356 -0.02969015 0.11680772 -0.045409597 0.061090324 0.0788853 0.09648007
