model_gan/generator.pt (torch, 598720 bytes, 26 tensors)

model.0.weight f4 [128, 64]
-0.063133135 -0.038453784 -0.15427598 -0.023765046 0.05155851 -0.072825536 -0.008172618 0.023324413
-0.03851706 0.13211808 0.11474119 0.0590577 0.0950204 0.058400605 0.07425786 0.01373389
0.046487704 0.06962045 -0.1115876 0.046631172 0.07676371 0.04508027 0.00348804 0.0015377299
0.06450591 -0.15354356 -0.117916785 -0.032761697 -0.042697176 -0.04793606 -0.094006754 -0.001369311
0.030698022 -0.014057611 0.0033646496 -0.076999806 0.068844356 -0.02300309 0.09949447 0.092663184
-0.0673824 0.07004444 -0.09254113 0.049415227 -0.10268978 0.089839496 -0.06270844 -0.09976644
0.008592318 -0.074485816 0.08132218 -0.13284896 -0.01219895 -0.06322432 0.07531818 -0.080795534
-0.07797224 0.081797294 0.018666351 -0.005101211 -0.12077053 0.0040725265 -0.0029975385 -0.034251627
0.06220159 0.05529158 0.024548018 -0.0772252 0.11680016 -0.039097823 -0.11514333 -0.0879133
0.030588662 0.040347826 -0.113809146 0.07695548 -0.0042695287 0.033643555 -0.05844594 0.103387274
0.00041425138 -0.029067831 0.04701847 -0.027167207 0.1102689 -0.04581538 -0.07434174 -0.02830999
0.08764668 -0.092252456 0.12643208 -0.035888094 0.100470245 0.0537439 -0.17159283 0.01582453
0.010688071 -0.094620965 0.0028807253 0.10663185 0.16038191 0.07812527 -0.074442126 0.060526628
-0.13429156 0.06269559 -0.07919619 0.0045556617 -0.07050486 0.0571709 0.11657959 0.001312862
-0.087149866 0.005875896 -0.045578875 -0.03707431 0.039221257 -0.091994114 -0.005506938 0.029555108
-0.015515004 0.045259643 -0.03475486 0.007639643 -0.063188046 -0.03078444 0.06293842 0.039299276
-0.107731715 0.032551877 0.043356843 -0.019171039 -0.007444719 -0.043987755 -0.10484376 -0.020727534
-0.043203272 -0.09154622 0.058260493 0.020827625 0.089509 -0.099376544 -0.062972784 -0.11229611
-0.121058315 -0.124269806 -0.04681228 -0.047075756 0.02612923 0.02859998 0.12507196 -0.07435922
-0.013577256 -0.01147802 0.025669957 -0.10275453 0.018638985 -0.08364131 0.09455834 0.04673153
0.09228085 0.03284321 0.011501222 -0.023195643 -0.102048576 -0.13042349 -0.102186285 0.024016755
-0.0699615 -0.026960077 0.038017027 0.036212187 -0.028990429 0.06331991 0.014406019 0.012947356
0.006913259 -0.043309614 -0.0029906116 -0.018861983 -0.016496535 0.04168954 -0.0262162 0.020312304
0.12513413 -0.047393408 -0.020381585 0.04111118 -0.060946167 -0.09016365 0.09684213 -0.12761734
0.038359016 -0.0025858278 -0.12090078 0.12710254 -0.005780663 -0.06588334 -0.03713298 -0.008128412
0.032275114 0.09975615 0.054222647 0.10706296 0.14189918 -0.025724534 0.062475633 0.070238106
-0.13386428 0.0032470415 -0.043930262 0.11006861 0.09063197 -0.013527594 0.13125323 -0.018548463
-0.05950556 -0.08390109 -0.064292975 -0.105899975 0.07706682 0.056116678 -0.022785118 -0.033225026
0.07131441 -0.09136996 0.07364191 0.044725813 -0.0044157784 -0.018465001 -0.066659585 -0.07822292
0.118169375 0.033626836 -0.07229497 0.123662725 -0.062281754 0.08274225 -0.022301145 0.02056591
0.09585499 -0.021056455 -0.067730874 0.07589229 -0.05542314 -0.020106567 0.07988189 0.022760792
0.07974867 0.029777754 -0.0712397 0.0016793282 -0.027486205 0.025516318 0.013605139 -0.0012197684
00000000: f24b 81bd b781 1dbd 86fa 1dbe eaae c2bc
00000010: 042f 533d 8e25 95bd 72e6 05bc d712 bf3c
00000020: 11c4 1dbd f649 073e 6efd ea3d 7de6 713d
00000030: 0e9a c23d 7935 6f3d 8114 983d 1c04 613c
00000040: e469 3e3d 2b95 8e3d 0a88 e4bd 5400 3f3d
00000050: 4b36 9d3d 17a6 383d 9a97 643b a78d c93a
00000060: ad1b 843d 863a 1dbe 5b7e f1bd 2131 06bd
00000070: 3ce3 2ebd 9a58 44bd 9d86 c0bd 747a b3ba
00000080: 6b7a fb3c e551 66bc 7481 5c3b 13b2 9dbd
00000090: 45fe 8c3d fa70 bcbc c2c3 cb3d 32c6 bd3d
000000a0: c9ff 89bd 7673 8f3d 3486 bdbd 9f67 4a3d
000000b0: 054f d2bd c5fd b73d 486d 80bd 5952 ccbd
000000c0: cbc6 0c3c 058c 98bd 3e8c a63d 8f09 08be
000000d0: 1bde 47bc c17b 81bd 6b40 9a3d 2178 a5bd
000000e0: e9af 9fbd 5785 a73d 2dea 983c 0f28 a7bb
000000f0: 8a56 f7bd d472 853b 5a72 44bb 6f4b 0cbd
00000100: 18c7 7e3d 6c79 623d ed18 c93c 3f28 9ebd
00000110: ec34 ef3d 0a25 20bd 44d0 ebbd e30b b4bd
00000120: 1395 fa3c c343 253d c514 e9bd d69a 9d3d
00000130: 67e7 8bbb d3cd 093d 0365 6fbd b5bc d33d
00000140: e12f d939 a91f eebc 7096 403d c38d debc
00000150: a9d4 e13d e8a8 3bbd 7b40 98bd 5aea e7bc
00000160: 1a80 b33d dbee bcbd 6977 013e 65ff 12bd
00000170: 58c3 cd3d 9022 5c3d 08b6 2fbe 72a2 813c
00000180: 051d 2f3c a3c8 c1bd 8dca 3c3b cd61 da3d
00000190: 283b 243e 2400 a03d 1d75 98bd c5ea 773d
000001a0: ba83 09be 8c66 803d 9d31 a2bd a947 953b
000001b0: da64 90bd 092c 6a3d 48c1 ee3d 5714 ac3a
000001c0: a17b b2bd 978a c03b eab0 3abd 3bdb 17bd
000001d0: 78a6 203d 6967 bcbd 8b73 b4bb 8e1d f23c
000001e0: a532 7ebc 2d62 393d 1d5b 0ebd f855 fa3b
000001f0: bc68 81bd a62f fcbc dce5 803d 47f8 203d
00000200: 72a2 dcbd 1e55 053d f296 313d 950c 9dbc
00000210: d4f2 f3bb 812c 34bd 53b8 d6bd cacc a9bc
00000220: eaf5 30bd 967c bbbd 8ea2 6e3d b29e aa3c
00000230: 7f50 b73d ee85 cbbd e0f7 80bd 81fb e5bd
00000240: 6ced f7bd 2b81 febd 3cbe 3fbd 82d2 40bd
00000250: f80c d63c 814a ea3c dd12 003e a649 98bd
00000260: 2473 5ebc 4e0e 3cbc cd49 d23c f870 d2bd
00000270: c9b0 983c 234c abbd cea7 c13d 9069 3f3d
00000280: befd bc3d 9a86 063d 9f6f 3c3c ca04 bebc
00000290: d8fe d0bd bc8d 05be 0b47 d1bd c9be c43c
000002a0: fa47 8fbd 61db dcbc beb7 1b3d 3b53 143d
000002b0: 567d edbc dead 813d 3907 6c3c 2621 543c
000002c0: 9f88 e23b 6c65 31bd 23fe 43bb 7284 9abc
000002d0: be23 87bc a7c2 2a3d 5bc3 d6bc fd65 a63c
000002e0: 2923 003e 971f 42bd 48f7 a6bc 3264 283d
000002f0: b0a2 79bd b8a7 b8bd 2b55 c63d 1fae 02be
00000300: 581e 1d3d fe76 29bb d49a f7bd 2b27 023e
00000310: b76b bdbb d8ed 86bd c018 18bd 082d 05bc
00000320: e932 043d f44c cc3d 9118 5e3d d343 db3d
00000330: 054e 113e 42bc d2bc 73e6 7f3d ffd8 8f3d
00000340: b813 09be 51cc 543b 38f0 33bd a76b e13d
00000350: 419d b93d d7a2 5dbc 3f67 063e f2f2 97bc
00000360: 1abc 73bd 56d4 abbd 09ac 83bd 16e2 d8bd
00000370: 35d5 9d3d 9ada 653d dba7 babc f716 08bd
00000380: 4a0d 923d 2c20 bbbd 92d1 963d 6a32 373d
00000390: 3cb2 90bb ea43 97bc d284 88bd 5733 a0bd
000003a0: c902 f23d 4bbc 093d 630f 94bd e242 fd3d
000003b0: 271b 7fbd c574 a93d e4b0 b6bc d779 a83c
000003c0: 9f4f c43d 967e acbc 7cb6 8abd 6b6d 9b3d
000003d0: 6003 63bd 87b6 a4bc 1e99 a33d d774 ba3c
000003e0: 4553 a33d 7af0 f33c 1fe6 91bd e71c dc3a
000003f0: c02a e1bc 9907 d13c 17e8 5e3c a3e0 9fba

model.0.bias f4 [128]
0.15535416 -0.06233046 -0.0142174475 -0.018670171 -0.070728615 0.0030972438 -0.076664574 0.042307213
0.13894966 -0.05388947 0.05541544 0.1272136 -0.0001983285 0.12524286 0.053176407 -0.064531915
-0.024956502 0.01789538 -0.11804747 0.045937117 0.0919418 -0.07646738 0.080810376 0.06161805
-0.11886534 -0.027188398 -0.01432005 -0.036873292 -0.073939495 -0.075265035 0.06822899 -0.05436228
-0.07003481 0.013017942 0.09118462 0.082140066 0.017614625 0.07456675 0.007745947 0.04670051
-0.048129644 0.0743463 -0.040868446 -0.0691422 -0.04466303 -0.09364126 -0.092157826 0.07806595
0.01118475 -0.023680085 -0.07632582 0.0069824182 0.028217483 0.05819454 0.010124339 -0.07832479
0.055415355 -0.07018385 0.08315288 -0.09628731 0.04646191 0.06589581 0.10121826 -0.095886946
0.009589856 0.026153823 -0.053620297 -0.034131523 -0.113061026 0.08326805 0.028212532 -0.056214016
0.10969043 0.10316531 -0.076305434 0.05822705 0.13844213 0.012855363 -0.017462147 0.09754775
-0.08172088 -0.046751577 -0.020619929 -0.10960408 0.19146155 0.011181681 0.0045370343 0.13680178
0.07724485 -0.009483452 -0.021891143 -0.0706056 0.08697029 -0.07132757 0.102934636 0.15542477
-0.0638304 -0.096006066 0.0047088657 -0.13642545 0.020349605 -0.07532577 0.09761978 0.013163838
0.10282335 -0.0716471 0.11178616 -0.1124917 0.090612344 -0.11033037 -0.027468925 0.11057082
0.04007346 0.0825549 -0.09205306 -0.056803152 -0.052234415 0.034504812 -0.05919347 -0.011065042
0.06270466 -0.026361108 0.042374607 0.08963941 -0.09344356 0.023461897 -0.03523007 -0.083964154
00000000: 2915 1f3e 394e 7fbd 4cf0 68bc 30f2 98bc
00000010: 2ada 90bd 21fb 4a3b 5102 9dbd 544a 2d3d
00000020: d248 0e3e 34bb 5cbd 4dfb 623d 4844 023e
00000030: 67f6 4fb9 aa3f 003e 81cf 593d 4f29 84bd
00000040: 9471 ccbc 5599 923c dfc2 f1bd 8f28 3c3d
00000050: fc4b bc3d ee9a 9cbd e97f a53d 3563 7c3d
00000060: ac6f f3bd 34ba debc a59e 6abc 7308 17bd
00000070: 976d 97bd 8e24 9abd a4bb 8b3d fbaa 5ebd
00000080: 696e 8fbd 3549 553c 01bf ba3d 0d39 a83d
00000090: 8c4c 903c 74b6 983d b7d1 fd3b 0949 3f3d
000000a0: 9723 45bd df42 983d ac65 27bd 6d9a 8dbd
000000b0: 95f0 36bd fdc6 bfbd 3ebd bcbd 0ae1 9f3d
000000c0: 3e40 373c bdfc c1bc b650 9cbd c5cc e43b
000000d0: 5a28 e73c 665d 6e3d 8ee0 253c bf68 a0bd
000000e0: 36fb 623d 8dbc 8fbd 0f4c aa3d 4832 c5bd
000000f0: d84e 3e3d 62f4 863d 854b cf3d 6060 c4bd
00000100: c51e 1d3c 8b40 d63c f5a0 5bbd 7fcd 0bbd
00000110: 8a8c e7bd 7088 aa3d f81d e73c ab40 66bd
00000120: 60a5 e03d 5648 d33d 0646 9cbd 7d7f 6e3d
00000130: c6c3 0d3e 4d9f 523c c70c 8fbc 1dc7 c73d
00000140: 475d a7bd 957e 3fbd 20eb a8bc 1b78 e0bd
00000150: 7f0e 443e 5f33 373c 67ab 943b c415 0c3e
00000160: 8c32 9e3d 7b60 1bbc 0e55 b3bc ab99 90bd
00000170: 7b1d b23d 3014 92bd 65cf d23d ac27 1f3e
00000180: 83b9 82bd d49e c4bd d44c 9a3b 1db3 0bbe
00000190: 37b4 a63c 6644 9abd e1ec c73d 23ad 573c
000001a0: 0c95 d23d b7bb 92bd 24f0 e43d 0c62 e6bd
000001b0: f792 b93d e4f4 e1bd 8306 e1bc f472 e23d
000001c0: 1224 243d 8b12 a93d 5186 bcbd 6caa 68bd
000001d0: c1f3 55bd eb54 0d3d da74 72bd 264a 35bc
000001e0: 4d6b 803d 40f3 d7bc ff90 2d3d de94 b73d
000001f0: 565f bfbd 2a33 c03c 684d 10bd 66f5 abbd

model.2.weight f4 [128]
0.9457294 0.9166434 0.9371421 0.938491 0.9815397 0.93004465 0.97694665 0.923686
0.9731894 1.028926 0.99723166 0.9906409 0.8839735 0.9731246 0.9798837 0.8923251
1.0368502 0.9460978 1.0148075 1.0036044 0.88951445 1.0048102 1.0250634 0.95053667
0.94775605 0.98023283 1.0194284 0.9167531 1.013918 0.99593425 0.9370606 1.0489812
1.0283239 0.9677761 0.9129818 0.8764884 0.9944396 1.0564499 0.9707772 0.87621695
1.0828085 1.129858 0.9655577 0.92507976 0.9708556 0.85355335 1.0007102 0.90459317
1.0837942 0.8858208 0.9957704 0.96907884 0.93515635 0.9947465 1.034615 0.8906064
0.9859019 0.9607564 0.9468155 1.0737879 0.9996168 0.9536365 0.9760314 1.0499372
0.92758536 1.0351708 0.9492562 0.9767155 1.0121363 0.9911851 0.9793181 0.91448337
0.9985901 0.96298677 0.9724488 0.9546696 0.96067697 0.9638343 0.9762532 0.95618343
0.9896916 0.9683142 1.0759523 0.9056778 1.0808625 0.9335576 0.91330194 0.9676353
1.046776 0.962219 1.0016869 0.97512895 1.1206359 0.9145562 1.0336727 1.0400037
0.99432355 1.0086316 1.0815413 1.1500683 0.93756634 0.99652255 0.9937859 0.99801403
0.96707386 0.9113361 0.967924 0.9754089 0.8967836 1.0464258 0.89334255 0.9761279
1.0212902 0.95455074 1.0262169 1.0307338 0.87998074 0.9893553 0.9615338 0.98474705
0.9845853 0.9286978 0.983107 0.93650204 0.96512395 0.9610632 1.0074316 0.9985213
00000000: 521b 723f 24a9 6a3f 8be8 6f3f f240 703f
00000010: 3046 7b3f 6817 6e3f 2d19 7a3f b076 6c3f
00000020: f122 793f d9b3 833f 934a 7f3f a49a 7d3f
00000030: 164c 623f b21e 793f a8d9 7a3f 6b6f 643f
00000040: 82b7 843f 7733 723f 36e5 813f 1c76 803f
00000050: 38b7 633f 9f9d 803f 4735 833f 5f56 733f
00000060: 24a0 723f 8af0 7a3f a17c 823f 55b0 6a3f
00000070: 11c8 813f 8cf5 7e3f 34e3 6f3f 0445 863f
00000080: 1ea0 833f 2dc0 773f 2db9 693f 8b61 603f
00000090: 9893 7e3f c039 873f db84 783f c14f 603f
000000a0: 7899 8a3f 309f 903f ca2e 773f 07d2 6c3f
000000b0: fe89 783f 7982 5a3f 4617 803f 6b93 673f
000000c0: c5b9 8a3f 27c5 623f cfea 7e3f 8d15 783f
000000d0: 6866 6f3f b5a7 7e3f 446e 843f c8fe 633f
000000e0: 1164 7c3f 22f4 753f 8062 723f e271 893f
000000f0: e3e6 7f3f 8621 743f 32dd 793f 5864 863f
00000100: 3c76 6d3f 7a80 843f 7402 733f 070a 7a3f
00000110: af8d 813f 4fbe 7d3f 97b4 7a3f 951b 6a3f
00000120: 9aa3 7f3f 4d86 763f 68f2 783f 3a65 743f
00000130: edee 753f d8bd 763f bbeb 793f 70c8 743f
00000140: 6e5c 7d3f 70e3 773f ceb8 893f 80da 673f
00000150: b459 8a3f a2fd 6e3f 28ce 693f f2b6 773f
00000160: c2fc 853f fc53 763f 4737 803f 0da2 793f
00000170: ff70 8f3f 5b20 6a3f 634f 843f d71e 853f
00000180: fd8b 7e3f d71a 813f f26f 8a3f 7035 933f
00000190: 5904 703f 1a1c 7f3f c168 7e3f d97d 7f3f
000001a0: 2792 773f 534d 693f dec9 773f 66b4 793f
000001b0: 9c93 653f 48f1 853f 19b2 643f 85e3 793f
000001c0: a3b9 823f 705d 743f 135b 833f 16ef 833f
000001d0: 6b46 613f 6446 7d3f 1427 763f 6218 7c3f
000001e0: c80d 7c3f 24bf 6d3f e6ac 7b3f 99be 6f3f
000001f0: 5d12 773f 3d08 763f 85f3 803f 189f 7f3f

model.2.bias f4 [128]
0.18795182 0.032061834 -0.011082249 0.13815077 0.21351407 -0.046288554 0.093606524 -0.057359725
0.11405372 0.16591842 0.06278207 -0.18572445 -0.13162924 0.18233301 -0.14547327 0.08202095
-0.18585455 0.09831433 -0.12824102 0.07974585 -0.09577126 -0.23019132 -0.23932563 -0.13565806
-0.00014271481 -0.11948347 -0.23574562 0.14581247 -0.15894282 0.13407314 0.14402384 0.009309897
-0.13415797 -0.10723576 -0.039628282 -0.07283729 -0.05698901 -0.05838664 -0.009134865 -0.031478457
0.0828204 -0.18683502 0.15073878 -0.006158897 0.16731337 0.080562524 0.030458407 0.14968814
-0.18268818 -0.0874124 0.24482176 0.020831447 -0.03431324 -0.15314086 0.059303224 -0.017999759
0.22871692 0.2279765 0.19884402 -0.19503452 0.1082068 0.16442522 -0.024851788 0.0032133395
0.061442778 -0.18847708 -0.19441096 0.06508831 -0.16195934 -0.18147826 0.15584466 0.018011643
-0.015464542 -0.09839142 0.026931683 0.16702983 0.22839068 -0.13405055 0.021213247 -0.026817951
-0.20369254 -0.2021054 0.15570721 0.12487942 0.14114447 -0.048393346 0.117388286 -0.15366866
-0.11819416 -0.13476504 -0.12942176 -0.15224387 -0.18749787 -0.034109045 -0.17107233 0.14216498
0.111167714 -0.16941828 0.0064838547 -0.08653388 0.074732736 -0.2151364 -0.16626936 0.038645785
0.19058888 -0.017520618 -0.0075289593 -0.20882809 0.16870108 0.046075255 0.14763063 -0.13044445
0.18377708 0.09927531 -0.06848323 -0.21228972 0.11763552 0.16260168 0.18732253 0.17861034
-0.1692937 0.14051801 0.16244118 0.04176218 -0.18449499 0.09114284 -0.065281 -0.052298024
00000000: 7176 403e 4553 033d 5292 35bc 6577 0d3e
00000010: 6fa3 5a3e 1199 3dbd c7b4 bf3d 08f2 6abd
00000020: ff94 e93d 85e6 293e e393 803d 8d2e 3ebe
00000030: d1c9 06be 81b5 3a3e f2f6 14be 9afa a73d
00000040: a850 3ebe 0659 c93d 9d51 03be cb51 a33d
00000050: b923 c4bd 46b7 6bbe c711 75be f2e9 0abe
00000060: b7a5 15b9 c0b3 f4bd 4d67 71be dd4f 153e
00000070: e8c1 22be 784a 093e fc7a 133e 8a88 183c
00000080: b560 09be 6c9e dbbd 4451 22bd b82b 95bd
00000090: 4f6d 69bd d426 6fbd 67aa 15bc 8eef 00bd
000000a0: be9d a93d ae51 3fbe 445b 1a3e 93d0 c9bb
000000b0: 3254 2b3e f7fd a43d e983 f93c d947 193e
000000c0: 9c12 3bbe 4605 b3bd 8eb2 7a3e b6a6 aa3c
000000d0: 0a8c 0cbd f5d0 1cbe f0e7 723d 3b74 93bc
000000e0: c534 6a3e ac72 693e c49d 4b3e 21b7 47be
000000f0: 879b dd3d 165f 283e fa95 cbbc e496 523b
00000100: 6cab 7b3d 2300 41be ab13 47be 054d 853d
00000110: abd8 25be 70d5 39be be95 1f3e 278d 933c
00000120: fe5e 7dbc 7181 c9bd d59f dc3c de09 2b3e
00000130: 3fdf 693e 8c44 09be 67c7 ad3c 52b1 dbbc
00000140: c794 50be b8f4 4ebe b671 1f3e c8c0 ff3d
00000150: 2d88 103e 1a38 46bd 4569 f03d 515b 1dbe
00000160: c80f f2bd d9ff 09be 2387 04be d1e5 1bbe
00000170: 71ff 3fbe edb5 0bbd 962d 2fbe b293 113e
00000180: e6ab e33d fc7b 2dbe 8476 d43b ad38 b1bd
00000190: 7a0d 993d b74c 5cbe 8442 2abe 0b4b 1e3d
000001a0: bb29 433e 6687 8fbc 7db5 f6bb 08d7 55be
000001b0: fabf 2c3e 68b9 3c3d 7c2c 173e 3b93 05be
000001c0: 0f30 3c3e db50 cb3d f040 8cbd 7a62 59be
000001d0: e4ea f03d 0e81 263e 7ad1 3f3e a1e5 363e
000001e0: 545b 2dbe f4e3 0f3e fb56 263e d20e 2b3d
000001f0: 41ec 3cbe 19a9 ba3d 0cb2 85bd 7436 56bd

model.2.running_mean f4 [128]
0.29196686 0.13740125 0.15469699 0.15672487 0.14853992 0.21963426 0.15121543 0.22247599
0.25384095 0.14476347 0.24485065 0.26189667 0.19588427 0.25235742 0.21737327 0.155545
0.18089323 0.19193701 0.12422712 0.23224558 0.25086215 0.1413532 0.2370802 0.2221172
0.1395845 0.20489655 0.188111 0.17067645 0.13428889 0.14107473 0.20635368 0.17036717
0.16412207 0.18902728 0.25218213 0.22257966 0.18471286 0.26566026 0.19848047 0.23505357
0.16895656 0.24585123 0.17022474 0.145628 0.1783132 0.14060438 0.15228918 0.2500871
0.18853705 0.18501817 0.1397049 0.18767676 0.23174073 0.2344057 0.21008499 0.14145933
0.19132212 0.13968481 0.2621214 0.14334038 0.21600914 0.22351177 0.2684166 0.1472752
0.21404031 0.19798084 0.18004772 0.2093083 0.12681966 0.25487986 0.2275328 0.15147875
0.25739583 0.25416893 0.14708924 0.21542893 0.2755322 0.17917714 0.17796786 0.2547807
0.12895627 0.16282453 0.17012645 0.121430315 0.3165834 0.21419503 0.20500454 0.27806833
0.23243307 0.18721825 0.18096465 0.16024703 0.25290006 0.14113523 0.2645788 0.26807728
0.17201105 0.118336566 0.21818449 0.11356268 0.1912935 0.15250486 0.26124367 0.21250248
0.23732285 0.17176847 0.2687862 0.12018315 0.2649864 0.14237556 0.1776444 0.25677446
0.22508933 0.23148812 0.15160526 0.16332185 0.18407938 0.21812174 0.13823973 0.14302415
0.22485717 0.16495281 0.19939728 0.25352836 0.12452038 0.20044695 0.17820014 0.14613408
00000000: ae7c 953e eab2 0c3e e368 1e3e 7c7c 203e
00000010: d91a 183e cee7 603e 38d8 1a3e bfd0 633e
00000020: 71f7 813e e03c 143e 21ba 7a3e 5217 863e
00000030: e395 483e fe34 813e 1997 5e3e 3047 1f3e
00000040: 133c 393e 238b 443e ca6a fe3d c9d1 6d3e
00000050: 0171 803e e5be 103e 27c5 723e b172 633e
00000060: 3def 0e3e 67d0 513e 2ca0 403e cfc5 2e3e
00000070: 0783 093e e575 103e 614e 533e bb74 2e3e
00000080: 9e0f 283e 5e90 413e 041e 813e eceb 633e
00000090: 5e25 3d3e 9f04 883e 773e 4b3e e2b1 703e
000000a0: f302 2d3e 6dc0 7b3e 654f 2e3e 821f 153e
000000b0: bc97 363e 98fa 0f3e b2f1 1b3e 6b0b 803e
000000c0: db0f 413e 6775 3d3e cd0e 0f3e 562e 403e
000000d0: 714d 6d3e 0c08 703e 8520 573e b7da 103e
000000e0: f2e9 433e 8909 0f3e c734 863e d2c7 123e
000000f0: 8031 5d3e 45e0 643e e76d 893e 4fcf 163e
00000100: 622d 5b3e 7dbb 4a3e 6e5e 383e ea54 563e
00000110: 03dd 013e 9d7f 823e 5cfe 683e 3f1d 1b3e
00000120: 63c9 833e 6e22 823e 909e 163e 6799 5c3e
00000130: 8e12 8d3e 367a 373e 353d 363e 9e72 823e
00000140: 1d0d 043e 79bb 263e a135 2e3e 75b0 f83d
00000150: 3817 a23e f155 5b3e b6ec 513e f95e 8e3e
00000160: ef02 6e3e 24b6 3f3e cc4e 393e cc17 243e
00000170: 1e7c 813e c185 103e df76 873e 6d41 893e
00000180: aa23 303e 715a f23d c16b 5f3e 8d93 e83d
00000190: 71e2 433e 3c2a 1c3e bbc1 853e 409a 593e
000001a0: c304 733e 13e4 2f3e 589e 893e 9522 f63d
000001b0: 4cac 873e e6ca 113e 6ae8 353e f177 833e
000001c0: d17d 663e 390b 6d3e 693e 1b3e d83d 273e
000001d0: 4e7f 3c3e 4e5b 5f3e b78e 0d3e ec74 123e
000001e0: f540 663e 64e9 283e cd2e 4c3e 78ce 813e
000001f0: 8a04 ff3d f741 4d3e 197a 363e 2ca4 153e

model.2.running_var f4 [128]
0.18136068 0.12811726 0.1067686 0.11211711 0.14071037 0.20197585 0.12924105 0.1547686
0.15132232 0.11682067 0.1705498 0.15612532 0.16579123 0.1502689 0.15407696 0.14163116
0.16193846 0.14689459 0.13196047 0.18322681 0.17331333 0.13707158 0.16259281 0.15609333
0.13996431 0.1628026 0.13933194 0.15987766 0.12333378 0.1285331 0.15265892 0.14528684
0.13858442 0.14267915 0.17365238 0.13648222 0.14059266 0.2019643 0.15461378 0.18577608
0.14519988 0.18603815 0.13215181 0.13093956 0.14587966 0.13353972 0.1425287 0.18614262
0.14674404 0.14861852 0.12346827 0.12739082 0.18497926 0.16563483 0.16061026 0.11424553
0.11371394 0.10856521 0.1663795 0.12885433 0.15425372 0.14860363 0.19173579 0.13867985
0.18151377 0.13567768 0.15554826 0.19958577 0.12029748 0.19579372 0.16371879 0.14837223
0.16792555 0.15378971 0.13090399 0.14781006 0.1717522 0.13229288 0.15104467 0.17159128
0.110679224 0.13548495 0.1491377 0.10864437 0.20187293 0.15857546 0.15971966 0.20572406
0.1613995 0.1539593 0.1613744 0.13867956 0.16572781 0.12884223 0.19503039 0.18287425
0.15182504 0.11457223 0.19431692 0.12113142 0.1505578 0.15756953 0.18589923 0.16612387
0.14887391 0.16868739 0.1758792 0.11550846 0.17240463 0.14279924 0.16419844 0.1590968
0.16318935 0.1556466 0.15049386 0.14180534 0.16654927 0.1598482 0.10894835 0.104319796
0.18538682 0.13333648 0.13278908 0.17671403 0.10334266 0.16456155 0.15779783 0.13893616
00000000: 9db6 393e 2c31 033e 7fa9 da3d a89d e53d
00000010: 6116 103e c2d2 4e3e c457 043e a97b 1e3e
00000020: 3df4 1a3e ad3f ef3d 9ba4 2e3e 51df 1f3e
00000030: 2dc5 293e 17e0 193e 5ac6 1d3e c207 113e
00000040: 32d3 253e 896b 163e a520 073e cf9f 3b3e
00000050: 0d79 313e 7e5c 0c3e bb7e 263e eed6 1f3e
00000060: ce52 0f3e bab5 263e 08ad 0e3e f8b6 233e
00000070: 6c96 fc3d 2e9e 033e 9f52 1c3e 13c6 143e
00000080: 13e9 0d3e 7c1a 123e eed1 313e ffc1 0b3e
00000090: 86f7 0f3e bbcf 4e3e 1353 1e3e 163c 3e3e
000000a0: 47af 143e c980 3e3e ce52 073e 0515 063e
000000b0: 7a61 153e a3be 083e 0bf3 113e 2c9c 3e3e
000000c0: 1244 163e 742f 183e efdc fc3d bd72 023e
000000d0: 346b 3d3e 2d9c 293e 0477 243e 8ff9 e93d
000000e0: dbe2 e83d 7057 de3d 635f 2a3e 64f2 033e
000000f0: b0f4 1d3e 8d2b 183e 6356 443e 1702 0e3e
00000100: bfde 393e 17ef 0a3e 0b48 1f3e 3660 4c3e
00000110: 865e f63d 267e 483e e6a5 273e e4ee 173e
00000120: adf4 2b3e 0d7b 1d3e b20b 063e 855b 173e
00000130: cfdf 2f3e c977 073e 74ab 1a3e a0b5 2f3e
00000140: caab e23d 91bc 0a3e 8eb7 183e f180 de3d
00000150: c7b7 4e3e 9b61 223e 8d8d 233e 54a9 523e
00000160: e945 253e 82a7 1d3e 553f 253e 0402 0e3e
00000170: 8db4 293e 38ef 033e 0cb6 473e 6343 3b3e
00000180: 0678 1b3e d8a4 ea3d 04fb 463e c013 f83d
00000190: d32b 1a3e e859 213e 5e5c 3e3e 601c 2a3e
000001a0: 6772 183e 63bc 2c3e ad19 343e b38f ec3d
000001b0: d78a 303e f739 123e a323 283e 46ea 223e
000001c0: 1c1b 273e d361 1f3e 101b 1a3e 6b35 113e
000001d0: e48b 2a3e 3faf 233e 5020 df3d 9ea5 d53d
000001e0: 0bd6 3d3e 5c89 083e dcf9 073e 86f4 343e
000001f0: 51a5 d33d d382 283e c195 213e 4845 0e3e

model.3.weight f4 [256, 128]
-0.074760914 -0.06573976 0.056267496 0.011278034 -0.111050576 0.021974389 0.053599693 0.054298557
0.05934074 0.004794822 -0.011613566 0.038483944 -0.077114 0.08458227 0.025305359 -0.034193315
-0.057979744 -0.017138215 0.07027762 0.007385484 -0.050068628 -0.07306698 -0.021746889 -0.078169465
-0.019553592 0.029416632 0.052684322 -0.056596775 0.003629646 -0.038360685 -0.03843253 -0.053016327
-0.057222996 -0.031877648 0.06492169 0.046218075 -0.042141594 -0.057838358 -0.078828074 0.05114754
0.06495815 -0.037019305 0.056154083 -0.053355124 -0.021576049 -0.011175469 -0.04615497 -0.020126538
-0.04464097 -0.031456836 -0.0856044 -0.0870951 0.049336325 -0.03489503 -0.03412315 -0.030477323
-0.08446889 0.06719107 0.021556942 -0.028292071 0.08512502 -0.028529279 -0.029994987 -0.0003483038
0.07046256 -0.086494364 0.053995576 -0.02997193 -0.0884294 0.002527293 0.009257965 -0.07675195
-0.038263097 0.0090521285 -0.0035120894 -0.011119542 -0.02567531 0.013132849 0.078092344 -0.0027630161
0.032732505 -0.028870085 -0.032288797 -0.0853007 -0.08775467 0.0103078 0.06371233 -0.06400154
0.022942083 -0.014290933 -0.04244556 -0.096556515 -0.046961594 0.022352984 -0.0784284 0.10130984
-0.017286059 -0.109591655 -0.070571646 -0.055315875 0.082319595 -0.07418521 0.020055791 0.004669232
-0.033474103 -0.03709928 0.06671912 -0.08266297 0.032241922 0.14122157 0.03375076 0.047093272
0.07871304 0.11281773 -0.0119676385 0.04523766 -0.09984453 0.057070896 -0.09798046 -0.0059838314
0.051337376 -0.05311058 0.01891402 -0.08111435 -0.10354739 0.0014094659 0.0135455355 0.025565993
0.0633812 -0.069440104 -0.050259843 -0.06508475 0.06002702 -0.0032286192 -0.023465626 0.055599034
0.06681427 0.04039212 -0.06671199 -0.01697693 0.0360851 -0.083276756 -0.01273187 0.04221175
0.01460818 -0.010024661 -0.0012101275 -0.023938598 0.0116303265 0.059748456 -0.06371307 -0.092790104
-0.03705866 0.019424241 0.017118974 -0.07756721 0.07347701 0.01872237 -0.029462332 -0.011587042
0.06806381 -0.030347664 -0.010935429 0.06043435 -0.020776935 0.11478412 -0.009116793 0.075308755
0.050166074 -0.094371736 0.0030268175 -0.044291362 -0.09307803 -0.024851093 0.011808377 0.04786776
-0.066907294 0.05824187 -0.028481752 -0.06978496 -0.10355486 -0.055923115 -0.044326358 -0.059445012
0.061166562 -0.011023589 0.029873626 0.04942792 0.063079834 0.047891725 0.078628905 -0.011472808
-0.065865286 -0.024298841 0.06195191 -0.07066541 -0.032349203 -0.026782094 0.06666923 0.026198702
-0.09251241 0.08779691 0.036882948 -0.001258606 0.039400373 -0.10351242 0.05232099 -0.0029746003
0.039764468 0.07804309 -0.10356678 -0.023580829 -0.014062111 -0.04984666 -0.08054468 0.013879678
0.09840308 -0.08201573 -0.01692866 -0.07476585 -0.0022715188 -0.030020725 0.025104668 0.050337773
0.08718855 -0.02565899 0.019624934 -0.08678769 0.020207312 0.040939562 0.0454667 0.016157815
0.026139772 -0.015767891 0.060448438 0.019889697 0.06314714 0.040827826 0.025983365 0.07197005
-0.02821854 -0.063245766 -0.07648435 -0.054166056 -0.06895661 0.012544737 0.04443197 -0.040404484
-0.010387574 0.05201444 0.011711837 -0.009615799 -0.066911325 0.06551597 0.044154264 0.076912634
00000000: 401c 99bd 91a2 86bd bf78 663d 81c7 383c
00000010: 7c6e e3bd a203 b43c 5a8b 5b3d 2a68 5e3d
00000020: 470f 733d e21d 9d3b d446 3ebc 57a1 1d3d
00000030: f2ed 9dbd 7839 ad3d 2f4d cf3c 4a0e 0cbd
00000040: 2b7c 6dbd 7165 8cbc b6ed 8f3d ee01 f23b
00000050: c314 4dbd 24a4 95bd 8826 b2bc 5017 a0bd
00000060: db2e a0bc 26fb f03c 84cb 573d 05d2 67bd
00000070: 5bdf 6d3b 1820 1dbd 6e6b 1dbd a627 59bd
00000080: a962 6abd 2392 02bd aaf5 843d 2a4f 3d3d
00000090: aa9c 2cbd eae7 6cbd 9d70 a1bd 1580 513d
000000a0: c708 853d 8ea1 17bd d301 663d e78a 5abd
000000b0: 41c0 b0bc 5019 37bc fe0c 3dbd 69e0 a4bc
000000c0: 73d9 36bd e2d8 00bd 5c51 afbd ea5e b2bd
000000d0: e314 4a3d 17ee 0ebd b7c4 0bbd 94ab f9bc
000000e0: 07fe acbd 799b 893d 2f98 b03c c6c4 e7bc
000000f0: 0756 ae3d 3cb6 e9bc 0cb8 f5bc 8b9c b6b9
00000100: ad4e 903d f523 b1bd 772a 5d3d b187 f5bc
00000110: 791a b5bd f1a0 253b b8ae 173c 2030 9dbd
00000120: c4b9 1cbd 614f 143c 152b 66bb bd2e 36bc
00000130: 0755 d2bc 292b 573c e1ee 9f3d b813 35bb
00000140: 8512 063d f580 ecbc 4241 04bd 22b2 aebd
00000150: b8b8 b3bd 0ce2 283c 9c7b 823d 3d13 83bd
00000160: 09f1 bb3c 8424 6abc 65db 2dbd 6cbf c5bd
00000170: cd5a 40bd 9b1d b73c 129f a0bd 897b cf3d
00000180: 7e9b 8dbc 9771 e0bd de87 90bd e692 62bd
00000190: 2d97 a83d 6aee 97bd 0b4c a43c 5b00 993b
000001a0: 241c 09bd 6af5 17bd 09a4 883d 344b a9bd
000001b0: 1b10 043d 639c 103e 3d3e 0a3d e0e4 403d
000001c0: 4d34 a13d fb0c e73d ea13 44bc 204b 393d
000001d0: 4a7b ccbd 2cc3 693d fba9 c8bd 0414 c4bb
000001e0: 2447 523d 7b8a 59bd 93f1 9a3c 481f a6bd
000001f0: a710 d4bd d4bd b83a 18ee 5d3c c66f d13c
00000200: 01ce 813d 9d36 8ebd 44dd 4dbd 274b 85bd
00000210: e4de 753d 3e97 53bb fc3a c0bc d0bb 633d
00000220: ecd5 883d 3572 253d 4ca0 88bd 3413 8bbc
00000230: f8cd 133d 018d aabd 5599 50bc 3ae6 2c3d
00000240: 2657 6f3c 7a3e 24bc 249d 9eba e11a c4bc
00000250: 208d 3e3c ccba 743d ff7b 82bd bd08 bebd
00000260: d2ca 17bd 961f 9f3c 173d 8c3c 8fdb 9ebd
00000270: 1d7b 963d a85f 993c fd5a f1bc 94d7 3dbc
00000280: 0a65 8b3d aa9b f8bc 832a 33bc 028a 773d
00000290: 6434 aabc f013 eb3d 9a5e 15bc 7a3b 9a3d
000002a0: f17a 4d3d f845 c1bd 925d 463b dc6a 35bd
000002b0: b29f bebd 8594 cbbc ec77 413c fc10 443d
000002c0: b106 89bd 078f 6e3d 9052 e9bc 6beb 8ebd
000002d0: 9214 d4bd a30f 65bd 8e8f 35bd 9d7c 73bd
000002e0: ca89 7a3d 499c 34bc 89b9 f43c ee74 4a3d
000002f0: 0030 813d 1d2a 443d 3108 a13d 72f8 3bbc
00000300: 61e4 86bd 5d0e c7bc 49c1 7d3d 07b9 90bd
00000310: 9980 04bd 1f66 dbbc e189 883d a99e d63c
00000320: 2577 bdbd dece b33d 9312 173d cff7 a4ba
00000330: 4962 213d 52fe d3bd 894e 563d 83f1 42bb
00000340: 11e0 223d 0ed5 9f3d d21a d4bd 952c c1bc
00000350: c564 66bc 032c 4cbd 9cf4 a4bd 9767 633c
00000360: 8e87 c93d ddf7 a7bd f9ad 8abc d71e 99bd
00000370: c3dd 14bb 06ee f5bc 4ea8 cd3c fb2e 4e3d
00000380: e98f b23d cd32 d2bc 78c4 a03c bfbd b1bd
00000390: ce89 a53c 3eb0 273d 4a3b 3a3d 655d 843c
000003a0: 1323 d63c aa2b 81bc c898 773d b8ef a23c
000003b0: 4a53 813d 143b 273d 11db d43c 0965 933d
000003c0: 912a e7bc ff86 81bd d4a3 9cbd 3add 5dbd
000003d0: 2039 8dbd 7188 4d3c 4cfe 353d 2c7f 25bd
000003e0: a530 2abc 180d 553d 01e3 3f3c 968b 1dbc
000003f0: ce08 89bd 3d2d 863d 1adb 343d 5f84 9d3d

model.3.bias f4 [256]
0.013690418 0.08023608 0.035355747 -0.06369542 -0.03995169 -0.07059739 -0.18606552 0.017408336
0.04171105 -0.07881087 -0.013162748 -0.039436504 -0.08502662 0.12460762 0.01775329 0.004358142
-0.067487426 0.0027749734 0.08196585 -0.1142246 -0.0614624 -0.027848028 -0.10541177 0.0763574
0.0012922159 -0.02674532 0.072483145 0.072086 -0.13046928 -0.019819133 0.13066445 0.07684717
0.047611684 0.03800268 0.05441719 0.012714518 -0.021594064 0.08070577 -0.056881316 -0.013691324
0.112366155 0.16559453 -0.07170134 -0.029725285 0.08054205 0.17166266 -0.03988649 -0.101780675
0.051339254 -0.10470099 -0.06997829 0.0022901804 0.07308419 0.012201103 0.1440698 -0.020941446
0.048063878 -0.14988324 -0.016298357 0.035467174 -0.0049591386 0.07015152 0.029253183 0.022442754
0.06749238 -0.025832064 -0.1154679 -0.075786754 0.09618111 -0.04192621 -0.054124232 -0.07138545
0.0024118305 0.02146255 0.095915385 -0.03038088 0.03899689 -0.0046870103 -0.067782335 0.04281971
0.014763141 -0.20317744 -0.034164526 0.07282155 -0.1155342 0.0958137 -0.23315081 -0.13304517
0.036339473 -0.08504351 -0.09474413 -0.047562957 -0.24483825 -0.10418998 -0.20122565 0.015469221
-0.025144517 -0.07686702 -0.0063463785 0.04212997 0.1052728 0.0117543135 0.06611492 -0.07806939
0.124322005 -0.01974861 -0.08670974 0.032774877 0.107149996 -0.019071177 -0.122636564 0.029332839
0.056724805 0.02312233 -0.061364796 -0.13945857 0.099993944 -0.14509298 0.0037285879 -0.08418613
-0.025219997 0.05750179 0.06874982 -0.073029704 -0.08634824 0.05434595 -0.056334108 -0.023336073
0.094685465 0.01777414 0.020583814 -0.07663818 -0.017877124 0.03010488 -0.036158647 -0.07937027
0.106400594 0.030867063 0.00811638 0.03644473 -0.14351138 0.016765583 0.052947287 -0.039889578
-0.1611861 -0.050707918 0.0045337817 -0.16967906 0.0855557 0.06433141 -0.069424026 -0.027573207
0.08762329 0.020098532 -0.032599013 0.036616802 -0.23945409 -0.053763393 -0.08193071 -0.0052271467
-0.14469609 -0.07624531 -0.012318907 -0.045893755 -0.027610535 0.086095214 0.05960759 -0.05246282
0.06280987 -0.19783182 -0.21174322 -0.0070990757 -0.056670398 -0.028361013 0.012629257 -0.0709491
-0.016605282 -0.090523995 -0.112069525 -0.036561172 -0.053529087 0.037614956 -0.0143082235 0.12778977
0.085753106 0.0029776273 0.013365956 -0.1997574 0.0078076078 -0.122307695 -0.108996205 -0.098740466
0.06321608 -0.09850328 -0.036901042 0.014088475 -0.002569877 0.07131503 -0.04848856 0.0006360206
-0.15972306 -0.006903648 0.11450527 -0.11091439 0.09097985 0.03627908 0.010947465 -0.0043135397
0.023137452 -0.051625036 0.10867993 0.047417145 0.06020942 -0.06744807 0.013023367 -0.05019251
0.02104778 0.053565174 -0.14533766 0.0879414 -0.029063439 -0.11071187 0.0065519 -0.025480453
-0.06763011 -0.011802644 -0.029728096 -0.1728493 0.06218266 0.014429727 -0.12890881 -0.12494877
0.039525423 0.08031392 0.036713842 0.064693555 0.15667368 0.13975996 0.016689826 -0.023973674
-0.09846929 0.015676644 0.033165004 -0.053418078 -0.19610304 0.06401151 0.02157791 0.03265655
-0.022590814 0.033179723 0.14580221 -0.00042085434 -0.014213488 -0.14362162 -0.13976827 -0.15030815
00000000: c64d 603c d052 a43d 30d1 103d bf72 82bd
00000010: 62a4 23bd 5d95 90bd f687 3ebe ed9b 8e3c
00000020: 35d9 2a3d 9867 a1bd 91a8 57bc 2c88 21bd
00000030: 7022 aebd 4832 ff3d 596f 913c bfce 8e3b
00000040: d936 8abd 54dc 353b b6dd a73d 96ee e9bd
00000050: ffbf 7bbd 8c21 e4bc 20e2 d7bd 4561 9c3d
00000060: 925f a93a 0019 dbbc 0b72 943d d3a1 933d
00000070: bd99 05be bc5b a2bc e7cc 053e 0d62 9d3d
00000080: 7804 433d b3a8 1b3d 8fe4 5e3d 8e50 503c
00000090: 09e6 b0bc 1149 a53d 62fc 68bd 9351 60bc
000000a0: 3a20 e63d 9d91 293e 27d8 92bd 7182 f3bc
000000b0: 3bf3 a43d 56c8 2f3e 0460 23bd 6372 d0bd
000000c0: 1c49 523d 796d d6bd c750 8fbd da16 163b
000000d0: 2aad 953d 23e7 473c 0987 133e 658d abbc
000000e0: a1de 443d fe7a 19be 2284 85bc 0746 113d
000000f0: 4580 a2bb 9aab 8f3d 5fa4 ef3c ded9 b73c
00000100: 7239 8a3d c49d d3bc 6f7a ecbd 1636 9bbd
00000110: 9afa c43d d1ba 2bbd 5fb1 5dbd 8932 92bd
00000120: cd0f 1e3b 3bd2 af3c 496f c43d 53e1 f8bc
00000130: 34bb 1f3d 7e95 99bb 77d1 8abd b863 2f3d
00000140: 1ae1 713c bf0d 50be 1af0 0bbd 7723 953d
00000150: 329d ecbd f939 c43d 16bf 6ebe fe3c 08be
00000160: b3d8 143d 4b2b aebd 3609 c2bd 60d1 42bd
00000170: e1b6 7abe 8e61 d5bd 190e 4ebe 9e72 7d3c
00000180: e0fb cdbc 756c 9dbd 48f5 cfbb 7a90 2c3d
00000190: 4499 d73d 2a95 403c 4267 873d d8e2 9fbd
000001a0: 899c fe3d d6c7 a1bc e094 b1bd f33e 063d
000001b0: 7571 db3d 283b 9cbc e128 fbbd 6c4b f03c
000001c0: 4558 683d 0a6b bd3c a759 7bbd 3ace 0ebe
000001d0: a0c9 cc3d 4193 14be 535b 743b c769 acbd
000001e0: 2b9a cebc ff86 6b3d b5cc 8c3d 9990 95bd
000001f0: 59d7 b0bd dc99 5e3d 98be 66bd 4b2b bfbc
00000200: 74ea c13d 139b 913c 639f a83c 7af4 9cbd
00000210: 0c73 92bc 829e f63c 171b 14bd e18c a2bd
00000220: 8ee8 d93d ecdc fc3c 91fa 043c 1247 153d
00000230: a6f4 12be fa57 893c 41df 583d 4163 23bd
00000240: f80d 25be 1bb3 4fbd 1e90 943b 59c0 2dbe
00000250: d437 af3d 30c0 833d 2f2e 8ebd 35e1 e1bc
00000260: d773 b33d ada5 a43c 8b86 05bd 80fb 153d
00000270: 7433 75be 0137 5cbd 4acb a7bd 7c48 abbb
00000280: 362b 14be 8026 9cbd 3ed5 49bc 17fb 3bbd
00000290: 7d2f e2bc b052 b03d 1727 743d 41e3 56bd
000002a0: 76a2 803d 6d94 4abe 37d3 58be 5d9f e8bb
000002b0: 381f 68bd 5b55 e8bc f1ea 4e3c c34d 91bd
000002c0: cd07 88bc a564 b9bd b584 e5bd 2bc1 15bd
000002d0: 5141 5bbd 2412 1a3d 0a6d 6abc 52db 023e
000002e0: 539f af3d 4c24 433b e2fc 5a3c 348d 4cbe
000002f0: f6d6 ff3b 757c fabd 6739 dfbd 7138 cabd
00000300: 6f77 813d 16bc c9bd 8c25 17bd 59d3 663c
00000310: 626b 28bb 9d0d 923d f19b 46bd 9fba 263a
00000320: 718e 23be ff37 e2bb bd81 ea3d 1527 e3bd
00000330: a553 ba3d 5f99 143d ff5c 333c 9858 8dbb
00000340: c18a bd3c c674 53bd 9593 de3d 7b38 423d
00000350: 279e 763d 3722 8abd f65f 553c a996 4dbd
00000360: 656c ac3c 2867 5b3d 65d3 14be 9f1a b43d
00000370: 7316 eebc e8bc e2bd 52b1 d63b 62bc d0bc
00000380: a881 8abd e05f 41bc 5688 f3bc 68ff 30be
00000390: 3fb3 7e3d a96a 6c3c ac00 04be 24e5 ffbd
000003a0: 69e5 213d a07b a43d 4161 163d 0e7e 843d
000003b0: 116f 203e 3c1d 0f3e 1ab9 883c 7064 c4bc
000003c0: 44aa c9bd 4e6c 803c 07d8 073d eacc 5abd
000003d0: 3ccf 48be 7718 833d 28c4 b03c e0c2 053d
000003e0: 5f10 b9bc 76e7 073d 2d4d 153e 1da6 dcb9
000003f0: b1df 68bc 8c11 13be 6a1f 0fbe 61ea 19be

model.5.weight f4 [256]
0.9245397 0.8978218 0.9744865 0.9370031 0.8710823 0.93805164 1.0656195 0.9552721
0.9011828 1.008305 1.0186825 1.0840262 0.9053153 0.99871606 0.891239 0.9268377
1.006308 0.976394 0.90569365 0.9977173 0.96448827 0.9268949 0.9312111 0.91467035
0.9327816 1.0067153 1.0269907 1.0421917 1.050265 0.92857075 1.0007356 0.88638353
0.93583965 0.8814051 0.91883606 1.0388007 0.9450627 0.96913713 0.92882836 0.8599155
1.0514454 0.95853585 1.0008676 0.87038755 0.9758611 0.97387415 1.0251254 1.0334034
0.9343871 0.9488707 0.99604076 0.96997696 0.91690177 0.84284407 1.0170674 1.0496262
0.8624755 0.956825 0.91196716 0.9026893 0.9773893 0.9277487 0.8751808 0.96915734
0.92845243 0.91299766 1.0406705 0.98593324 0.9495891 0.98274654 0.84401315 0.9502161
1.0094208 0.9052759 1.0372033 0.8934405 0.9795362 0.9253342 0.9506307 0.88852596
0.9490555 1.083876 0.985049 1.0149467 1.0032811 0.8733138 1.0697919 0.9501888
0.9006604 0.95243317 0.9779187 0.9735952 1.0641545 0.9641437 1.0417793 0.90738827
0.9133514 0.91461116 0.95458376 1.0771317 0.99931633 0.92761534 0.9212752 0.9942929
0.9703501 0.8547181 1.0563554 0.9764747 1.0214391 1.0049409 0.9196516 0.9636458
0.9085703 0.99635065 1.0690732 0.9426984 0.8851521 0.9551 0.913622 0.86797893
1.0217125 0.849608 0.9530345 1.008245 0.9894812 1.0325093 1.002996 0.9689958
1.0526285 0.99261206 0.99312973 0.9964492 0.95689684 0.7976324 0.90920776 0.91486925
0.9821485 0.93339086 0.92515874 0.9284426 0.92404443 0.9024177 0.93481046 0.96387345
1.051243 1.0049107 1.0178351 1.0433466 0.9527113 1.0347415 0.94994015 0.9276829
1.0821211 0.94487554 0.96879613 0.9199917 1.0501311 0.87922305 0.9663688 0.8908819
1.0772834 0.99199015 0.85798144 0.91418433 0.91396904 0.9603203 0.9747341 0.9288777
0.8445996 0.98314863 1.0465446 0.90043646 1.0316454 0.88327014 0.9032897 0.95148736
0.9297457 0.8659081 1.050279 0.8562331 0.88603145 0.96024245 0.98156315 0.9391939
0.9394883 0.97471815 0.9899315 1.0555656 0.91511273 1.0446382 0.92374057 0.95032436
0.9151275 1.1175855 1.019789 0.9145306 1.0207357 1.1151623 0.8537182 0.8084606
1.0269014 0.9895391 0.96292293 1.0515273 0.8490983 0.85670614 0.8686737 0.9140447
0.99559855 0.95368713 0.98743516 0.88182896 0.9377448 0.8714459 0.8677903 1.0224828
0.931607 0.9601887 0.9820521 0.9637117 0.97971237 0.98957145 0.95927507 0.8667509
1.0316917 0.9254976 1.0015757 1.0062052 0.93407464 1.0787022 0.97647816 1.0163629
0.8717225 1.0673238 0.90801036 0.94799006 0.9328535 1.0008371 0.9740462 1.0222052
0.96070105 0.9151281 0.95908654 0.88684905 0.98811334 1.0059416 0.8711514 0.9421526
0.95878553 0.87110764 0.89939535 0.9460682 0.8518348 0.98853403 0.9518135 1.0375031
00000000: a2ae 6c3f a6d7 653f f277 793f 6fdf 6f3f
00000010: 40ff 5e3f 2724 703f 3866 883f b68c 743f
00000020: eab3 663f 2310 813f 3064 823f 5fc1 8a3f
00000030: bec2 673f dbab 7f3f 3d28 643f 3c45 6d3f
00000040: b3ce 803f f5f4 793f 8adb 673f 676a 7f3f
00000050: b4e8 763f fc48 6d3f da63 6e3f d627 6a3f
00000060: c6ca 6e3f 0cdc 803f 6e74 833f 8a66 853f
00000070: 156f 863f d0b6 6d3f 1b18 803f 08ea 623f
00000080: 3093 6f3f c4a3 613f d738 6b3f 6cf7 843f
00000090: a1ef 713f 5f19 783f b2c7 6d3f 6c23 5c3f
000000a0: c395 863f 9b62 753f 6e1c 803f b8d1 5e3f
000000b0: 08d2 793f d14f 793f 4f37 833f 9046 843f
000000c0: fe33 6f3f 31e9 723f 87fc 7e3f 6950 783f
000000d0: 13ba 6a3f a1c4 573f 442f 823f 275a 863f
000000e0: 32cb 5c3f 7cf2 743f ae76 693f a516 673f
000000f0: 2f36 7a3f f080 6d3f d90b 603f b21a 783f
00000100: 0faf 6d3f 37ba 693f b134 853f 1f66 7c3f
00000110: 4518 733f 4795 7b3f 3f11 583f 5d41 733f
00000120: b334 813f 29c0 673f 14c3 843f 84b8 643f
00000130: e2c2 7a3f b4e2 6c3f 895c 733f 7076 633f
00000140: 4df5 723f 73bc 8a3f 2c2c 7c3f c6e9 813f
00000150: 846b 803f 7e91 5f3f f1ee 883f 933f 733f
00000160: ae91 663f a9d2 733f e158 7a3f 893d 793f
00000170: 3736 883f 1fd2 763f 0659 853f 994a 683f
00000180: 66d1 693f f523 6a3f 9a5f 743f 74df 893f
00000190: 32d3 7f3f 3378 6d3f b1d8 6b3f fb89 7e3f
000001a0: dd68 783f cece 5a3f a736 873f 3ffa 793f
000001b0: 84be 823f e7a1 803f 4a6e 6b3f 7eb1 763f
000001c0: 1098 683f d610 7f3f 64d7 883f af54 713f
000001d0: 5499 623f 6f81 743f 22e3 693f de33 5e3f
000001e0: 7ac7 823f e97f 593f 12fa 733f 2c0e 813f
000001f0: a44e 7d3f 4429 843f 2c62 803f 1c10 783f
00000200: 88bc 863f d31b 7e3f c03d 7e3f 4b17 7f3f
00000210: 31f7 743f a331 4c3f d7c1 683f df34 6a3f
00000220: 166e 7b3f b4f2 6e3f 34d7 6c3f 6aae 6d3f
00000230: 2d8e 6c3f d904 673f bd4f 6f3f 69c0 763f
00000240: 218f 863f eaa0 803f 6c48 823f 628c 853f
00000250: e3e4 733f 6972 843f 472f 733f a07c 6d3f
00000260: f282 8a3f 5de3 713f 0603 783f 9384 6b3f
00000270: b26a 863f c314 613f f263 773f d610 643f
00000280: 6ce4 893f 11f3 7d3f aca4 5b3f fc07 6a3f
00000290: e0f9 693f 8dd7 753f 2d88 793f eeca 6d3f
000002a0: ae37 583f a1af 7b3f 2cf5 853f 0183 663f
000002b0: f50c 843f fe1d 623f fe3d 673f ad94 733f
000002c0: d003 6e3f 27ac 5d3f 8b6f 863f 1832 5b3f
000002d0: f5d2 623f 73d2 753f b947 7b3f 036f 703f
000002e0: 4e82 703f 2187 793f 276c 7d3f c61c 873f
000002f0: d444 6a3f b4b6 853f 437a 6c3f 7548 733f
00000300: cc45 6a3f 0b0d 8f3f 7288 823f ad1e 6a3f
00000310: 78a7 823f a3bd 8e3f 478d 5a3f 46f7 4e3f
00000320: 8171 833f 6f52 7d3f 1e82 763f 7298 863f
00000330: 825e 593f 1851 5b3f 6661 5e3f d5fe 693f
00000340: 8cdf 7e3f d724 743f 8dc8 7c3f 8bbf 613f
00000350: 0b10 703f 1417 5f3f 8127 5e3f b7e0 823f
00000360: cc7d 6e3f edce 753f c467 7b3f cfb5 763f
00000370: 6ece 7a3f 8e54 7d3f 0d93 753f 63e3 5d3f
00000380: 790e 843f 69ed 6c3f a233 803f 55cb 803f
00000390: 841f 6f3f ea12 8a3f 79fa 793f 2e18 823f
000003a0: 3529 5f3f 119e 883f 5e73 683f 7aaf 723f
000003b0: 7dcf 6e3f 6e1b 803f 175b 793f 9fd7 823f
000003c0: 81f0 753f d645 6a3f b286 753f 8a08 633f
000003d0: fff4 7c3f b2c2 803f c703 5f3f ea30 713f
000003e0: f872 753f e900 5f3f c63e 663f 8731 723f
000003f0: d811 5a3f 9110 7d3f 0daa 733f e7cc 843f

model.5.bias f4 [256]
-0.24060093 0.20534232 -0.2439876 0.19910334 -0.3143755 -0.2642424 -0.22939953 0.39753747
0.408088 -0.15923846 -0.07995718 -0.21112089 -0.14007165 -0.16491224 0.35460547 0.27650687
-0.22913474 -0.27087048 -0.22134274 -0.2606497 0.20013106 -0.34096736 0.28885344 -0.29132658
-0.294405 -0.11924156 -0.14071183 -0.2318344 0.13495015 0.40887952 0.15843599 0.32282862
-0.16173331 0.28432304 0.37850407 0.14898537 -0.33898464 -0.016669549 0.022169208 0.33687872
-0.20615001 0.20520578 -0.24340253 -0.298611 0.27440786 0.3210994 -0.27894983 -0.2300726
-0.21923132 -0.100163 -0.28875622 -0.20314516 -0.33117494 -0.34564868 -0.31953388 -0.23197432
0.07105951 -0.38893673 0.08639341 0.116211265 -0.12696303 0.2047747 0.1791238 -0.19503558
-0.3884549 0.55511636 -0.22242275 -0.32540792 -0.26513287 0.03668875 -0.30695966 -0.26099643
-0.2430993 -0.243718 -0.119865395 0.3003062 -0.3527069 -0.29180712 -0.33414423 0.38595253
-0.052419223 -0.29142362 -0.07566822 0.25923818 -0.2175783 0.2551974 -0.029528702 -0.2863762
0.46959603 -0.26466662 0.19893992 -0.18825598 -0.32206166 0.14067963 -0.2233659 0.089989886
-0.17537893 -0.2351893 -0.11465082 -0.26759174 -0.2269311 0.18549435 -0.31130472 -0.22702911
-0.109615736 0.24335706 -0.05356569 -0.21384837 0.3818809 0.29976487 0.09494518 -0.01486588
-0.30152404 -0.16433822 -0.11308918 -0.017340885 0.36153007 -0.30287507 0.42958197 -0.23906592
-0.19673821 0.19024482 -0.20756194 -0.25053537 0.42718586 0.09807568 -0.21672173 0.22887138
-0.25988954 -0.22082834 -0.028950378 -0.20922475 0.47716695 -0.11258074 -0.36846036 0.32013896
-0.18671577 0.40266564 -0.21672857 -0.24867618 0.025749307 -0.34972927 0.37033406 -0.20543045
-0.2056112 -0.17708512 -0.09540784 0.18449764 -0.27090475 -0.26241446 0.4578426 -0.12448042
-0.2371709 0.3706037 -0.33157733 -0.2609727 -0.29164913 0.26463383 -0.2963391 -0.3507244
-0.18120374 -0.24771191 -0.18782045 -0.36013857 -0.099229634 -0.24877867 0.49548352 0.10022929
0.33127916 -0.2947985 -0.25916013 0.20887393 -0.23359604 0.2447712 0.31876832 -0.3561122
-0.17816728 0.22451153 -0.11017982 0.29170263 0.43628794 -0.33662927 -0.21647222 0.44118157
-0.00418756 -0.18753858 0.2518851 -0.24198684 0.4169133 -0.2216437 -0.16734202 0.12622674
-0.29640058 0.008583105 -0.05666957 -0.4554509 0.10922472 -0.021092458 0.33672297 0.2864695
-0.2047318 -0.28431237 -0.31633726 -0.2641591 -0.39815617 0.38076255 0.24572442 -0.16072913
0.3342774 0.2222611 -0.18213469 0.027647454 -0.20097716 0.37349343 -0.19855654 0.105309814
-0.2275797 -0.29160184 0.23538265 0.13894317 -0.27703518 -0.23269719 -0.30019775 -0.29672083
-0.2186097 0.2436143 -0.3033605 -0.26362896 -0.37834775 -0.28347278 -0.07595083 -0.16463321
0.21167767 -0.18900983 -0.29816344 0.28783518 -0.37252656 -0.36905146 0.024863862 -0.04036349
0.006386247 0.30853334 -0.2217913 0.21142548 0.18981262 -0.1879762 0.34081838 -0.098044455
-0.09950984 0.24906085 0.13168295 0.32568023 -0.1314067 0.15955147 0.23364194 0.19143426
00000000: 1760 76be 4245 523e e3d7 79be bfe1 4b3e
00000010: d3f5 a0be c84a 87be b6e7 6abe 088a cb3e
00000020: e9f0 d03e 680f 23be 97c0 a3bd 1330 58be
00000030: f16e 0fbe c1de 28be d98e b53e 4f92 8d3e
00000040: 4ca2 6abe 89af 8abe aca7 62be e173 85be
00000050: 28ef 4c3e 4693 aebe 99e4 933e c228 95be
00000060: 41bc 96be eb34 f4bd c316 10be ff65 6dbe
00000070: 5f30 0a3e a858 d13e 0b3d 223e cb49 a53e
00000080: 6b9d 25be ca92 913e 49cb c13e 9f8f 183e
00000090: 658f adbe 948e 88bc 339c b53c 5e7b ac3e
000000a0: fd18 53be 7721 523e 833e 79be 8ae3 98be
000000b0: 307f 8c3e 2467 a43e 83d2 8ebe 2798 6bbe
000000c0: 2d7e 60be 4222 cdbd dbd7 93be 4905 50be
000000d0: c38f a9be ddf8 b0be f299 a3be ad8a 6dbe
000000e0: a687 913d b722 c7be 07ef b03d 2c00 ee3d
000000f0: 9902 02be 75b0 513e 3b6c 373e 68b7 47be
00000100: 90e3 c6be 1b1c 0e3f cac2 63be de9b a6be
00000110: 7fbf 87be f146 163d d129 9dbe 53a1 85be
00000120: 06ef 78be 3691 79be fd7b f5bd bcc1 993e
00000130: 0096 b4be be67 95be f414 abbe 929b c53e
00000140: 8ab5 56bd 7a35 95be f1f7 9abd deba 843e
00000150: d9cc 5ebe 3ca9 823e 2de6 f1bc e79f 92be
00000160: e46e f03e 6282 87be e8b6 4b3e 2dc6 40be
00000170: 44e5 a4be 520e 103e 08ba 64be 9e4c b83d
00000180: 8996 33be 77d5 70be 0dce eabd c901 89be
00000190: a060 68be 3bf2 3d3e 5563 9fbe 527a 68be
000001a0: 377e e0bd 9832 793e b267 5bbd 11fb 5abe
000001b0: e585 c33e c87a 993e 9e72 c23d 0590 73bc
000001c0: 5c61 9abe 4748 28be 4d9b e7bd 790e 8ebc
000001d0: 781a b93e 7112 9bbe 2bf2 db3e b2cd 74be
000001e0: be75 49be 8acf 423e 1e8b 54be 2c46 80be
000001f0: 1bb8 da3e e7db c83d 4dec 5dbe 425d 6a3e
00000200: 3e10 85be d320 62be 5829 edbc 033f 56be
00000210: 3a4f f43e bb90 e6bd d6a6 bcbe 41e9 a33e
00000220: 6b32 3fbe 312a ce3e 18ee 5dbe f8a4 7ebe
00000230: 36f0 d23c b70f b3be 6d9c bd3e 5c5c 52be
00000240: be8b 52be cd55 35be 3065 c3bd f3ec 3c3e
00000250: 07b4 8abe 305b 86be 586a ea3e 97ef febd
00000260: eedc 72be c5bf bd3e 81c4 a9be 379e 85be
00000270: 0953 95be 167e 873e c2b9 97be 2692 b3be
00000280: 798d 39be 31a8 7dbe 0154 40be 1564 b8be
00000290: e838 cbbd d6bf 7ebe 04b0 fd3e 0445 cd3d
000002a0: 6c9d a93e d4ef 96be a3b0 84be 0ce3 553e
000002b0: cd33 6fbe 4da5 7a3e 9a35 a33e 5754 b6be
000002c0: 7c71 36be 5ae6 653e f5a5 e1bd 0c5a 953e
000002d0: 2261 df3e ac5a acbe e5aa 5dbe 8de2 e13e
000002e0: cd37 89bb 1d0a 40be 15f7 803e 66cb 77be
000002f0: a975 d53e 91f6 62be b55b 2bbe 9541 013e
00000300: d1c1 97be 27a0 0c3c 5a1e 68bd dc30 e9be
00000310: 36b1 df3d 17ca acbc f466 ac3e 21ac 923e
00000320: 37a5 51be 6491 91be f5f6 a1be dd3f 87be
00000330: 20db cbbe 4ff3 c23e 2f9f 7b3e 2d96 24be
00000340: 6826 ab3e 6a98 633e 8481 3abe ea7c e23c
00000350: f5cc 4dbe 883a bf3e 6852 4bbe acac d73d
00000360: a70a 69be d64c 95be 2608 713e 1e47 0e3e
00000370: 8ed7 8dbe 2c48 6ebe 85b3 99be cbeb 97be
00000380: 39db 5fbe 0776 793e 1152 9bbe 60fa 86be
00000390: ccb6 c1be 5823 91be 1c8c 9bbd 9c95 28be
000003a0: 08c2 583e cb8b 41be e1a8 98be 225f 933e
000003b0: cdbb bebe 50f4 bcbe 4caf cb3c 3054 25bd
000003c0: b943 d13b 15f8 9d3e 421d 63be ec7f 583e
000003d0: 3d5e 423e d57c 40be bf7f ae3e 88cb c8bd
000003e0: d1cb cbbd cf09 7f3e e5d7 063e 8fbf a63e
000003f0: 7a8f 06be 7661 233e d53f 6f3e 5807 443e
