model_gcnn_v2/gcnn_v2_final.pt (torch, 623270 bytes, 40 tensors)

node_embed.weight f4 [64, 16]
0	0xbcea4c95	-0.02860097
1	0x3e216cd3	0.1576417
2	0xbe883840	-0.26605415
3	0x3e80e5c7	0.25175306
4	0x3c61d6f1	0.013784156
5	0xbec0cff0	-0.37658644
6	0x3e2d7800	0.16940308
7	0x3dbb9d53	0.091608666
8	0x3d848523	0.06470706
9	0x3d808776	0.06275837
10	0xbea43b01	-0.32076266
11	0x3e973e4c	0.29539716
12	0xbd095ba7	-0.033534672
13	0x3ea8e13e	0.32984346
14	0x3dd352c9	0.103185244
15	0xbd8b5957	-0.068041496
16	0x3e039848	0.1285106
17	0x3e652d09	0.22380461
18	0x3e56682e	0.20938179
19	0xbda2877d	-0.079359986
20	0xbe2053ba	-0.15656939
21	0x3e2a9922	0.16659978
22	0xbd3bc875	-0.045845468
23	0xbe92dff5	-0.2868649
24	0x3e058666	0.1303955
25	0xbe431a86	-0.19053087
26	0x3d636dba	0.055524565
27	0xbc68f5ad	-0.01421873
28	0xbde4e842	-0.11177112
29	0xbe3aa6c9	-0.18227686
30	0xbe488453	-0.19581728
31	0x3df39ee4	0.1189554
32	0x3e443a4a	0.1916286
33	0xbdf17a3c	-0.117908925
34	0xbe816ef3	-0.2527996
35	0x3ea2c6e7	0.31792375
36	0x3df0d5e7	0.11759549
37	0x3e40b2c5	0.18818195
38	0x3d03ac68	0.03214684
39	0xbeaaed69	-0.33384255
40	0xbd35431b	-0.04425345
41	0xbe07cf50	-0.13262677
42	0x3da42128	0.080141366
43	0x3d0bac06	0.0340996
44	0x3b7512d4	0.0037395256
45	0x3e874ea0	0.26427174
46	0x3e1b0ba4	0.1514116
47	0x3e8e1b79	0.27755335
48	0x3e5e7101	0.21722795
49	0xbe6c1492	-0.23054722
50	0xbdae4995	-0.085101284
51	0xbe429030	-0.19000316
52	0x3e4b57c5	0.198577
53	0xbe5fc3e7	-0.21852075
54	0x3e927beb	0.28610167
55	0xbea50448	-0.3222983
56	0x3e7dcfef	0.24786352
57	0xbe178d51	-0.14800002
58	0xbe23a499	-0.15980758
59	0x3e6eb1fc	0.23310083
60	0x3c68b88b	0.014204155
61	0xbcede6d4	-0.029040731
62	0x3d3c0c69	0.045910273
63	0x3e0df0cd	0.1386139
64	0x3cfd3029	0.030906754
65	0x3df76f6f	0.12081801
66	0x3d9b4a83	0.07582571
67	0x3e2dbb7f	0.16966055
68	0x3dee4ae2	0.116353765
69	0xbe19b96f	-0.15012144
70	0xbda2c921	-0.079485185
71	0x3ec64651	0.38725522
72	0xbdbd4380	-0.0924139
73	0x3d49593d	0.04915737
74	0x3de73e90	0.1129123
75	0xbe986c82	-0.29770285
76	0xbee3f682	-0.44524008
77	0xbee3d1db	-0.44496045
78	0x3cf59171	0.029976578
79	0xbdcaf81f	-0.099106066
80	0x3e668849	0.22512926
81	0x3c3b1a27	0.011419809
82	0xbe10dff4	-0.14147931
83	0xbe548b7d	-0.20756336
84	0xbdfa4e1a	-0.12221928
85	0x3df853ec	0.12125382
86	0xbefc10b2	-0.49231488
87	0xbdbd6f59	-0.092497535
88	0xbe5b27b5	-0.21401866
89	0x3e71c977	0.23612009
90	0x3e002f42	0.12518027
91	0x3e19592a	0.1497542
92	0x3e54d3de	0.20783946
93	0x3d0cf354	0.034411743
94	0x3e188209	0.14893354
95	0x3e787846	0.2426463
96	0x3de7850a	0.11304672
97	0xbda8e6aa	-0.08247121
98	0x3c599f17	0.013282559
99	0x3e9601b6	0.2929818
100	0xbe5c9227	-0.21540128
101	0xbe66cd26	-0.22539195
102	0xbd2c7743	-0.042105924
103	0x3ef28468	0.47366643
104	0x3e3c2a50	0.18375516
105	0xbb2ea725	-0.002664992
106	0x3dbc4739	0.09193272
107	0xbeab7978	-0.3349111
108	0xbd86c6da	-0.06580897
109	0xbedb76c7	-0.42864057
110	0xbe9a3bee	-0.30123848
111	0xbe6129ff	-0.21988676
112	0xbe402f0c	-0.18767947
113	0xbe80c4a5	-0.25150028
114	0xbe917deb	-0.2841638
115	0x3ea3701c	0.3192147
116	0x3ba6f607	0.0050952467
117	0x3e5a76f8	0.21334445
118	0x3e85c6c3	0.26128206
119	0x3d98f6b2	0.074689284
120	0x3df16e90	0.11788666
121	0xbdb8faf1	-0.09032238
122	0xbdf3be97	-0.119015865
123	0x3de636c3	0.11240914
124	0x3dfd1e99	0.12359352
125	0xbdf5391e	-0.11973785
126	0x3e1fec84	0.15617567
127	0x3e1d9585	0.15389068
128	0x3dda975c	0.10673401
129	0xbc982379	-0.018571602
130	0x3da264f5	0.07929412
131	0xbe364bf6	-0.17802414
132	0xbd9c5b7d	-0.076346375
133	0x3e2f0721	0.17092563
134	0xbec8473a	-0.39116842
135	0x3db5d483	0.08878424
136	0x3cbe5e49	0.023238318
137	0xbeaf0803	-0.341858
138	0x3e0a011a	0.13476983
139	0xbdef9b52	-0.11699547
140	0xbbf04c28	-0.0073332973
141	0xbed0947c	-0.40738285
142	0xbe8e5357	-0.27797958
143	0xbe0ad3c1	-0.1355734
144	0xbe4005ce	-0.18752214
145	0xbe3d0a31	-0.18460919
146	0x3e574981	0.21024133
147	0x3e1e3c10	0.154526
148	0xbe4be78e	-0.1991255
149	0xbdc1f0fe	-0.09469794
150	0xbec85fb7	-0.39135525
151	0x3daf52b8	0.08560699
152	0xbe6af5c0	-0.22945309
153	0x3e164b95	0.1467727
154	0x3dc64c4b	0.096825205
155	0x3e859bd2	0.26095444
156	0x3cc00411	0.023439439
157	0xbe5fd1b2	-0.21857336
158	0x3d570345	0.052493352
159	0x3db9f395	0.09079663
160	0xbdd8076e	-0.10548292
161	0x3cdb7c24	0.026792593
162	0xbe32ed6d	-0.17473383
163	0x3eb75737	0.35808727
164	0x3e83eef6	0.2576825
165	0xbd84d646	-0.06486182
166	0x3d974e90	0.073880315
167	0x3dc9ca8f	0.09853088
168	0xbd2b2ebc	-0.041792616
169	0x3db2c6a9	0.08729298
170	0x3e584bb6	0.21122631
171	0xbe5cc239	-0.21558465
172	0xbeaf9441	-0.34292796
173	0xbe204279	-0.15650357
174	0x3d37725b	0.044786792
175	0xbea82fdc	-0.32849014
176	0xbc093649	-0.008374759
177	0x3e388433	0.1801918
178	0xbdbf7c00	-0.09349823
179	0x3de21357	0.11038845
180	0x3cd06725	0.025439808
181	0xbd8d4d79	-0.06899542
182	0xbe64a573	-0.22328739
183	0x3e50f09f	0.2040429
184	0x3de32790	0.1109153
185	0xbd8d84f6	-0.06910126
186	0x3e517e27	0.2045828
187	0x3e440d3a	0.1914567
188	0x3e3f3b12	0.18674877
189	0x3e9495da	0.29020578
190	0x3e2bb50f	0.16768287
191	0x3eae3672	0.34025913
192	0xbdb32328	-0.0874694
193	0xbd8d0324	-0.06885365
194	0xbda38f60	-0.07986331
195	0xbcfae091	-0.03062466
196	0x3eba41df	0.3637838
197	0xbe026188	-0.12732518
198	0xbe063b00	-0.13108444
199	0x3e26d84f	0.16293453
200	0x3e819357	0.25307724
201	0xbe4763dc	-0.19471687
202	0x3e644777	0.22292887
203	0xbeab2e8e	-0.33433956
204	0xbe409ad5	-0.18809064
205	0x3c99f5f5	0.01879404
206	0xbdc8c212	-0.09802641
207	0xbe537556	-0.20650229
208	0xbc8a9ef4	-0.016921498
209	0x3ce9613e	0.028488752
210	0xbd8210c5	-0.06350855
211	0x3e32a52a	0.17445818
212	0x3e6e8fff	0.23297118
213	0xbd865019	-0.06558246
214	0x3dd50e28	0.10403091
215	0xbe89757c	-0.26847446
216	0xbe02acf8	-0.12761295
217	0x3e848997	0.25886223
218	0x3e38a302	0.18030933
219	0x3af9bd91	0.0019053688
220	0xbe870d27	-0.26377222
221	0xbdadc661	-0.084851034
222	0x3b4fa3d7	0.003168335
223	0xbe864c7b	-0.26230225
224	0xbd848d0f	-0.06472217
225	0x3d7e09c6	0.06202104
226	0xbd6cc34b	-0.057803433
227	0x3c45644f	0.012047841
228	0xbe5a2b47	-0.21305571
229	0x3e43708e	0.19085905
230	0xbe6af291	-0.22944094
231	0xbe83d131	-0.25745538
232	0x3e58093a	0.2109727
233	0x3d87094f	0.06593572
234	0x3e59bbec	0.21263093
235	0x3dc069ec	0.09395203
236	0x3da7550e	0.0817052
237	0xbd998bb8	-0.07497352
238	0x3db66dad	0.08907638
239	0xbe0ae4fb	-0.13563912
240	0xbcb48b57	-0.022039099
241	0xbe44d9dd	-0.19223733
242	0xbe58bf8d	-0.21166821
243	0x3e9fff75	0.31249586
244	0x3eb3b64f	0.35100028
245	0x3c03689e	0.008020548
246	0x3e61cd96	0.22051081
247	0xbd859a70	-0.06523597
248	0xbe19375b	-0.14962523
249	0xbda3be21	-0.079952486
250	0x3e312f40	0.1730318
251	0xbd8d2fd8	-0.06893891
252	0x3e31a857	0.17349373
253	0x3e5516cb	0.20809476
254	0xbd776e20	-0.060407758
255	0x3e13ab7a	0.14420882

node_embed.bias f4 [64]
0	0x3e0688f2	0.13138178
1	0xbd0bfa76	-0.034174405
2	0xbdf3fec8	-0.1191383
3	0x3e4f2bb5	0.20231517
4	0xbe455076	-0.19268975
5	0x3e32b798	0.17452848
6	0xbd9bc3a3	-0.07605674
7	0xbbbdcfb9	-0.0057925847
8	0x3e0d5502	0.13801959
9	0x3df3b2ec	0.11899361
10	0xbe32cab2	-0.17460135
11	0xbe0c36a5	-0.1369272
12	0xbdb0118d	-0.085970975
13	0xbe0a0d93	-0.1348174
14	0x3c4a9211	0.0123639265
15	0xbe3e4ca8	-0.1858393
16	0xbd7d298b	-0.061807197
17	0xbdd9140f	-0.10599529
18	0xbdb57eff	-0.08862113
19	0x3db14f43	0.08657696
20	0xbd3fb60b	-0.04680447
21	0x3e337c59	0.17527904
22	0x3e49d99d	0.19711919
23	0x3e09a007	0.13439952
24	0xbe6c710d	-0.2309
25	0xbddcb696	-0.10777013
26	0xbe115a6e	-0.14194652
27	0xbccbfacc	-0.024899863
28	0xbe60a00b	-0.21936052
29	0x3c922f99	0.017844962
30	0x3b1cea10	0.0023943223
31	0x3e21dc31	0.15806653
32	0xbb086a8b	-0.0020815458
33	0x3d89e38b	0.067328535
34	0x3de9bbda	0.11412783
35	0x3d393cb6	0.045223914
36	0xbe4ac0df	-0.19800137
37	0xbd685352	-0.056720085
38	0xbdb97ecf	-0.0905739
39	0x3e58fa8b	0.21189325
40	0xbe539c8b	-0.20665185
41	0x3ce0d761	0.02744645
42	0xbd917dc4	-0.07104066
43	0xbe3dac57	-0.18522774
44	0xbe0e0140	-0.13867664
45	0xbca8a847	-0.020588053
46	0x3e00680f	0.12539695
47	0x3d561a50	0.052271187
48	0x3e01fb7e	0.12693593
49	0x3da5c2f6	0.080938265
50	0x3e218157	0.15771995
51	0xbdfb5374	-0.12271777
52	0xbd180840	-0.037117243
53	0x3c3b2765	0.011422967
54	0x3d913d4f	0.07091772
55	0xbe680643	-0.22658639
56	0x3e7debb2	0.24796942
57	0xbc05ae64	-0.008159254
58	0xbdcba4b4	-0.09943524
59	0xbe053229	-0.13007416
60	0x3d7c6a27	0.061624672
61	0x3e12a9d1	0.14322592
62	0x3d8c33b8	0.06845802
63	0x3dd335da	0.10313006

gat1.gat.att_src f4 [1, 4, 32]
0	0xbf06087f	-0.52356714
1	0x3e3c0325	0.18360575
2	0xbe05c360	-0.13062811
3	0x3eb02e05	0.3441011
4	0x3edb07ac	0.4277929
5	0xbf0d572f	-0.55211157
6	0xbdcb2732	-0.09919585
7	0x3e4899c7	0.19589911
8	0xbe35365c	-0.17696518
9	0xbe9f6057	-0.3112819
10	0xbf1f08f3	-0.6212303
11	0x3f009c76	0.5023874
12	0xbf179d75	-0.59224635
13	0xbf11cb26	-0.56950605
14	0x3ea3431a	0.31887132
15	0xbec28e14	-0.37999022
16	0xbea2f61f	-0.318284
17	0x3eb654c9	0.3561156
18	0xbe684daf	-0.22685884
19	0xbde29531	-0.11063612
20	0xbe432eab	-0.19060771
21	0xbf098e60	-0.5373287
22	0x3f0706bb	0.52744645
23	0xbed3f648	-0.41398835
24	0xbd510407	-0.05102923
25	0x3e28e3b7	0.16493116
26	0x3eef4430	0.4673171
27	0x3eeb6f08	0.45983148
28	0x3f161464	0.58624864
29	0x3f1e0067	0.61719364
30	0x3f2e694f	0.6812944
31	0xbecc7165	-0.39930263
32	0xbe86f24f	-0.26356742
33	0xbe7e8fcd	-0.24859543
34	0xbeb0b185	-0.34510437
35	0xbd44868c	-0.047979876
36	0xbd0ffb84	-0.035151973
37	0xbe453c05	-0.19261177
38	0xbe951e7b	-0.29124817
39	0x3e856b23	0.260583
40	0x3e4d8f52	0.20074204
41	0x3e6300e1	0.22168304
42	0xbe4de801	-0.20108034
43	0x3e27688b	0.16348474
44	0x3eb3b1a4	0.35096467
45	0x3e6d3e3e	0.23168275
46	0xbeb0dedd	-0.3454503
47	0x3ebb8d43	0.36631212
48	0xbe64dd25	-0.22349985
49	0xbea17298	-0.3153274
50	0x3ea718d7	0.3263614
51	0x3da9648b	0.0827113
52	0xbe0789b3	-0.13236122
53	0xbcce45f1	-0.025179835
54	0xbe07c04c	-0.13256949
55	0xbe8a2708	-0.26982903
56	0x3cd9eb10	0.026601344
57	0xbe888abc	-0.26668346
58	0x3df30d48	0.118677676
59	0xbb233bba	-0.0024907426
60	0x3ede9cdf	0.43479058
61	0xbc22b738	-0.009931378
62	0x3d1def7a	0.03855846
63	0x3dd2be07	0.10290151
64	0xbeab19bc	-0.3341807
65	0x3ece712c	0.40320718
66	0x3e462df4	0.19353467
67	0xbc22ef32	-0.009944724
68	0x3daa5ecf	0.083188646
69	0xbda44775	-0.08021442
70	0x3e811fea	0.2521966
71	0x3e75166a	0.23934332
72	0x3ed6cf6b	0.41955122
73	0x3e6ea69e	0.23305747
74	0xbee7ee0d	-0.45298806
75	0xbb709509	-0.0036709926
76	0xbec5d9a4	-0.3864261
77	0x3e7a764f	0.24459194
78	0x3e9f6b39	0.31136492
79	0x3d85f490	0.06540787
80	0xbc528bd9	-0.012850725
81	0x3ec7b5b7	0.39005825
82	0xbe55db80	-0.20884514
83	0xbec3e6b6	-0.38261956
84	0x3eb49cb7	0.35275814
85	0xbec89b73	-0.39181098
86	0xbe23629e	-0.15955588
87	0x3d3684b5	0.044560153
88	0x3e476011	0.1947024
89	0x3e8692f5	0.26283994
90	0x3f00cc05	0.5031131
91	0xbe5a1f07	-0.21300898
92	0xbe1e6313	-0.15467481
93	0xbd30f43d	-0.043201674
94	0x3e68919a	0.22711793
95	0xbe66acce	-0.22526857
96	0xbec15080	-0.3775673
97	0xbec698d9	-0.38788489
98	0x3f0c7ddd	0.5487955
99	0x3ef9c702	0.48784643
100	0x3ebe0c96	0.37118977
101	0xbf107927	-0.56434864
102	0xbef44f8f	-0.47716948
103	0xbeb6704f	-0.3563256
104	0x3ef24506	0.47318286
105	0xbea663fc	-0.32498157
106	0xbeb49e80	-0.35277176
107	0x3e896b64	0.26839745
108	0xbe1fbfdc	-0.15600532
109	0x3ee204b7	0.44144222
110	0x3e1c30ab	0.1525294
111	0xbe16401b	-0.14672892
112	0xbf3ea5ec	-0.74471927
113	0xbe39c772	-0.18142489
114	0xbf036a7c	-0.5133436
115	0x3eea8750	0.4580636
116	0xbdfff2c4	-0.12497476
117	0xbf01319f	-0.5046634
118	0x3ea014c9	0.31265858
119	0xbe154695	-0.14577706
120	0xbed09be4	-0.40743935
121	0x3ec23f71	0.37939027
122	0xbce3fdb7	-0.027830942
123	0xbf3c02f6	-0.7344202
124	0xbf070a48	-0.5275006
125	0xbec49ae1	-0.38399413
126	0xbd445371	-0.04793114
127	0xbf0c23cd	-0.5474213

gat1.gat.att_dst f4 [1, 4, 32]
0	0x3d78c9fb	0.0607395
1	0xbef662e2	-0.48122317
2	0x3eeb9e62	0.46019274
3	0xbda8d553	-0.08243813
4	0x3f0f1cfb	0.55903596
5	0x3ce51b89	0.027967231
6	0x3e279ed6	0.16369185
7	0xbde8fe31	-0.11376608
8	0x3eab1181	0.33411792
9	0x3ecbd51a	0.3981102
10	0x3e840217	0.25782844
11	0xbeba9e7e	-0.36449045
12	0x3eb2715a	0.34852105
13	0xbe352968	-0.17691576
14	0xbea77069	-0.3270295
15	0x3e27d6b4	0.16390496
16	0x3ee4c2a5	0.44679752
17	0x3e17921d	0.14801832
18	0xbe95868c	-0.29204214
19	0x3d94d168	0.072665036
20	0xbe5aac12	-0.21354702
21	0x3e964c69	0.2935517
22	0x3de75e97	0.112973385
23	0x3ee348d8	0.44391513
24	0xbdbb3360	-0.091406584
25	0xbdfe6ee4	-0.124234945
26	0x3d1337d5	0.035941917
27	0xbeaeb729	-0.34124115
28	0x3e0450bb	0.12921421
29	0xbe2a5a09	-0.16635908
30	0xbeedbaf8	-0.46431708
31	0xbdca7460	-0.09885478
32	0x3e03d6e3	0.12874942
33	0xbe874a66	-0.2642395
34	0xbd93f9ab	-0.07225355
35	0xbe99b1d7	-0.30018494
36	0x3e1c2af9	0.15250768
37	0xbe1455a5	-0.14485796
38	0xbdb2c7ac	-0.08729491
39	0xbe4127ee	-0.18862888
40	0xbed126da	-0.40849954
41	0xbe1272bd	-0.14301582
42	0x3ddedb0f	0.10881626
43	0x3d7c9b1f	0.061671373
44	0x3f0c3b6c	0.5477817
45	0xbe2d29bb	-0.1691045
46	0x3e409fe9	0.18811001
47	0x3ec8bbc7	0.39205763
48	0xbea94a81	-0.33064654
49	0xbed9f858	-0.42572284
50	0xbe667796	-0.22506556
51	0xbe18ab75	-0.14909156
52	0x3ceab967	0.02865286
53	0xbcf7e279	-0.030259358
54	0xbea26c10	-0.3172307
55	0xbe266f07	-0.16253291
56	0xbeb18ec6	-0.3467924
57	0x3ea2de2c	0.3181013
58	0xbeb48f1f	-0.35265443
59	0x3cef2750	0.02919355
60	0x3f18ae8e	0.5964135
61	0xbe2802aa	-0.16407266
62	0x3eb17c61	0.34665206
63	0x3e34ee2c	0.1766898
64	0xbe1a02ef	-0.15040182
65	0xbe7263ea	-0.23670927
66	0xbee4e659	-0.4470699
67	0xbdcd7b23	-0.10033252
68	0xbeb9673f	-0.36211583
69	0xbdbd2318	-0.09235209
70	0x3e35fd55	0.1777242
71	0xbe322997	-0.17398678
72	0xbdb3ea18	-0.08784884
73	0x3e2c7e5e	0.1684508
74	0xbd5c1174	-0.053727582
75	0xbd75da48	-0.060022622
76	0x3eea21bc	0.45728862
77	0x3e87f605	0.26554886
78	0xbe02c150	-0.12769055
79	0x3e009a75	0.1255892
80	0xbe37f23b	-0.17963497
81	0x3e586fc5	0.21136387
82	0x3cd2054f	0.025637297
83	0xbda7a00c	-0.081848234
84	0x3c313811	0.01081659
85	0xbd990256	-0.07471149
86	0xbe500da3	-0.20317702
87	0xbe32b51d	-0.17451902
88	0x3ead0ff3	0.3380123
89	0xbdd1f831	-0.10252417
90	0xbbdfc1a5	-0.006828504
91	0xbeb217fc	-0.34783924
92	0xbca69bb5	-0.020337919
93	0x3e8c4d55	0.2740275
94	0x3cbfef98	0.023429677
95	0xbe4cc778	-0.19997966
96	0x3da2165a	0.079144195
97	0x3d090e8d	0.033461142
98	0xbec7c13b	-0.3901461
99	0xbefe5ea4	-0.4968158
100	0xbf1713cb	-0.59014577
101	0x3ed41289	0.4142039
102	0xbec02d22	-0.37534434
103	0xbe5668e4	-0.2093845
104	0x3de1e2bf	0.110295765
105	0x3ea5642e	0.32302994
106	0x3eb087c9	0.34478596
107	0xbe8824fc	-0.26590717
108	0x3e8b0ed0	0.2715974
109	0x3c16d63b	0.00920635
110	0x3d4c7d2e	0.04992407
111	0xbe7bb40a	-0.24580398
112	0xbea1396f	-0.3148913
113	0xbe9d27bb	-0.30694374
114	0x3e93b530	0.28849173
115	0xbf0638b4	-0.5243027
116	0x3eda05c5	0.42582527
117	0x3ee66acc	0.45003355
118	0x3ee64c37	0.44980022
119	0x3d979a9d	0.07402537
120	0x3f1bbb8c	0.6083305
121	0xbce599de	-0.028027471
122	0xbea340cd	-0.31885377
123	0x3be0fdd7	0.0068661976
124	0x3db01c65	0.08599166
125	0x3e93ea7b	0.28889832
126	0xbecf6364	-0.40505517
127	0x3e08d378	0.13361919

gat1.gat.bias f4 [128]
0	0x3d78abf6	0.06071087
1	0x3c5c9e97	0.013465545
2	0x3d839b01	0.06426049
3	0xbd89faa0	-0.06737256
4	0xbd5e80e5	-0.054322142
5	0x3dc25be8	0.09490186
6	0xbbf4bc91	-0.007468768
7	0xbcb11185	-0.0216148
8	0x3d876c7c	0.066124886
9	0x3cdb0676	0.02673648
10	0x3d126b97	0.035747137
11	0xbda5c740	-0.080946445
12	0x3da2d109	0.079500265
13	0xbcf79178	-0.030220732
14	0x3d187423	0.03722013
15	0x3dc97956	0.09837596
16	0xbcde8c9e	-0.02716666
17	0xbdbeb859	-0.09312505
18	0x3ded49bc	0.11586329
19	0xbcf3e49f	-0.029772101
20	0x3cc75a27	0.02433498
21	0x3da55a98	0.0807392
22	0xbd850ba5	-0.06496362
23	0x3cfebdb8	0.031096324
24	0x3d1df0d0	0.038559735
25	0xbd740ddf	-0.05958354
26	0xbd012a22	-0.03153432
27	0xbc9872f7	-0.018609507
28	0xbe08c8d5	-0.13357861
29	0xbd98bf6c	-0.07458386
30	0xbdd9b825	-0.10630826
31	0x3dc742fc	0.09729573
32	0x3d6c9fd1	0.0577696
33	0xbc87f662	-0.016596977
34	0x3c43bb0e	0.011946453
35	0xbc381098	-0.011234425
36	0x3db0f4b7	0.08640426
37	0x3cb223f7	0.021745665
38	0x3d88a6c1	0.06672431
39	0x3d0951e2	0.033525355
40	0xbd1d0af0	-0.03834051
41	0xbd26d402	-0.04072953
42	0x3d2c2d7a	0.042035557
43	0xbd32360e	-0.04350858
44	0x3e325b4d	0.17417641
45	0x3cfdb7bf	0.030971406
46	0x3db2bb0a	0.08727081
47	0x3da478f0	0.080308795
48	0xbd93596f	-0.071947925
49	0x3d035675	0.032064874
50	0x3bb48422	0.0055089155
51	0xbd06fec5	-0.03295781
52	0x3cb07a1e	0.021542605
53	0x3d1c3086	0.038132213
54	0x3a06d21a	0.0005143002
55	0x3d8b3c9c	0.0679867
56	0xbcc1da07	-0.023663534
57	0x3d800ad0	0.06252062
58	0x3c63c44e	0.013901783
59	0x3e04d82b	0.12973087
60	0x3d7a4bf8	0.061107606
61	0x3d621178	0.05519244
62	0x3bf995f3	0.0076167523
63	0x3d2ac212	0.041688986
64	0x3deaab33	0.11458435
65	0x3bbdcda8	0.0057923384
66	0x3d6e2b49	0.05814675
67	0xbc933534	-0.017969705
68	0xbc3c39b9	-0.0114883715
69	0x3d200ae2	0.03907288
70	0xbb928999	-0.0044719693
71	0xbc549fd5	-0.01297756
72	0x3cfdfd0c	0.031004451
73	0xbca75899	-0.020427989
74	0x3d28b491	0.041187827
75	0x3df31278	0.11868757
76	0xbb97d922	-0.0046340385
77	0xbd288708	-0.0411444
78	0xbd6b5e82	-0.057463177
79	0xbb698331	-0.0035631175
80	0x3c913dfd	0.017729754
81	0xbcd2055e	-0.025637325
82	0x3d3b9c13	0.04580314
83	0x3d033e77	0.032041993
84	0xbcd2a51c	-0.025713496
85	0x3dabd71f	0.083906405
86	0x3d688e8f	0.05677658
87	0x3d6a1de2	0.057157405
88	0xbb92aa7b	-0.0044758893
89	0x3d0d063c	0.034429774
90	0xbd0c5c6d	-0.03426783
91	0x3d1a41bb	0.03766034
92	0x3b2e1d5e	0.0026567797
93	0x3c627bab	0.01382343
94	0x3c2b7b58	0.010466419
95	0x3ddf23d6	0.10895507
96	0x3d95e4d4	0.07319036
97	0x3db7e078	0.08978361
98	0xbd21d27a	-0.039507367
99	0xbd0f4665	-0.034979243
100	0xbd50d1f5	-0.05098148
101	0x3cb78f96	0.022407334
102	0x3e92a813	0.28643855
103	0x3dd4655d	0.10370896
104	0xbdaf8df1	-0.08571995
105	0x3d2419c2	0.040063627
106	0x3d87778f	0.06614601
107	0xbde11a40	-0.10991335
108	0x3d9aeb68	0.075644314
109	0xbd93d746	-0.072187945
110	0x3cd8073b	0.026370635
111	0xbd2e4aa5	-0.042551655
112	0x3e49aecf	0.1969559
113	0x3d6117a2	0.05495418
114	0x3dbd7b00	0.09251976
115	0xbe1a215c	-0.15051788
116	0x3dcbba53	0.09947648
117	0x3c280e86	0.010257369
118	0x3b2a2ee7	0.0025967897
119	0x3d9e728f	0.07736694
120	0x3daf9bd2	0.08574642
121	0xbcae2bca	-0.021261115
122	0xbcb68b16	-0.022283118
123	0x3de4527e	0.11148547
124	0x3dec3ddd	0.11535237
125	0x3db74830	0.089493155
126	0xbc62acdf	-0.013835161
127	0x3df58581	0.119883545

gat1.gat.lin.weight f4 [128, 64]
0	0xbe009dc6	-0.12560186
1	0xbd83b7fe	-0.06431578
2	0xbe05e48d	-0.13075466
3	0xbd31e213	-0.04342849
4	0x3dc67b31	0.09691466
5	0xbdb05cbc	-0.08611438
6	0x3db2c784	0.08729461
7	0xbc893149	-0.016747134
8	0x3dc9859d	0.09839938
9	0xbe2d02a1	-0.16895534
10	0xbd984d03	-0.07436564
11	0x3da249b2	0.079242125
12	0xbc5d2559	-0.013497674
13	0xbe705cea	-0.23472944
14	0xbcc8d883	-0.024517303
15	0x3d87212e	0.065981254
16	0xbe5070a9	-0.20355476
17	0x3dad68e2	0.084672704
18	0x3db3f9c6	0.08787875
19	0xbe1f3e92	-0.15551212
20	0xbde10a0a	-0.10988243
21	0x3ddd8473	0.10816278
22	0xbe2a6317	-0.16639362
23	0x3dd113b6	0.10208838
24	0xbe0099a3	-0.12558608
25	0xbdf2b7f4	-0.118514925
26	0xbe0edd8f	-0.13951705
27	0xbe21cb13	-0.15800123
28	0xbe66e73f	-0.22549151
29	0xbda3f7a5	-0.08006219
30	0x3e662692	0.22475651
31	0xbe8ef9e4	-0.27925026
32	0xbd4eaaac	-0.050455734
33	0xbdef3c6e	-0.11681448
34	0x3d65c22e	0.056093387
35	0xbc9ebc4d	-0.019376898
36	0xbc2fc266	-0.010727501
37	0xbc88076c	-0.016605102
38	0xbc2b9d65	-0.0104745375
39	0xbe7e752f	-0.2484939
40	0xbe2d4b31	-0.16923214
41	0x3e5f69f4	0.21817762
42	0x3d377838	0.044792384
43	0xbd0d9eee	-0.034575395
44	0x3dc0ec31	0.0942005
45	0x3d1a87b0	0.037727058
46	0x3e2eef97	0.17083584
47	0x3e0f0bcc	0.13969344
48	0xbd6aab1c	-0.05729209
49	0x3dd09108	0.101839125
50	0xbd9b5dc1	-0.075862415
51	0xbe24fd14	-0.16112167
52	0xbd695430	-0.056965053
53	0xbe308819	-0.17239417
54	0x3e0f9193	0.14020376
55	0xbe32d82c	-0.17465276
56	0x3d488d0e	0.048962645
57	0xbd9d29af	-0.07673966
58	0xbdf14fbb	-0.117827855
59	0x3dd38030	0.10327184
60	0x3de4b3ed	0.111671306
61	0x3daeca5e	0.08534692
62	0xbe07969b	-0.13241045
63	0x3d33bcba	0.043881156
64	0x3d996428	0.074898064
65	0x3dfab12a	0.122408226
66	0xbe2cdf05	-0.1688195
67	0xbe2cb21f	-0.16864823
68	0x3da124fe	0.07868384
69	0x3e776816	0.241608
70	0x3ca1cb63	0.019750303
71	0xbe43c280	-0.19117165
72	0x3dbfd92b	0.093675934
73	0x3e82b194	0.25526106
74	0xbe226b1a	-0.15861169
75	0xbdd0a6d1	-0.10188068
76	0xbe359304	-0.17731863
77	0xbe349bde	-0.17637584
78	0xbe7e5f09	-0.2484094
79	0xbde615f3	-0.11234655
80	0x3dc9973c	0.09843299
81	0xbd33c0dd	-0.0438851
82	0xbdaeac8c	-0.085290045
83	0x3d9aa0ca	0.07550199
84	0xbcb40617	-0.02197556
85	0xbda12a37	-0.0786938
86	0xbc586bc2	-0.013209285
87	0x3dd3538b	0.10318669
88	0xbd786dcf	-0.060651597
89	0xbe043377	-0.12910257
90	0xbd6d2a1b	-0.057901483
91	0xbdcb12d3	-0.099157
92	0x3d591594	0.052999094
93	0x3d8f9bdf	0.07012152
94	0xbe69f8b8	-0.22848785
95	0xbd93c6d2	-0.07215656
96	0x3e0f91f9	0.14020528
97	0xbe0677af	-0.13131593
98	0xbe7ec8c0	-0.24881268
99	0x3e66e100	0.22546768
100	0xbe1493f9	-0.14509572
101	0xbdbde0a9	-0.09271366
102	0x3e26fca2	0.1630731
103	0x3e683713	0.22677259
104	0x3e0c0e1c	0.13677257
105	0xbe5b8752	-0.2143834
106	0x3c9cb03c	0.019127004
107	0xbe7cbe63	-0.24682002
108	0x3c7622f9	0.015022987
109	0x3e0940ce	0.13403627
110	0xbd764948	-0.06012848
111	0x3e71ff07	0.23632441
112	0x3d28355e	0.04106652
113	0x3de43fc2	0.11144973
114	0x3dc4106e	0.09573446
115	0x3e1c150f	0.15242408
116	0x3b9bd0f3	0.0047551333
117	0x3d07d025	0.033157486
118	0xbd862e82	-0.065518394
119	0xbe8d9ddd	-0.27659503
120	0xbe093726	-0.13399944
121	0xbdc447fb	-0.09584042
122	0xbae74749	-0.0017645146
123	0x3db84d77	0.0899915
124	0xbe2ce3c1	-0.16883756
125	0x3d851dc8	0.06499821
126	0x3db09004	0.08621219
127	0x3d9db26c	0.07700047
128	0x3e3b4298	0.18287122
129	0x3e351f92	0.17687824
130	0xbe2b31f6	-0.16718277
131	0x3e4af39c	0.19819492
132	0xbdb58682	-0.08863546
133	0xbec7f8a3	-0.39056882
134	0x3e30f648	0.17281449
135	0x3dd2f591	0.10300744
136	0x3e4065de	0.18788859
137	0xbd0b70b6	-0.034043036
138	0x3d61ce37	0.055128302
139	0xbe1a6563	-0.15077738
140	0x3e26626b	0.16248481
141	0xbd40c2dd	-0.047060836
142	0xbc787a55	-0.015165885
143	0xbc95992c	-0.018261515
144	0x3de3c569	0.111216374
145	0xbe6ee2d1	-0.23328711
146	0xbd5ea5c7	-0.054357316
147	0xbdf34d84	-0.11880019
148	0xbe854211	-0.26026967
149	0x3da2aa84	0.079426795
150	0xbd961f29	-0.07330162
151	0x3c42fcc0	0.011901081
152	0xbded77aa	-0.1159509
153	0x3c6c7235	0.014431526
154	0xbdbfaabe	-0.09358738
155	0xbe05d93c	-0.1307115
156	0x3da28c40	0.07936907
157	0xbdfd066d	-0.12354741
158	0x3da129d3	0.078693055
159	0xbcf673aa	-0.03008445
160	0xbd83acad	-0.0642942
161	0x3d73b2eb	0.0594968
162	0x3e057d9d	0.13036199
163	0xbd8d15bb	-0.068889104
164	0x3e0b9127	0.1362959
165	0xbdf3aaf5	-0.11897842
166	0xbda1cbd2	-0.07900204
167	0xbdbdca4c	-0.09267101
168	0xbd99da11	-0.07512296
169	0xbdb590a3	-0.08865478
170	0xbc0785b6	-0.008271625
171	0x3ca47885	0.020077
172	0x3e1f0a4f	0.15531276
173	0xbe3c5f63	-0.18395762
174	0x3e8339d8	0.2563007
175	0x3e9de0c0	0.30835533
176	0xbb75c826	-0.003750333
177	0xbd5e6b64	-0.054301634
178	0xbdf5eb7d	-0.120078065
179	0x3b3575b5	0.0027688567
180	0x3df0dec1	0.11761237
181	0x3e4730ba	0.19452181
182	0x3e14f191	0.14545275
183	0xbe439cee	-0.19102833
184	0x3d1ab763	0.037772547
185	0x3ddd236e	0.10797773
186	0x3e7ff360	0.24995184
187	0xbc9dd1ec	-0.019265138
188	0xbd888760	-0.06666446
189	0x3e81fbee	0.2538752
190	0xbe1ed2a2	-0.15510038
191	0x3d7dbaa8	0.061945587
192	0x3de430fe	0.11142157
193	0x3ddcc209	0.10779197
194	0x3d8fe191	0.07025445
195	0xbd72864c	-0.059210107
196	0xbdfd8e70	-0.123806834
197	0x3e4850a9	0.1956202
198	0xbd84f586	-0.064921424
199	0x3c5ff497	0.013669155
200	0xbdb1c81e	-0.086807474
201	0x3ad1ff33	0.001602149
202	0xbe557e96	-0.2084907
203	0xbc4ae825	-0.012384449
204	0x3c2aca37	0.010424188
205	0x3de36b2f	0.11104428
206	0xbd1cb4da	-0.03825841
207	0xbe0ca096	-0.13733134
208	0xbd080877	-0.033211198
209	0x3e934be5	0.2876884
210	0xbcfc3fc9	-0.030792134
211	0x3e8693eb	0.26284727
212	0x3dd7b5f5	0.105327524
213	0xbe458730	-0.19289851
214	0xbd195a83	-0.037439834
215	0x3d4996d9	0.049216125
216	0x3aebb40a	0.0017982733
217	0x3e62fdb7	0.22167097
218	0x3cf7e5d5	0.03026096
219	0xbe0a763d	-0.13521667
220	0x3dfa517d	0.12222574
221	0x3e30902b	0.17242496
222	0xbde0ea27	-0.10982161
223	0x3e6d3d9d	0.23168035
224	0xbe027ffb	-0.12744133
225	0x3c942ffc	0.018089287
226	0x3e3d6ddb	0.18498938
227	0x3d94c70d	0.072645284
228	0x3d46ea37	0.04856321
229	0x3dd1cbf4	0.10243979
230	0x3cfb3a85	0.030667553
231	0x3e7b9b63	0.24570994
232	0x3e38f30a	0.18061462
233	0xbe3080e6	-0.17236671
234	0x3e8ae523	0.27127942
235	0xbe170013	-0.14746122
236	0x3d4da8e8	0.05020991
237	0xbd8ddf98	-0.06927413
238	0xbed11e71	-0.40843537
239	0xbdc27e4b	-0.09496745
240	0x3df71808	0.120651305
241	0x3e278ca6	0.16362247
242	0x3e4ea22e	0.20179054
243	0xbd9679bf	-0.0734744
244	0xbe8d475f	-0.27593514
245	0x3cd65b9f	0.026166735
246	0xbd7ef14b	-0.062241834
247	0x3e3ffe3e	0.1874933
248	0xbd482578	-0.048863858
249	0xbe0de6df	-0.13857602
250	0xbde5f3bc	-0.11228129
251	0x3bebb052	0.00719265
252	0x3d8377e4	0.06419352
253	0xbbc202ac	-0.0059207287
254	0x3dc899b5	0.09794942
255	0x3bf7d6a6	0.00756343

gat1.norm.weight f4 [128]
0	0x3f65b5b1	0.89730364
1	0x3f7ac055	0.97949725
2	0x3f72460a	0.9463812
3	0x3f708752	0.9395648
4	0x3f5cd62b	0.86264294
5	0x3f7ce48e	0.98786247
6	0x3f775778	0.9661784
7	0x3f8640ac	1.0488486
8	0x3f567e39	0.8378635
9	0x3f5fb277	0.8738169
10	0x3f73e217	0.9526686
11	0x3f89fe46	1.0780723
12	0x3f6b9d2d	0.92036706
13	0x3f8fb3a3	1.1226696
14	0x3f7a9e20	0.9789753
15	0x3f4b72a6	0.79471815
16	0x3f943ab1	1.1580411
17	0x3f6dd65b	0.92905205
18	0x3f986c71	1.1908094
19	0x3f846c29	1.0345508
20	0x3f7976af	0.9744672
21	0x3f76570f	0.9622659
22	0x3f581773	0.8441078
23	0x3f6728b7	0.902965
24	0x3f5e042a	0.86725104
25	0x3f6117ad	0.8792675
26	0x3f6c5dfd	0.92330915
27	0x3f5d2f18	0.86399984
28	0x3f4dba2f	0.8036222
29	0x3f7002af	0.93754095
30	0x3f7d934e	0.99052894
31	0x3f8b7ae2	1.0896876
32	0x3f93d481	1.1549226
33	0x3f5c6015	0.8608411
34	0x3f4881e5	0.78323203
35	0x3f644102	0.89161694
36	0x3f9a7147	1.206582
37	0x3f37c085	0.71778136
38	0x3f7004c4	0.9375727
39	0x3f280957	0.6563925
40	0x3f338cca	0.701367
41	0x3f7402b4	0.95316625
42	0x3f5c544f	0.86066145
43	0x3f52c776	0.82335603
44	0x3f8c6eaa	1.0971272
45	0x3f607e12	0.8769237
46	0x3f97fb61	1.187359
47	0x3fa34e72	1.2758315
48	0x3f6f7f64	0.9355376
49	0x3f85d279	1.0454856
50	0x3f7f019f	0.9961185
51	0x3f5166d0	0.81797504
52	0x3f5fc96f	0.8741674
53	0x3f5108ec	0.8165424
54	0x3f4c0dee	0.79708755
55	0x3f9f72a3	1.2456859
56	0x3f387222	0.7204915
57	0x3f39c7c5	0.7257045
58	0x3f69bf0b	0.91307133
59	0x3f51d2b0	0.8196211
60	0x3f7cd92e	0.9876889
61	0x3f35aa14	0.70962644
62	0x3f843664	1.0329099
63	0x3f51ffa4	0.820307
64	0x3f8168b0	1.0110073
65	0x3f8e3e7b	1.1112818
66	0x3f526ed8	0.82200384
67	0x3f6b116e	0.9182347
68	0x3f98ebb1	1.1946927
69	0x3f60573f	0.87633127
70	0x3f5dd0b2	0.8664657
71	0x3f859d02	1.043854
72	0x3f80517e	1.002487
73	0x3f5088fc	0.8145902
74	0x3f83f6f5	1.030974
75	0x3f546726	0.8296989
76	0x3f68e82d	0.9097927
77	0x3f54a286	0.8306049
78	0x3f800226	1.0000656
79	0x3f34cb81	0.7062302
80	0x3f928381	1.1446382
81	0x3f41ee02	0.75753796
82	0x3f748fdb	0.95532006
83	0x3f5cceb2	0.8625289
84	0x3f855f0f	1.0419635
85	0x3f72ac50	0.9479418
86	0x3f857063	1.0424923
87	0x3f7045b8	0.9385638
88	0x3f510752	0.81651795
89	0x3f58da37	0.8470797
90	0x3f4612dd	0.77372533
91	0x3f8cee90	1.1010303
92	0x3f70e6a0	0.94101906
93	0x3f58cc02	0.8468629
94	0x3f426364	0.7593291
95	0x3f7476de	0.95493877
96	0x3f8c2e9d	1.0951725
97	0x3f93ac65	1.1536986
98	0x3f81f3ed	1.0152565
99	0x3f92cdbd	1.1469036
100	0x3f9c3c11	1.2205831
101	0x3f90a465	1.1300169
102	0x3f8a519d	1.0806156
103	0x3f84d9a2	1.0378916
104	0x3f8ca53b	1.0987924
105	0x3f92b2f2	1.146086
106	0x3f86e78b	1.0539411
107	0x3fa954e7	1.3229035
108	0x3f93bbbe	1.1541669
109	0x3f86edac	1.0541282
110	0x3f82f769	1.0231754
111	0x3f91c1f3	1.1387314
112	0x3f761ffb	0.9614255
113	0x3f873fbf	1.0566329
114	0x3f7ecf81	0.99535376
115	0x3f96d98d	1.1785141
116	0x3f7cba5d	0.9872187
117	0x3f880287	1.0625771
118	0x3f74fb41	0.95695883
119	0x3f7c5ed9	0.98582226
120	0x3f892592	1.071459
121	0x3f963605	1.1735235
122	0x3f897a64	1.0740476
123	0x3f5f79e3	0.8729536
124	0x3f91eb19	1.1399871
125	0x3f805162	1.0024836
126	0x3f8dc170	1.1074657
127	0x3f7d4c15	0.98944217

gat1.norm.bias f4 [128]
0	0xbdde7c5e	-0.10863565
1	0xbd8736a6	-0.0660222
2	0xbd926f51	-0.07150138
3	0xbe1093c4	-0.14118868
4	0xbe310dce	-0.17290422
5	0xbd6992ad	-0.057024647
6	0xbdcfb65e	-0.10142206
7	0xbdcacb6b	-0.0990208
8	0xbe3ae41f	-0.18251084
9	0xbcd30c0a	-0.025762577
10	0xbd1906da	-0.03736005
11	0xbd3bd800	-0.04586029
12	0xbd7ed549	-0.062215123
13	0xbcb79c52	-0.022413407
14	0xbe19a9a9	-0.15006126
15	0xbde7087c	-0.11280915
16	0x3a16646d	0.00057370105
17	0xbde840b3	-0.113404654
18	0xbdb12f59	-0.08651609
19	0xbde79ab7	-0.113088064
20	0xbdcb7beb	-0.09935745
21	0xbb885089	-0.004159991
22	0xbe3fee2e	-0.18743202
23	0xbd985647	-0.07438331
24	0xbe141f6f	-0.14465116
25	0xbde06e3b	-0.10958525
26	0xbe512bae	-0.20426819
27	0xbe0363ea	-0.12831083
28	0xbe4e419c	-0.20142215
29	0xbe2ef2c0	-0.1708479
30	0xbe1e8324	-0.15479714
31	0xbd17719e	-0.03697359
32	0xbcfaebb3	-0.030629968
33	0xbe114010	-0.14184594
34	0xbdcf3528	-0.101175606
35	0xbdc229f5	-0.09480659
36	0xbcaa4d52	-0.020788822
37	0xbe5e621d	-0.21717115
38	0xbd5dad17	-0.05412015
39	0xbe5b11f9	-0.21393575
40	0xbe47abda	-0.1949915
41	0xbdd178ce	-0.1022812
42	0xbe0dceea	-0.13848463
43	0xbe4398f3	-0.19101314
44	0xbc22f1e7	-0.009945369
45	0xbe248d59	-0.16069545
46	0x3c7065a1	0.014672668
47	0x3b9f661e	0.0048644682
48	0xbdec864d	-0.11549053
49	0xbe011cf8	-0.12608707
50	0xbd9dc2f7	-0.07703202
51	0xbe1ca27a	-0.15296355
52	0xbdfb1073	-0.12258997
53	0xbe13bcab	-0.1442744
54	0xbe23d768	-0.1600014
55	0x3ca0b6db	0.019618442
56	0xbe1d17fe	-0.15341184
57	0xbe3dab24	-0.18522316
58	0xbe049ca2	-0.12950376
59	0xbe19a507	-0.15004359
60	0xbe0d60db	-0.13806479
61	0xbe649d49	-0.22325625
62	0xbdab350e	-0.08359729
63	0xbde1b4ba	-0.11020799
64	0xbd2c5ed0	-0.042082608
65	0xbd1d55c2	-0.038411863
66	0xbdfbec30	-0.123009086
67	0xbd47c5e0	-0.048772693
68	0xbddfabcb	-0.10921439
69	0xbe0a3464	-0.13496548
70	0xbe4527c8	-0.19253457
71	0xbdd15169	-0.10220606
72	0xbc07c15b	-0.008285846
73	0xbe1d1206	-0.15338907
74	0xbcc267d6	-0.023731153
75	0xbe2e1ec1	-0.17003919
76	0xbe0cf585	-0.13765533
77	0xbe2ddb14	-0.16978103
78	0xbddff5c5	-0.10935549
79	0xbe305239	-0.17218865
80	0xbc9c9e34	-0.019118406
81	0xbe298c30	-0.16557384
82	0xbdcdd67b	-0.100506745
83	0xbdab3bd4	-0.08361021
84	0xbd526690	-0.051367342
85	0xbdcb5511	-0.099283345
86	0xbc092ffe	-0.008373259
87	0xbd290b25	-0.041270394
88	0xbe24a22f	-0.16077493
89	0xbe289fb1	-0.16467167
90	0xbe598065	-0.21240385
91	0xbbd199df	-0.0063965167
92	0xbe12761d	-0.14302869
93	0xbe21863d	-0.15773864
94	0xbe8aef55	-0.2713572
95	0xbdd24725	-0.10267476
96	0x3cae3beb	0.021268805
97	0x3c517919	0.01278522
98	0x3d2b0edf	0.04176223
99	0xbd70cec8	-0.058790952
100	0xbe519248	-0.20465958
101	0xbe08843a	-0.1333169
102	0x3c8a138d	0.016855026
103	0xbd427849	-0.047477994
104	0x3b28c02d	0.0025749311
105	0xbd95316d	-0.07284818
106	0xbc045726	-0.008077418
107	0xbe67ee44	-0.22649485
108	0xbd953ed4	-0.07287374
109	0xbc3a78dd	-0.011381355
110	0xbd3b2737	-0.045691695
111	0xbc8dd597	-0.017313762
112	0xbdcab046	-0.09896903
113	0xbc87b71b	-0.016566804
114	0xbc8dd736	-0.017314535
115	0xbea654a0	-0.3248644
116	0xbcba870e	-0.022769477
117	0xbe22d9de	-0.15903422
118	0xbd9d4359	-0.07678861
119	0xbd414184	-0.04718162
120	0xbccb73a7	-0.02483542
121	0xbc48e5b3	-0.012261796
122	0xbceec8d9	-0.029148506
123	0xbd98d427	-0.0746234
124	0xbd634126	-0.055482052
125	0xbcda8dfd	-0.026679033
126	0x3c2e8423	0.010651621
127	0xbdd575e6	-0.10422878

gat2.gat.att_src f4 [1, 4, 32]
0	0x3d28b338	0.04118654
1	0xbe4e9764	-0.20174938
2	0x3e418157	0.18896995
3	0xbe8d57cf	-0.27606055
4	0x3eaa6cf5	0.33286253
5	0xbe3acad4	-0.18241435
6	0x3cde9a6f	0.027173249
7	0xbec54d7b	-0.38535675
8	0x3efcee31	0.49400476
9	0x3ec3d693	0.38249645
10	0xbd49fb45	-0.049311895
11	0x3ea68543	0.32523546
12	0x3e485cd0	0.19566655
13	0x3e751ca1	0.23936702
14	0xbf0f1d51	-0.5590411
15	0x3e80453e	0.25052828
16	0x3e81b584	0.25333798
17	0x3d1b8568	0.037969023
18	0xbec404e9	-0.38284996
19	0x3eebc7d4	0.46050894
20	0x3e310e5e	0.17290637
21	0x3ec0ff57	0.3769481
22	0x3ed4b282	0.4154244
23	0xbe24aac9	-0.16080774
24	0xbdef822c	-0.1169475
25	0xbe97756d	-0.29581776
26	0x3e0a4cb2	0.1350582
27	0xbe6ce66a	-0.23134771
28	0x3d9d8ce0	0.076928854
29	0xbe2e1bfc	-0.17002863
30	0xbe18ccbb	-0.14921848
31	0xbe8f5165	-0.27991787
32	0x3d698e74	0.05702062
33	0x3ec39f48	0.3820746
34	0xbddf92b0	-0.1091665
35	0xbdb22b7a	-0.08699699
36	0x3e41e7cc	0.1893608
37	0x3ef184ba	0.47171575
38	0xbe99e5a3	-0.3005801
39	0xbe92a686	-0.28642672
40	0xbe5a2f22	-0.21307042
41	0x3ef90a22	0.48640543
42	0xbc16dd85	-0.009208088
43	0x3c9efc49	0.019407408
44	0x3d9bd16b	0.07608303
45	0x3df12c6b	0.1177605
46	0xbc3adc18	-0.0114050135
47	0x3e538325	0.20655496
48	0x3cdea540	0.027178407
49	0x3e6d48d6	0.23172316
50	0x3eb073e2	0.34463412
51	0x3e9aeb03	0.30257425
52	0x39a5e1ed	0.0003163958
53	0xbf0880d2	-0.53321564
54	0x3ec34bbf	0.38143727
55	0x3e3c112e	0.18365929
56	0x3e8c55cb	0.27409205
57	0x3eb7e39d	0.35915843
58	0xbed97e0b	-0.42478976
59	0xbe2c6229	-0.1683432
60	0x3cb2be83	0.021819359
61	0x3de26b2e	0.11055599
62	0xbe55bded	-0.20873232
63	0xbe760770	-0.24026275
64	0x3e292386	0.16517457
65	0x3e19f11d	0.15033384
66	0xbd2b5192	-0.04182584
67	0xbda9fffb	-0.083007775
68	0xbe3c4150	-0.1838429
69	0x3ecc2d77	0.39878437
70	0xbf0e656a	-0.55623496
71	0xbe644673	-0.22292499
72	0x3c102e91	0.008800165
73	0x3e60f03a	0.21966639
74	0xbea426b5	-0.3206078
75	0x3ddbe7e3	0.10737588
76	0xbe40aab1	-0.18815114
77	0x3ed4cc51	0.4156213
78	0xbe8fdf3e	-0.28100008
79	0x3e37e918	0.17960012
80	0xbdacd028	-0.0843814
81	0x3dfe01b0	0.124026656
82	0x3dd3adc1	0.10335875
83	0xbefc8bf0	-0.49325514
84	0x3e8bbbe6	0.27291793
85	0xbe9e08e6	-0.30866164
86	0x3dce552d	0.1007484
87	0x3d48f34a	0.049060144
88	0xbe0d543b	-0.13801663
89	0x3e72f70d	0.23727055
90	0xbe22db09	-0.15903868
91	0xbe93b272	-0.2884708
92	0x3cd7c6e1	0.02633995
93	0x3e60f431	0.21968152
94	0xbde046be	-0.10950993
95	0x3dd3f6dc	0.10349819
96	0x3e8ab721	0.2709284
97	0x3eb39015	0.35070863
98	0xbd169fad	-0.036773372
99	0x3d0e326e	0.034716062
100	0x3d98742a	0.074440315
101	0xbe12b82f	-0.14328073
102	0xbe113de9	-0.14183773
103	0x3e789b2e	0.24277946
104	0x3ea115f1	0.31462052
105	0x3d1b1616	0.03786286
106	0xbe88b1dd	-0.266982
107	0x3f20b7cb	0.62780446
108	0x3ee43dbc	0.4457835
109	0xbce150bf	-0.027504323
110	0x3e795096	0.24347147
111	0x3d7d1d1f	0.06179535
112	0xbf02c36f	-0.5107946
113	0xbe618373	-0.220228
114	0x3d4658f6	0.048424684
115	0xbee9151d	-0.4552392
116	0xbe367ac5	-0.1782027
117	0xbdaa84f8	-0.08326143
118	0xbe796775	-0.24355872
119	0xbead59ff	-0.33857724
120	0xbec93712	-0.39299828
121	0xbf1ad251	-0.6047717
122	0x3c7a7ef9	0.015289062
123	0xbdd20c38	-0.10256237
124	0x3ea95b31	0.33077386
125	0x3e141bce	0.14463732
126	0xbeb03200	-0.34413147
127	0xbe9278e8	-0.2860787

gat2.gat.att_dst f4 [1, 4, 32]
0	0xbe5bb85c	-0.21457046
1	0x3e4a04b5	0.19728358
2	0x3eaba386	0.33523196
3	0xbe9db4ad	-0.30801907
4	0x3e9d365a	0.3070553
5	0xbeea119b	-0.45716557
6	0xbd341bed	-0.043971945
7	0x3eefc08f	0.46826598
8	0x3ea70045	0.32617393
9	0xbec62aae	-0.38704437
10	0xbe9dba59	-0.30806234
11	0x3e1f1525	0.1553541
12	0xbe1384a2	-0.14406064
13	0xbd9dbc8d	-0.07701979
14	0xbe7e1178	-0.24811351
15	0x3d83fad3	0.06444325
16	0xbdeb85c7	-0.115001254
17	0xbe156469	-0.14589085
18	0x3df81667	0.12113648
19	0x3e2cf30a	0.16889587
20	0xbe43b6f3	-0.19112758
21	0xbdcc04dd	-0.09961865
22	0x3e50c6e2	0.20388368
23	0x3eda4d1c	0.42636955
24	0xbdd4f7b4	-0.10398808
25	0x3ea8b847	0.32953092
26	0xbeb64009	-0.3559573
27	0x3e04b76a	0.12960592
28	0x3e8a56b1	0.27019265
29	0xbe17fe5e	-0.14843127
30	0xbd93a202	-0.07208635
31	0xbec46419	-0.38357618
32	0x3d6d382e	0.057914905
33	0x3dd42408	0.10358435
34	0xbeefaec4	-0.46813023
35	0xbcfe7e1b	-0.031065991
36	0x3e83b5d5	0.25724664
37	0xbe17fe6c	-0.14843148
38	0xbe8ad3d6	-0.27114743
39	0x3e9b1009	0.3028567
40	0x3d7a4d78	0.061109036
41	0xbeed0d56	-0.46299237
42	0x3e20b8fe	0.15695569
43	0x3da5de10	0.08098996
44	0xbe70c66f	-0.23513196
45	0x3eedf618	0.46476817
46	0xbeb4a155	-0.35279337
47	0xbeb3564f	-0.35026786
48	0x3e0d26c9	0.13784327
49	0xbd2b49c4	-0.041818395
50	0x3e9364a6	0.28787726
51	0x3e27a854	0.16372806
52	0xbe3fc656	-0.18728003
53	0xbe3fe60a	-0.18740097
54	0xbbf4d971	-0.00747221
55	0xbe9308f0	-0.28717756
56	0x3efdf9ca	0.49604636
57	0xbdfc4967	-0.12318688
58	0x3ea93f1c	0.3305596
59	0x3e20d41d	0.15705915
60	0x3e09efc4	0.1347037
61	0xbf0fd21f	-0.56179994
62	0xbee2139c	-0.44155586
63	0xbd504bb5	-0.05085345
64	0x3ed52955	0.41633096
65	0x3e242797	0.16030727
66	0xbea49ef2	-0.32152516
67	0xbf0d92d5	-0.5530217
68	0xbc57420a	-0.0131383035
69	0xbdce43c7	-0.10071521
70	0x3e1eadd9	0.15496005
71	0xbddd2838	-0.10798687
72	0xbee179fb	-0.44038376
73	0x3eb326b1	0.34990457
74	0x3ea49d28	0.3215115
75	0xbe56c5c8	-0.20973885
76	0x3d887ca4	0.06664398
77	0xbe40ff91	-0.18847491
78	0x3e6e2bb8	0.23258865
79	0xbec895da	-0.39176828
80	0x3c02ec1a	0.007990861
81	0xbe2b631a	-0.16737023
82	0x3e869b3a	0.26290303
83	0xbec35cc8	-0.38156724
84	0x3d9ea3d3	0.07746091
85	0x3dfefec2	0.12450935
86	0x3eb95932	0.36200863
87	0x3d1d2273	0.03836293
88	0xbe67d917	-0.22641407
89	0x3e7ef222	0.24897054
90	0x3e3cc805	0.18435676
91	0x3ee2005d	0.44140902
92	0x3e8e9edd	0.27855578
93	0xbe9bbe9f	-0.3041887
94	0xbccdf107	-0.025139345
95	0xbec33a1d	-0.38130274
96	0x3e59517b	0.21222489
97	0xbe25e68c	-0.16201228
98	0x3e587f7e	0.21142384
99	0x3f0d41dd	0.55178624
100	0xbe20cdb2	-0.15703467
101	0xbda9370a	-0.08262451
102	0xbde5406f	-0.1119393
103	0xbe442b60	-0.19157171
104	0xbedc875e	-0.43072027
105	0x3e7d25cb	0.24721448
106	0x3e7b7490	0.24556184
107	0x3e51e178	0.20496166
108	0xbe9f0324	-0.31057084
109	0x3e9ba64e	0.30400318
110	0xbf056daf	-0.5212049
111	0x3e6644da	0.22487202
112	0xbe379856	-0.17929205
113	0xbdf0a18f	-0.11749565
114	0xbe908916	-0.28229588
115	0x3dba14e1	0.090860136
116	0x3da44e2f	0.08022725
117	0x3db21aea	0.0869654
118	0xbee824ee	-0.45340675
119	0x3d64de01	0.055875782
120	0xbe9f173f	-0.31072423
121	0xbd5ceabe	-0.053934805
122	0x3eb5eee6	0.35533828
123	0x3e297d94	0.1655181
124	0xbe33ff6b	-0.17577903
125	0xbe901a52	-0.2814508
126	0x3ca89b53	0.020581877
127	0x3eb71373	0.35757026

gat2.gat.bias f4 [128]
0	0x3b11f990	0.0022273995
1	0xbc281dc4	-0.010261003
2	0x3d87d410	0.066322446
3	0x3db7ad89	0.08968646
4	0xbd4f4842	-0.05060602
5	0x3c28eacf	0.010309889
6	0x3d1bcc03	0.038036358
7	0xbcc11059	-0.023567365
8	0xbdc7e127	-0.09759741
9	0xbcb6af8c	-0.022300504
10	0x3d3556d3	0.044272255
11	0xbcf55527	-0.02994783
12	0x3b964449	0.004585777
13	0xbd0fb864	-0.035087958
14	0x3e19be1c	0.15013927
15	0x3bde7c9d	0.0067897574
16	0x3be9dc48	0.0071368553
17	0xbd476f69	-0.048690233
18	0x3ab826fa	0.0014049702
19	0xbcb26755	-0.021777788
20	0xbc48a8e2	-0.012247296
21	0x3cc885c9	0.024477856
22	0x3d45f4fa	0.04832933
23	0xbcdc40ec	-0.026886426
24	0xbc42284c	-0.011850428
25	0xbd1c6122	-0.03817857
26	0x3d50f0a8	0.051010758
27	0x3cbed626	0.023295473
28	0x3d5a29a9	0.053262386
29	0x3d83d4e0	0.06437087
30	0x3c9e4871	0.019321652
31	0xbbd23ece	-0.0064161783
32	0x3c8e5e9d	0.0173791
33	0xbc16e435	-0.009209682
34	0xbc1c0091	-0.009521619
35	0x3c443c72	0.011977302
36	0xbcd33790	-0.02578333
37	0xbbf3420a	-0.007423644
38	0x3d28fadd	0.041254867
39	0x3cf85960	0.030316055
40	0x3c302eaa	0.010753313
41	0x3b7a14c7	0.0038159357
42	0xbd8c3eaa	-0.0684789
43	0xbcfe3585	-0.03103138
44	0x3cd95372	0.026529048
45	0x3c676bf1	0.014124856
46	0x3cd94d33	0.02652607
47	0x3cd73de7	0.026274635
48	0x3ccefb65	0.025266359
49	0xbc876bc9	-0.016530888
50	0xbb2a0750	-0.00259443
51	0xbcae6d7b	-0.021292439
52	0x3d13537b	0.035968285
53	0x3d12ca6a	0.03583757
54	0xbcc2667c	-0.023730509
55	0x3d2e7a76	0.042597257
56	0xbc93e11f	-0.018051682
57	0xbc30ca6d	-0.01079045
58	0x3ce5f0df	0.028068958
59	0x3c34ca44	0.011034552
60	0x3d466fe5	0.048446555
61	0x3c2dfaf2	0.010618912
62	0x3d2dfe85	0.042479057
63	0x3d3f51ce	0.046708874
64	0xbd1524f0	-0.03641218
65	0xbc837b1a	-0.01604991
66	0x3d167515	0.036732752
67	0x3df9cfaf	0.121978156
68	0x3d629f74	0.055327848
69	0xbc8eb063	-0.017418092
70	0xbc7277fd	-0.014799115
71	0x3cd5be2f	0.026091663
72	0x3dca3356	0.09873073
73	0xbd0be9b5	-0.034158427
74	0x3c92816d	0.01788398
75	0xba9b7c7a	-0.0011862658
76	0x3cf41902	0.02979708
77	0xbd9657b8	-0.0734095
78	0x3c247fd8	0.010040246
79	0x3c9def6a	0.0192792
80	0x3c5b7119	0.013393664
81	0xbba49032	-0.0050220722
82	0xbbc4b7d2	-0.0060033584
83	0x3d9d4d1e	0.076807246
84	0xbd700f3f	-0.05860829
85	0x3b9377ca	0.004500364
86	0xbca6dafa	-0.020368088
87	0xbd237023	-0.039901864
88	0x3b5b03e8	0.0033419076
89	0x3a2fabac	0.00067013013
90	0x3da0cebb	0.07851931
91	0x3cdbd13d	0.026833171
92	0x3c6da9a6	0.014505779
93	0x3d0e6179	0.034760926
94	0x3d1a7c73	0.03771634
95	0x3c3450a0	0.011005551
96	0xbcd91fac	-0.02650436
97	0xbcce645d	-0.025194341
98	0xbbeaa463	-0.0071607097
99	0x3cf6bafa	0.030118454
100	0x3d1aa627	0.03775611
101	0x3c1ac90a	0.0094473455
102	0x3cc6daa3	0.024274176
103	0xbc19e5b2	-0.009393143
104	0xbccdd5a1	-0.02512628
105	0xb85a234f	-5.2008134e-05
106	0xbb36a02e	-0.002786647
107	0xbc44e612	-0.012017744
108	0xbca1e737	-0.019763572
109	0x3c913cae	0.01772913
110	0x3d54693d	0.051858176
111	0x3ce8fbe5	0.028440425
112	0x3d2b1add	0.041773666
113	0x3d1f3490	0.038868487
114	0x3d2a6a66	0.041605376
115	0x3c2781de	0.010223834
116	0x3b6830c6	0.0035429462
117	0x3c94a703	0.018146044
118	0x3d236fb1	0.03990144
119	0x3d4002bb	0.046877604
120	0x3da8160b	0.08207329
121	0x3dd05cf0	0.101739764
122	0xbd6353c7	-0.05549982
123	0xbbd7e9eb	-0.0065891645
124	0xbcb8f5be	-0.022578117
125	0x3cde5644	0.027140744
126	0x3c9f3edd	0.019439155
127	0x3ad33565	0.0016113935

gat2.gat.lin.weight f4 [128, 128]
0	0x3ddadeb9	0.10687012
1	0x3dbdaa55	0.09261004
2	0x3d26c3c7	0.04071405
3	0xbdbab1e6	-0.09115963
4	0xbd025f66	-0.03182926
5	0xbd8cd665	-0.0687683
6	0x3df69337	0.12039798
7	0xbca30bcb	-0.019903084
8	0xbda5ec68	-0.081017315
9	0x3de7b580	0.11313915
10	0x3d8fb23b	0.07016417
11	0xbd1234c5	-0.035694856
12	0x3de07cfd	0.109613396
13	0xbd78409c	-0.06060849
14	0x3d9f0123	0.07763889
15	0xbd0dbb9f	-0.034602758
16	0xbddf7a76	-0.109120294
17	0xbdd6420a	-0.10461815
18	0x3dbabbd7	0.09117859
19	0xbaa264bc	-0.001238964
20	0xbe2619b1	-0.16220738
21	0xbe38508b	-0.17999475
22	0xbe6a2374	-0.22865087
23	0x3dc9df6a	0.09857066
24	0x3c89f64e	0.01684108
25	0x3c981619	0.018565224
26	0x3d2e6ea0	0.04258597
27	0xbe58159d	-0.21101995
28	0x3d23abb0	0.039958656
29	0xbd06096c	-0.03272383
30	0xbd934954	-0.071917206
31	0xbd2132ee	-0.03935521
32	0x3e3fcde8	0.18730891
33	0x3c108de2	0.00882289
34	0x3ad9b562	0.0016609842
35	0x3a089e21	0.00052115513
36	0x3e50f25f	0.20404957
37	0xbb637c04	-0.003471137
38	0x3db09228	0.08621627
39	0xbcd0c7a6	-0.025485825
40	0x3e2ca2be	0.16858956
41	0xbd2e6f6d	-0.042586733
42	0x3ddaa393	0.106757306
43	0xbd307568	-0.043080717
44	0xbe971b1b	-0.29512867
45	0x3e35b690	0.17745423
46	0xbca5aabd	-0.020223016
47	0x3c739104	0.014866117
48	0xbcd5c7f3	-0.02609632
49	0x3e4dc5dc	0.20095009
50	0xbd47830c	-0.04870896
51	0xbdaa1b53	-0.08305993
52	0xbb9dfd02	-0.0048214206
53	0xbc9b37af	-0.01894745
54	0xbcffe6de	-0.031238016
55	0x3d39a913	0.045327257
56	0x3e4dda81	0.20102884
57	0x3e04e552	0.12978104
58	0x3dad5ed1	0.084653504
59	0xbc890c11	-0.016729387
60	0x3997e7ae	0.0002897358
61	0xbe1ad522	-0.15120366
62	0xbd597cf9	-0.0530977
63	0xbdddc04e	-0.10827695
64	0xbe48b047	-0.19598494
65	0xbe45d579	-0.19319715
66	0x3e46d9d9	0.1941904
67	0xbdc2afe8	-0.09506208
68	0x3d98779e	0.0744469
69	0xbd90074a	-0.0703264
70	0x3d2d702d	0.042343307
71	0x3e534e17	0.20635258
72	0x3cf52a92	0.029927526
73	0x3d7bf39c	0.06151162
74	0xbdb45923	-0.08806064
75	0xbe356f84	-0.17718321
76	0xbe4e72cf	-0.20160984
77	0x3e016961	0.12637855
78	0xbdfa2935	-0.12214891
79	0xbd73a100	-0.059479713
80	0xbd4b3336	-0.049609385
81	0xbce269af	-0.027638284
82	0xbc4889a0	-0.012239844
83	0x3a2434fb	0.0006263998
84	0xbd4ed30c	-0.05049424
85	0xbe67e7ba	-0.2264699
86	0x3d07ad34	0.033124164
87	0x3dc2fdb2	0.09521045
88	0xbe185be7	-0.14878808
89	0x3e105c12	0.14097622
90	0x3d3f499c	0.04670106
91	0xbe22e052	-0.15905884
92	0xbc599c4c	-0.013281893
93	0xbd9fe33d	-0.07807014
94	0xbda79730	-0.081831336
95	0xbe1d75e7	-0.15377007
96	0xbc7b7625	-0.015347992
97	0x3e2250ad	0.15851088
98	0xbd9e7ca5	-0.07738618
99	0x3dc229c6	0.09480624
100	0x3e7ee2ef	0.24891256
101	0x3c609f06	0.013709789
102	0xbdcd3671	-0.100201495
103	0xbdf7ce88	-0.120999396
104	0x3a107768	0.0005510957
105	0xbd989a61	-0.074513204
106	0x3d43d03b	0.047806006
107	0x3d343103	0.043992054
108	0x3e55f4bd	0.20894141
109	0x3b7cd533	0.0038579225
110	0x3d38dddd	0.04513346
111	0xbe47c0b9	-0.19507112
112	0x3e5461ff	0.20740508
113	0xbe0e77c2	-0.13912871
114	0x3dc488d2	0.09596409
115	0xbd6b4aa1	-0.05744422
116	0x3db50b90	0.08840096
117	0xbccd2081	-0.025039913
118	0xbd5bbc31	-0.05364627
119	0x3d368df0	0.044568956
120	0x3dc0621f	0.09393715
121	0x3bacd78b	0.005274718
122	0xbdad2066	-0.08453445
123	0xbc81626c	-0.015794002
124	0xbd4bb3e7	-0.049732115
125	0xbd2eb882	-0.04265643
126	0xbe0a8627	-0.13527738
127	0xbc6704db	-0.014100279
128	0x3d98ee75	0.07467357
129	0x3d992dfe	0.074794754
130	0x3de98373	0.11402025
131	0x3e72cbf0	0.23710608
132	0xbd9ac5ce	-0.075572595
133	0xbde55a98	-0.1119892
134	0x3df74cc2	0.12075187
135	0x3ddb3ac2	0.107045665
136	0xbdf1d870	-0.1180886
137	0x3e115d9a	0.14195862
138	0x3e1f0370	0.15528655
139	0x3d8ca32b	0.06867059
140	0xbbd575ed	-0.006514302
141	0xbde55b6c	-0.11199078
142	0xbe60951c	-0.2193188
143	0x3dc812b0	0.09769189
144	0xba911850	-0.0011069868
145	0x3dbf0dcc	0.093288034
146	0xbe21f404	-0.15815741
147	0x3db04f61	0.0860889
148	0xbd6da613	-0.05801971
149	0x3b50b992	0.003184889
150	0x3c58c647	0.013230867
151	0x3d3c2d38	0.04594156
152	0x3d86a78f	0.06574928
153	0x3dc59661	0.09647823
154	0xbe6a1d65	-0.22862776
155	0xbe4072dd	-0.18793817
156	0x3e158f8d	0.14605542
157	0xbe154dbf	-0.14580439
158	0x3d86dde6	0.065852925
159	0x3d5f07b1	0.054450694
160	0x3dd3aefb	0.10336109
161	0x3dc89226	0.097935006
162	0xbcec19cb	-0.028820893
163	0xbdedcf8d	-0.11611853
164	0xbe0ae03f	-0.13562106
165	0xbe02ac26	-0.12760982
166	0xbe0fed8a	-0.14055458
167	0xbd9ebe2d	-0.07751117
168	0xbdd92571	-0.106028445
169	0x3d01a7c8	0.03165415
170	0xbd5fa164	-0.054597273
171	0x3d85a5f2	0.06525792
172	0xbda3465c	-0.07972404
173	0xbd3f61ff	-0.046724316
174	0x3b632f17	0.003466552
175	0x3c025fa7	0.007957376
176	0x3d016fd9	0.031600807
177	0xbcb5847c	-0.0221579
178	0xbd871d93	-0.06597438
179	0xbdc45053	-0.09585633
180	0x3e343f9e	0.17602393
181	0xbd8f319f	-0.06991886
182	0xbdef9708	-0.11698729
183	0x3d439705	0.047751445
184	0xbe6f47ed	-0.23367281
185	0xbd9e9a38	-0.07744259
186	0xbc34ffdc	-0.01104733
187	0xbde8b0c0	-0.113618374
188	0x3d868e4d	0.065701105
189	0x3df6a443	0.12043049
190	0xbd915a40	-0.07097292
191	0xbde98fa4	-0.114043504
192	0xbe1114df	-0.14168118
193	0xbd94fac6	-0.07274394
194	0x3d3990a4	0.045303956
195	0x3e120727	0.14260541
196	0xbe2b8042	-0.16748145
197	0xbe2fe051	-0.17175414
198	0xbd11a140	-0.03555417
199	0x3e0434f0	0.12910819
200	0xbd368daa	-0.044568695
201	0x3b86f259	0.0041182456
202	0xbd08360c	-0.033254668
203	0x3d2e62ae	0.042574577
204	0x3dafed5c	0.085901946
205	0x3d4ae241	0.04953218
206	0x3cd6aa33	0.026204204
207	0xbc39434f	-0.0113075515
208	0xbcfedda2	-0.031111542
209	0x3db66916	0.08906762
210	0x3c773c63	0.015090081
211	0x3db5a97d	0.08870218
212	0xbd6bece7	-0.057598975
213	0xbd3c14ab	-0.045918148
214	0x3cfcfedd	0.030883247
215	0xbd0aac12	-0.033855505
216	0xbd61643a	-0.055027224
217	0xbd8a3692	-0.0674869
218	0xbc0824af	-0.008309527
219	0x3dfe4ebf	0.124173634
220	0x3d6c961d	0.057760347
221	0x3dce3a86	0.10069756
222	0x3d8433ec	0.06455216
223	0x3df5d9d8	0.12004441
224	0x3db179b9	0.08665795
225	0x3e1068aa	0.14102426
226	0x3e0d2a54	0.13785678
227	0xbdbf198a	-0.09331043
228	0x3d25fe8b	0.040525954
229	0x3ce604df	0.028078495
230	0x3ddb03c9	0.10694081
231	0xbbccfa1c	-0.0062554013
232	0x3c9f2f74	0.019431807
233	0x3dc31d0f	0.09527027
234	0x3d90431b	0.07044049
235	0x3d89e4f8	0.067331254
236	0x3e473946	0.19455442
237	0x3b880d12	0.0041519487
238	0x3d0bbab5	0.034113605
239	0xbe43eee6	-0.19134101
240	0x3df08c95	0.11745564
241	0xbda0508f	-0.07827865
242	0xbdeb0060	-0.11474681
243	0xbe2f6336	-0.1712769
244	0x3e233fcc	0.15942305
245	0x3dd22297	0.10260504
246	0x3e0611e1	0.13092758
247	0xbe25d651	-0.16195036
248	0x3de64717	0.11244028
249	0xbe00800b	-0.12548845
250	0x3c399ed4	0.0113293715
251	0x3dbd9b06	0.09258084
252	0x3d668035	0.05627461
253	0x3e2be878	0.16787899
254	0xbe25437b	-0.16139023
255	0x3e18a636	0.14907154
