model_gcnn_v2/gcnn_v2_best.pt (torch, 623226 bytes, 40 tensors)

node_embed.weight f4 [64, 16]
00000000: 2580 61bc fa0a 2f3e f6b6 74be fb1b 583e
00000010: 5964 123b 216a a3be 5fca 473e be05 fd3d
00000020: 272e 8a3d 1862 4e3d 976b 74be 1281 6d3e
00000030: 15a4 c6bd 7c63 883e ffb8 223d caa7 06be
00000040: 472f 063e f931 6b3e ce78 513e f674 83bc
00000050: 1e14 e3bd b13b 193e f6cb 9ebd 5d0d 99be
00000060: 8602 f93d fe9d 36be f821 f43c 43c0 4ebd
00000070: c394 17be 77c7 5fbe 01a5 6dbe 5b5d a93d
00000080: d420 433e 7ea9 fbbd 9e73 87be 049b 9a3e
00000090: bd6c c53d d0f2 2e3e 2461 1f3d 4252 9fbe
000000a0: c1a9 8bbd 17d5 11be 8452 733d 40f5 413d
000000b0: a934 8b3c da17 8e3e f39d 283e a5e4 943e
000000c0: 2356 6d3e 0c59 5dbe 1e16 b2bd 5b71 46be
000000d0: 486f 4e3e a94b 4ebe ca89 5f3e 01ae 8dbe
000000e0: 3bb0 713e 1dbb 04be 8b63 09be 1745 643e
000000f0: 8fd4 833b f5a6 20bd cd58 123d e883 033e
00000100: d420 af3c 7308 e43d 1516 cf3d f6a1 233e
00000110: b4cc f93d 05a2 f4bd 6e80 44bd 5438 a83e
00000120: 6767 46bd 18b9 313d 3efd 053e d991 88be
00000130: d91b d4be 32f7 d3be 1e9e 793d 828d 8bbd
00000140: 6450 5a3e 8d41 0bba 693c 12be b50c 66be
00000150: 574c 10be 538f e43d 5f79 cfbe 85d1 babd
00000160: 1e0f 66be d9e0 423e 0bf7 093e 8ab5 be3d
00000170: 76d5 1a3e 790d b6bc 4807 bd3d de79 3e3e
00000180: a319 e43d 86d3 abbd f323 183d c4e9 853e
00000190: 3fa1 63be c017 3ebe 0918 bbbc aa53 d63e
000001a0: 551d 493e f6ab 6fbc dc74 aa3d 3783 9cbe
000001b0: 57db 15bd 8680 ccbe ad45 8bbe 693d 43be
000001c0: 8db3 35be 49db 7abe 9d59 8cbe 15a9 973e
000001d0: af65 10bc b162 683e a6d4 7f3e 28fe b63d
000001e0: b52a 083e 19f5 8fbd a54c f5bd 952f 203e
000001f0: 7fa3 2b3e 9f10 9bbd c100 4d3e c2a9 4a3e
00000200: 6022 ca3d 8238 d4bc aedb 873d b886 19be
00000210: 2be7 7bbd 089f 003e 1103 c7be 7989 3d3d
00000220: d007 0d3d d28d 8bbe 8d5c a23d b755 9dbd
00000230: f881 063d 0f03 bcbe c383 73be ee61 c3bd
00000240: ecd9 4abe 8bff 43be cfc9 473e 0006 d83d
00000250: 0865 78be d031 dfbd dc80 aabe 438d c63d
00000260: a447 6bbe 81c5 f63d 1f3a db3d e436 4c3e
00000270: 0d01 1cbd 3c69 8fbe baff 13bc 17c8 ef3c
00000280: 2961 cfbd 9f47 e93c b113 1fbe 1e02 a33e
00000290: 84fc 6f3e 0a0a fbbc 2892 b13d 5e2d bf3d
000002a0: d4f2 16bd dd03 7a3d f985 383e 4840 32be
000002b0: 5953 9abe 3481 ebbd 10bd b03d f4ee 92be
000002c0: 8a93 3fbc dbdd 313e af1f aebd 0ae0 613d
000002d0: b5dc 95bc e8b1 88bd edc0 27be 8f94 613e
000002e0: f7f3 a93d 9049 cdbd b98d 393e ba07 343e
000002f0: 9235 2f3e 3093 8c3e 8faf 1b3e c833 a63e
00000300: 06db ecbd 69f7 ccbd 5a48 b4bd db9a 9bbd
00000310: dfc1 ab3e 42bb b9bd 8e20 edbd f715 213e
00000320: d3e0 7f3e 1a63 34be eb1e 353e 31ee 8fbe
00000330: 0c1a 0abe 277f 933d c780 37bd 8df4 1cbe
00000340: f924 7d3c 82c1 6c3d 7693 2bbd d576 483e
00000350: 922d 7c3e 8c94 573c d713 b93d 2275 87be
00000360: fdcd f9bd 8f3d 723e 9731 253e ec66 b1ba
00000370: 32b8 88be fc72 b4bd e1ce bdb8 86f7 87be
00000380: c4b2 7abd e025 843d 9ab6 6ebd d7c0 783d
00000390: 12cf 40be e134 5c3e 5380 4dbe babc 8abe
000003a0: 5d91 153e 80c0 393d 1794 223e ded3 143e
000003b0: 7249 083e bd37 c1bc c2d5 0f3e 118c acbd
000003c0: 3da0 89bb af31 39be 1fab 50be 9ae5 903e
000003d0: 9b7d a63e 2217 893c 7334 603e 0ce6 4cbd
000003e0: b566 13be df2e a6bd 5400 1f3e 6886 d7bc
000003f0: 934f 5d3e 045f 803e 46a3 91bc b652 3f3e
-0.013763462 0.17094031 -0.23897919 0.21104424 0.0022337644 -0.31916907 0.19510792 0.12354611
0.06747084 0.05038652 -0.23869167 0.23193768 -0.09699265 0.266384 0.039727207 -0.13149944
0.13103972 0.22968282 0.2045624 -0.016046982 -0.110878214 0.14964177 -0.07753746 -0.29893008
0.121586844 -0.17833707 0.029801354 -0.050476324 -0.14802842 -0.21853434 -0.23207475 0.08269759
0.19055492 -0.122881874 -0.26455396 0.30196393 0.09639881 0.17084813 0.038911 -0.31117445
-0.06819487 -0.14241444 0.059404865 0.04735303 0.016992884 0.27752572 0.16466503 0.29080692
0.2317739 -0.21616 -0.08695625 -0.19379179 0.20159638 -0.2014605 0.21829906 -0.27671817
0.23602383 -0.12962003 -0.13416879 0.2229198 0.0040231417 -0.039221723 0.03572922 0.12843287
0.021377958 0.11134424 0.10111634 0.15979752 0.12197247 -0.11944965 -0.047974043 0.32855475
-0.048438456 0.04338941 0.13084885 -0.26673773 -0.41427496 -0.41399533 0.060941808 -0.068141
0.21319729 -0.0005312197 -0.14280857 -0.22465785 -0.14091621 0.111601494 -0.40522286 -0.09121994
-0.22466704 0.19031085 0.13473146 0.093119696 0.15120491 -0.022223221 0.092299044 0.18601176
0.11137702 -0.08389954 0.03714366 0.26154912 -0.22229479 -0.18563747 -0.02283861 0.41860706
0.19640096 -0.014628401 0.083230704 -0.3056886 -0.036586132 -0.39941806 -0.27201596 -0.19066395
-0.17744274 -0.24497713 -0.2741212 0.29621187 -0.008813306 0.22693898 0.24983463 0.08935195
0.13297541 -0.070291705 -0.119775094 0.15643151 0.16761588 -0.075715296 0.20019819 0.1979132
0.09869838 -0.025905851 0.066336975 -0.14992797 -0.061499756 0.12560666 -0.38869527 0.046273682
0.03443128 -0.27256638 0.07927809 -0.076823644 0.03283879 -0.36721084 -0.23780732 -0.09540163
-0.19809693 -0.1914045 0.19510578 0.105480194 -0.2425729 -0.10898173 -0.33301437 0.09694912
-0.22976547 0.1204939 0.10704445 0.19942814 -0.03808694 -0.28009975 -0.009033138 0.029270215
-0.10125954 0.028476534 -0.15534855 0.31837553 0.23436171 -0.030644435 0.08670455 0.09334825
-0.036852673 0.06103884 0.18019857 -0.17407334 -0.30141714 -0.11499253 0.08629811 -0.28697932
-0.011692891 0.17369787 -0.08502137 0.0551453 -0.018293718 -0.06674558 -0.16382189 0.22029327
0.08298486 -0.100237966 0.18120469 0.17581072 0.17110279 0.27456045 0.15203689 0.3246138
-0.11565213 -0.10008127 -0.088028625 -0.07597896 0.3354635 -0.0906892 -0.11578475 0.15731035
0.24988107 -0.17615929 0.17687576 -0.28111413 -0.13486499 0.07201987 -0.044800546 -0.15327664
0.0154507095 0.05780173 -0.041888677 0.19576581 0.24626759 0.013157975 0.09036987 -0.26456553
-0.12197492 0.23656295 0.16132198 -0.0013534701 -0.2670303 -0.08810994 -9.0507565e-05 -0.26556033
-0.06120564 0.064525366 -0.05827961 0.06073078 -0.18828991 0.21504547 -0.20068483 -0.27097112
0.14606233 0.045349598 0.15876804 0.14533946 0.13309267 -0.023586148 0.14046386 -0.08425153
-0.00420001 -0.18085359 -0.20377778 0.28300172 0.32517704 0.016734663 0.21895008 -0.050024077
-0.14394648 -0.08114409 0.15527469 -0.026309207 0.21612386 0.2507249 -0.01777805 0.18683895

node_embed.bias f4 [64]
00000000: 9bbd f73d 1eb2 0abc 6a5f 00be cc58 423e
00000010: 598a 33be 088c 383e 9571 9abd 5eea f4bb
00000020: 5fcc 143e 98c5 c03d 9de4 2ebe dc32 1bbe
00000030: 8750 c3bd a4a8 f0bd edd4 1c3d 5f75 41be
00000040: b386 5ebd 4e8d eabd 7b4c aebd b1d7 c63d
00000050: 1f40 9ebd 15e8 423e c406 463e e722 f33d
00000060: e2c3 60be 4759 f9bd 8c48 1ebe b792 a0bc
00000070: 13c7 57be f909 073c bc9e e13b 3bcf 263e
00000080: bc96 0cbc 57b9 7f3d e6d3 033e 5ae3 5c3d
00000090: 0338 47be 508e 97bd cfee c1bd e80e 5a3e
000000a0: 5987 3abe c4a0 9e3c 5d3e 97bd 8d26 44be
000000b0: 6157 06be 92db 2fbc 69ed ff3d 1b3e 5e3d
000000c0: cf69 ff3d 8148 873d 94b5 223e 3b4f 04be
000000d0: ea1a fbbc 0e9d ab3c cdc5 a03d 0068 60be
000000e0: 6700 633e 6bec 22bc 21e5 89bd a246 0abe
000000f0: 5f2c cd3d 3c0c 0c3e 3cb4 783d 8f87 c63d
0.12096711 -0.008465318 -0.12536398 0.18979186 -0.17533244 0.18022168 -0.07541195 -0.007474228
0.14531086 0.09412688 -0.17079397 -0.1515612 -0.09536844 -0.11750916 0.038289 -0.1889243
-0.054327678 -0.11452733 -0.08510681 0.097091086 -0.07727074 0.19033845 0.19338518 0.118718915
-0.21949723 -0.121752314 -0.15457362 -0.01960121 -0.21072035 0.008242124 0.0068853777 0.1628999
-0.00858086 0.062432613 0.12873802 0.053927757 -0.1945496 -0.07400191 -0.09469377 0.21294749
-0.18215694 0.019363768 -0.07384942 -0.19155331 -0.1311927 -0.010733502 0.12496454 0.054258447
0.12471353 0.06605626 0.15889579 -0.12920849 -0.030652482 0.020948913 0.078502275 -0.21914673
0.22168122 -0.009944062 -0.06733156 -0.13503507 0.10018229 0.13676542 0.06071876 0.096938245

gat1.gat.att_src f4 [1, 4, 32]
00000000: f182 01bf 8c94 343e 54a0 02be cf71 9e3e
00000010: fd54 d43e 6512 efbe 69fd b5bd 1b66 2e3e
00000020: 080a f8bd 0c97 93be d988 13bf faaa fa3e
00000030: 1706 f5be 9ca6 efbe a51b 5f3e f0e7 91be
00000040: 2500 9cbe ae8c b03e 766f 2dbe d88c dcbd
00000050: 150f 38be 7978 efbe 956f db3e cf96 c6be
00000060: 633e f6bc 0957 1f3e 2804 a73e 1790 c13e
00000070: fd3e 0f3f a441 073f e30c 163f 3ba9 a5be
00000080: c8ae 60be 243c 95be bc96 a6be 5381 33bd
00000090: 7bfa 38bd 7e2d 07be 8c29 99be 31e4 7a3e
000000a0: d6cf 3d3e 1324 3f3e 02ce 51be 9b3a 4a3e
000000b0: 09c0 963e b67c 633e 5e18 aebe 0823 b03e
000000c0: e979 92be de01 96be 5c69 9b3e b17d 883d
000000d0: c479 5abd 7a43 20bd 3c4e 2abe a805 73be
000000e0: c78a f63c 2606 6ebe 7c87 013e a365 a8bd
000000f0: d1be ce3e 40c6 54bd 84de fc3c 74dc 1a3e
00000100: 9fed 80be 546e c93e 6827 643e 0915 6a3d
00000110: a1c8 8e3d 5826 a1bc b312 853e 598c 883e
00000120: c0f4 c23e 07fe 1c3e 32b2 e8be b102 c33b
00000130: 7e81 d3be af49 113e 6d62 9b3e ef0f 183d
00000140: 23a9 2dbd ce0d c53e d9d2 2fbe 42f2 a3be
00000150: 31d8 ae3e 36a5 c1be e4ac 2cbe 9fa8 093d
00000160: a2de 0f3e a466 7c3e 82a0 eb3e 42ba 60be
00000170: 1811 2ebe ad52 96bd 6f27 613e b47a 3bbe
00000180: 3ff4 c1be 9a41 c9be 86c1 f83e 5a58 dd3e
00000190: 01d4 983e 0297 efbe db3d e0be 9418 9dbe
000001a0: 1e1e d23e e2e1 82be f585 9cbe 2407 6e3e
000001b0: f475 06be 5261 de3e f719 1c3e 8715 0abe
000001c0: 9cde 31bf b1c1 1ebe e723 fdbe ca99 c73e
000001d0: 14f1 13be 6050 dabe de33 9b3e 6357 13be
000001e0: b72f abbe 6c99 c73e 12f9 92bc 6361 28bf
000001f0: f4dc eebe db63 adbe 906b 3bbd 8a67 f6be
-0.50590426 0.17634791 -0.12756473 0.30946204 0.4147109 -0.4669372 -0.08886225 0.17031138
-0.12111288 -0.28826177 -0.5763069 0.4895857 -0.4785621 -0.468068 0.2178789 -0.28497267
-0.3046886 0.3448233 -0.1693705 -0.10769051 -0.17974503 -0.467716 0.42858568 -0.38786933
-0.030059045 0.15560545 0.32620358 0.37805244 0.5595549 0.52834535 0.58613414 -0.32355675
-0.21941674 -0.29147446 -0.32536876 -0.043824505 -0.04516075 -0.13200948 -0.2991451 0.2450111
0.18536314 0.18666105 -0.20488742 0.19748919 0.29443386 0.22215542 -0.34002966 0.34401727
-0.28608635 -0.292983 0.3035382 0.06664599 -0.05333878 -0.03912685 -0.16631407 -0.23732626
0.030095471 -0.23244533 0.1264934 -0.08222511 0.40379956 -0.05194688 0.030867822 0.15123159
-0.2518129 0.39341986 0.22280657 0.057148967 0.06971861 -0.019671604 0.2599083 0.26669577
0.38077354 0.15331279 -0.45448452 0.0059512486 -0.41309732 0.14188264 0.3034853 0.03712457
-0.04239763 0.38487095 -0.17170276 -0.32020766 0.34149316 -0.37821358 -0.16862828 0.033608075
0.14049771 0.2464853 0.46020895 -0.21946052 -0.16998708 -0.07339988 0.21987699 -0.18308526
-0.37881657 -0.39307863 0.48585147 0.4323147 0.29849246 -0.46794897 -0.43797192 -0.30682814
0.41038603 -0.2556296 -0.3057095 0.23244911 -0.13130933 0.43433625 0.1524428 -0.13484775
-0.694803 -0.15503575 -0.49441454 0.3898452 -0.14447433 -0.42639446 0.3031301 -0.14388804
-0.3343484 0.3898424 -0.017941032 -0.657736 -0.4665295 -0.33865246 -0.045756876 -0.4812587

gat1.gat.att_dst f4 [1, 4, 32]
00000000: 3d05 b33c fe3e e6be 822e cd3e 962c 00bd
00000010: d1d9 fc3e e399 e0bc 20d1 f23d 1790 0ebd
00000020: 0dcd 873e 7af9 ba3e 52af 563e aeea a1be
00000030: d549 963e ae73 6cbe 54d4 9bbe f633 003e
00000040: ae37 f03e 26f0 2d3e 0aa5 95be 8451 d53d
00000050: e4aa 7bbe 5e71 793e d9e7 393e 1d8d cc3e
00000060: c7b4 e0bd 3925 aabd d28b 3c3d 07f2 98be
00000070: ac00 423e 6413 efbd a42e d3be 7455 2ebe
00000080: ee3c d43d c36f 4bbe da3d 8a3c ee2c 7ebe
00000090: 71b4 033e cd52 e1bd a8b0 4fbd 12cd 42be
000000a0: baae c5be b413 09be 1b9b 273e 4a38 7c3d
000000b0: f867 f33e 9e19 53be 78e7 213e b436 b03e
000000c0: 96a6 a3be 11c1 afbe 1efa 65be 72fd 24be
000000d0: 6571 8c3d a7a5 17be f746 6dbe 923b 3ebe
000000e0: f272 8fbe 8e3c 933e 2616 bbbe 9c4d 2b3d
000000f0: 2ded 053f b566 01be 0fe6 b93e 9936 063e
00000100: b000 41be 4d6a 44be 90bf f3be 1f0e 5abe
00000110: 4f0e a0be b9a9 1fbe 5915 0d3e 678b 59be
00000120: 3ee4 ddbc ef13 b23d a540 58bd 539e 3ebd
00000130: 0809 ee3e 719a 713e 708f 19be 4ade f03d
00000140: 5cda 40be 7530 453e c7b0 68bc 58ca d5bc
00000150: 10e5 81bc 8611 a2bd 375a febd 12c6 c0bd
00000160: 30f5 a13e 2158 6fbe f4bf cabc f855 6fbe
00000170: 9f46 f1bb 3185 a23e 0a9d 50bd 7fe2 5cbe
00000180: 323d 8b3d 76c9 1d3c 0401 b7be 5b61 00bf
00000190: 0384 13bf 2ed8 c93e f109 d0be 3135 50be
000001a0: 4915 153e c05b a63e 5a02 a73e db34 84be
000001b0: 2aa8 8c3e 071d 453d ef5b 13bd 5450 3abe
000001c0: ff14 a1be b5a7 8cbe b128 803e cdba 00bf
000001d0: 8f3b cb3e 1d00 d83e 24c8 b93e 301f 6f3c
000001e0: cc40 163f a338 cc3c ab81 88be 4f18 84bc
000001f0: df24 6a3d 8c4e 8b3e b30b b3be d6d7 e03d
0.021853084 -0.44969934 0.40074545 -0.03129252 0.4938493 -0.027417129 0.11856294 -0.034805384
0.2652363 0.3651846 0.20965317 -0.3162436 0.29353204 -0.23091003 -0.3043543 0.12519822
0.4691748 0.1698614 -0.29227477 0.104159385 -0.24576908 0.24359652 0.18154849 0.3995141
-0.109719805 -0.08307881 0.04603178 -0.29872152 0.18945569 -0.1167362 -0.4124652 -0.17024785
0.10363184 -0.19866852 0.016875196 -0.24821827 0.12861802 -0.11002121 -0.050705582 -0.1902354
-0.38609868 -0.13386422 0.16367762 0.06157712 0.4754026 -0.20615241 0.15810955 0.34416735
-0.31963032 -0.34326985 -0.22458693 -0.16112307 0.06857566 -0.14809285 -0.23171602 -0.18577412
-0.28017384 0.28757137 -0.36540335 0.04182206 0.52315027 -0.12636836 0.36308333 0.13106765
-0.18847919 -0.19181176 -0.47607088 -0.2129445 -0.31260917 -0.15592088 0.13777675 -0.21244584
-0.027086373 0.08695208 -0.052796025 -0.04653771 0.46491265 0.23594071 -0.14996123 0.11761148
-0.18833297 0.19256766 -0.014202303 -0.026097462 -0.015856296 -0.079134986 -0.12419551 -0.09412779
0.31632376 -0.23373462 -0.024749734 -0.23372638 -0.007363155 0.31742242 -0.050931014 -0.21570776
0.067987815 0.009630552 -0.35742962 -0.5014855 -0.5762331 0.39422745 -0.40632585 -0.20332791
0.14558901 0.32491875 0.32618982 -0.25821576 0.2747205 0.048123386 -0.035976347 -0.18194705
-0.3146133 -0.274717 0.25031045 -0.50285035 0.39693877 0.42187586 0.36285508 0.014594838
0.5869262 0.02492935 -0.2666143 -0.016124872 0.05716407 0.27208364 -0.34969863 0.109786674

gat1.gat.bias f4 [128]
00000000: 1b2f 013c aa8e 273c f7b1 3e3d e7c5 85bd
00000010: 0680 38bd a11f 5a3d 718a 78ba b0d1 f6bb
00000020: 2de4 c73a 16c5 0a3c bcec ba3c 9b4a 38bd
00000030: b726 133d 9dd7 0dbc 27d9 803c 21ba 0c3d
00000040: 66b2 0ebd 7f7b b6bd 7adb e13d 9d5d ddbc
00000050: 573f 443c ae8f e33c de31 49bd 1281 2a3d
00000060: d817 133d 14c4 58bd 44d3 1fbd d2c9 deb9
00000070: 3075 e2bd 7235 40bd 7f52 9fbd c68c a63d
00000080: 1c1c 313d 3b33 98bb 3509 b6bb 6dad ef3a
00000090: 5424 ae3d b35e e1bb c0a7 7c3d 2ac0 d93a
000000a0: f001 4ebd 2c0b f13a ae85 fc3c a503 b0bc
000000b0: a42f ce3d 5803 4dbb e1e0 543d 76fd b33d
000000c0: 1f81 42bd 8001 bf3c bfe8 91bc 20df 92bc
000000d0: 5a92 8a3b f95d 243d 1c34 5e3b 945e 333d
000000e0: 1de3 67bc d03e 973d 42da 773c cfb5 833d
000000f0: d34d 163d 6bcb ef3c 41b7 d93c 4ce2 3d3d
00000100: bb12 773d 3579 893c 4d3d dd3b 0bd4 58bc
00000110: c34a 31bb ea3a f33b 8dbc d73a 6d1d 9fbc
00000120: 4ad3 013d 1296 a5bc b23c ba3c c081 2b3d
00000130: 74e0 51bc 8ac1 16bc 3e59 26bd a238 e8bb
00000140: 4698 cbba 06a1 6abc 9672 70bb 6686 4e3c
00000150: 4887 6ebc 9363 4e3d 2abd 7e3d 1e13 683d
00000160: bc24 a83a 3f97 06ba e86d 73bc 195b ec3c
00000170: 2b62 6d3b c260 cc3c 244d 28bc d8df 5d3d
00000180: 16f4 833d ea48 b13d 3320 4abd f524 8dbc
00000190: 73fc 6ebd 2e0f 163d 99fc 8c3e e534 af3d
000001a0: 6388 b0bd 11dd e03c 01af 803d 0b13 b5bd
000001b0: 526a fa3c 84ad 89bd 54fe 543d fde9 ccbc
000001c0: 9e47 353e 3d75 f93c 0130 df3d 8fe4 eabd
000001d0: 5884 b13d 1018 d6bc cfdc e23c e1e1 693d
000001e0: 7060 9f3d c0e6 82bc bac5 5dbc 8075 db3d
000001f0: d71e 003e 236d a63d e36f d8bb 83e7 f53d
0.007884766 0.010226885 0.04655644 -0.065318875 -0.045043968 0.05325282 -0.00094810786 -0.007532321
0.0015250497 0.0084698405 0.022817962 -0.044993024 0.035925593 -0.008657363 0.015728546 0.034357194
-0.034838103 -0.08910274 0.1102819 -0.027022177 0.011977992 0.027778473 -0.049119823 0.041626997
0.03591141 -0.05292137 -0.039019838 -0.00042493507 -0.11057508 -0.04692597 -0.07779407 0.08132319
0.043239698 -0.004644779 -0.005555297 0.0018285938 0.08503023 -0.006877744 0.061683416 0.0016613055
-0.050294816 0.001839017 0.030825462 -0.021486113 0.100676805 -0.003128251 0.051972274 0.08788578
-0.04748642 0.023316145 -0.017811177 -0.01792866 0.0042288722 0.04012868 0.0033905571 0.04379137
-0.014153269 0.073850274 0.01512772 0.064311616 0.036695313 0.029271802 0.02657664 0.04635839
0.060320597 0.016781429 0.0067516924 -0.013234149 -0.0027052618 0.0074227946 0.0016459391 -0.019423211
0.03169564 -0.02021316 0.02273402 0.041871786 -0.012809861 -0.009201417 -0.04061245 -0.0070868293
-0.0015533052 -0.014320618 -0.0036689392 0.012605285 -0.014558621 0.05038793 0.06219212 0.056658857
0.001282833 -0.0005134232 -0.014857747 0.028852032 0.0036221843 0.024948481 -0.010272298 0.054168552
0.0644304 0.086564854 -0.049347114 -0.017229537 -0.058346223 0.03663557 0.27536467 0.08555011
-0.08619764 0.027449163 0.06283379 -0.08841523 0.030568276 -0.067225486 0.05200036 -0.025013918
0.17703101 0.030451411 0.10897828 -0.11469375 0.08667821 -0.02613452 0.02769318 0.05710018
0.07782066 -0.01597917 -0.013535911 0.10715771 0.12511764 0.08126285 -0.006605135 0.12007048

gat1.gat.lin.weight f4 [128, 64]
00000000: 28b9 09be 482e a4bd 65c7 b6bd 0273 16bd
00000010: 8a4c 783d 63ae 89bd 1c45 933d 1cdb a93b
00000020: 59b1 133e 137b 0bbe ff07 6cbd 7c22 cf3d
00000030: 317f 163d d65b 64be 1645 8f3c 2896 b53d
00000040: 49ab 81be eb5e f03d 1aa1 943d 91b0 23be
00000050: e068 c5bd e386 e73d 66dd 19be 4301 043e
00000060: 7691 1abe 843f 99bd f865 dbbd 2791 30be
00000070: ceca 52be 7115 bebd 5849 5e3e bd7b 64be
00000080: 9f4d 38bd 5a33 0bbe 5b3d b93d 3877 bdbd
00000090: 9009 9ebc e526 bc3b 013a 9cbd a216 88be
000000a0: 56d6 2cbe 2118 5e3e ef85 723d a407 5dbd
000000b0: f50d e23d 7411 1c3d a309 0b3e bc83 c73d
000000c0: 14ce 13bd 8698 023e 4690 a7bd e38b 25be
000000d0: f245 82bd 04fd 32be 7347 063e afec 34be
000000e0: 3658 0c3e 980e d8bd 57ba 0abe 0d61 f53d
000000f0: cbbc dd3d 75e8 6c3d f5c4 17be 4454 b73d
00000100: 6508 0d3d 99cf fd3d dea9 2dbe 928e 0fbe
00000110: 8011 8e3d 1d02 2d3e e417 8d3d c827 1dbe
00000120: 04c0 923d df1b 813e ffbb ffbd 521b 96bd
00000130: c7d7 d1bd d7c6 39be be0d 2abe 37fd ebbd
00000140: 3882 f23d 4786 cdbd a027 88bd 21e6 bc3d
00000150: 7299 50bd fdb7 bfbd e6bc 13bd fed3 d03d
00000160: 4150 a0bd fe65 9dbd 6a77 61bc 61fa cfbd
00000170: b2cf bf3d cb08 823d 72ea 0ebe eaa1 70bd
00000180: bfb4 283e a672 2fbe 2e47 44be 08b8 3b3e
00000190: 5f57 87bd b5af 42bd b1a3 033e 5243 4a3e
000001a0: 5d8a f93d e85b 34be 17ca 423d 7147 4abe
000001b0: ed77 2e3c 9d07 a23d 270c 20be 8442 2d3e
000001c0: b079 693d c74f 273e 46ec 2f3c ea95 f03d
000001d0: 2c02 ccbc 4687 723c 18a1 b1bc f2ef 82be
000001e0: 430b d6bd f6e9 9abd 4ea3 96bc d38d d53d
000001f0: c8b1 1ebe 06df df3d 4b4a 223d edb8 153e
00000200: 7595 083e 30c1 0c3e bd15 1bbe c95e e93d
00000210: 42f0 acbd 263b 73be 0e96 143e 7c58 ed3d
00000220: 7886 143e 1692 db3c 34b5 ce3d 6860 18be
00000230: 96c6 263e 54fe ff3a affa bf3c 65de d03b
00000240: 040a 913d c433 30be c806 dbbd 5993 0bbe
00000250: 4b86 5bbe 6859 9c3d f22e dfba 926c 973d
00000260: 32bc fcbd d22f 233c a4d6 afbd fd23 1ebe
00000270: 85ac 4d3d 5f11 93bd 7b02 4d3d 906b 8cbd
00000280: 22bc d7bc 1590 a53d 1970 273e 857d a9bd
00000290: e242 e93d 6633 03be e062 61bd dbe1 aebd
000002a0: c14a 093d 6663 66bd dad4 2cbd 64a8 43bc
000002b0: bf9e f73d 0a8f 29be 0b2e 5a3e 6604 853e
000002c0: c923 5cbd a985 a6bd e21b 85bb 8a3d 81bc
000002d0: d963 a93d c766 2f3e 1797 0e3e d35a 5ebe
000002e0: da1e 343c 8cf4 81bb 7d38 673e c92d d93c
000002f0: 434b 83bd fbf9 793e 0b3c 62be 9f48 f83c
00000300: 45e0 ab3d 94ab 093e 57b5 cc3d dced 8cbd
00000310: 30c1 f3bd 4409 2e3e 3a74 a0bd 5dc6 453c
00000320: de6b 99bd c5e9 59bd 0299 4ebe 6f99 d13b
00000330: aeb8 a2bb e377 da3d 4e60 0cbd 4db8 fdbd
00000340: e688 b8bc 03d5 863e ace0 893c 4eeb 663e
00000350: 16f0 963d cd5f 51be ea03 b5bd 5b7b 3c3b
00000360: ac67 4c3d 45e5 543e 07f0 7e39 4a19 f5bd
00000370: cb1a e73d 62e9 283e 02f8 41bd dc7b 1a3e
00000380: 1527 00be d756 423d cdc1 083e b09b 8a3d
00000390: 9896 a13c 3f75 c83d 9425 6e3d 7047 333e
000003a0: 4c0b 3f3e e171 3bbe 36a3 8c3e f548 86bd
000003b0: 7c0d d33d 9216 5bbd dd41 a9be 41f3 cebc
000003c0: 5f0a 763d dfd0 0c3e 53e8 3b3e 5667 1fbd
000003d0: 0294 54be 631c 13bd 63da a9bd 5b8a 663e
000003e0: f6ae 1bbe a111 06be aa44 bfbd 0a93 753c
000003f0: 230e 8e3d c84f 303c 6746 c63d c7ad 77bd
-0.13449538 -0.0801664 -0.0892475 -0.036730774 0.06061987 -0.06722715 0.07190916 0.0051835906
0.14423122 -0.13621168 -0.057624813 0.10113999 0.036742393 -0.22300658 0.017488997 0.08866531
-0.25325993 0.11736854 0.0725729 -0.15985323 -0.09639144 0.113050245 -0.15025863 0.12891106
-0.15094551 -0.07482818 -0.10712808 -0.17242871 -0.20585176 -0.092814334 0.21707666 -0.22312827
-0.0449959 -0.13593808 0.09044906 -0.09251255 -0.01929167 0.0057419413 -0.07628251 -0.26579767
-0.16878638 0.21688892 0.05920976 -0.053962365 0.11037818 0.038102582 0.13577895 0.09741923
-0.036085203 0.12753496 -0.08181815 -0.16166644 -0.06360997 -0.1747933 0.13113193 -0.17668413
0.13705525 -0.105496585 -0.13547646 0.119814016 0.10827025 0.057838876 -0.14821227 0.08951619
0.034431834 0.12393112 -0.1695933 -0.1401923 0.069369316 0.16895337 0.068893224 -0.15347207
0.0716553 0.25216576 -0.12487029 -0.0732943 -0.102462344 -0.18142258 -0.16606805 -0.11522906
0.118412435 -0.10035377 -0.06648183 0.09223581 -0.050927587 -0.09361265 -0.03606882 0.10196684
-0.07827807 -0.07685469 -0.013761381 -0.10155178 0.093657866 0.063493334 -0.13956621 -0.058748163
0.16475199 -0.17133579 -0.19167778 0.18331921 -0.066084616 -0.04753085 0.12855412 0.19752243
0.12184594 -0.17613184 0.04755601 -0.19753815 0.01064871 0.07911608 -0.15629636 0.16919905
0.057000816 0.16339026 0.010737484 0.11747344 -0.02490338 0.0148027595 -0.02168326 -0.2557369
-0.10451367 -0.07564156 -0.018388417 0.104274414 -0.15497506 0.1093121 0.039621633 0.14621325
0.13338263 0.1374557 -0.15145011 0.11395032 -0.08444263 -0.23753032 0.14510366 0.11589143
0.14504421 0.026803058 0.100931555 -0.14880526 0.16286692 0.0019530752 0.023434965 0.0063741677
0.070819885 -0.17207247 -0.10694653 -0.13630427 -0.21437947 0.076342404 -0.0017027541 0.07393755
-0.12340583 0.009960132 -0.08585861 -0.15443416 0.050213356 -0.07181048 0.050051194 -0.068564534
-0.026334826 0.08084122 0.16351356 -0.08275894 0.1138971 -0.12812576 -0.055025935 -0.08539172
0.033518557 -0.056247137 -0.04219518 -0.011942003 0.12090825 -0.16558471 0.21306626 0.25979918
-0.053745065 -0.081309624 -0.004062162 -0.015776414 0.082709976 0.1712905 0.13924824 -0.21714334
0.010993684 -0.00396592 0.22580142 0.02651109 -0.064108394 0.24411766 -0.22093217 0.030308066
0.083923854 0.13444358 0.09995525 -0.068813056 -0.11902082 0.16995722 -0.078346685 0.012071219
-0.07491277 -0.053201456 -0.20175555 0.0063964645 -0.004965863 0.10667398 -0.03427153 -0.12388668
-0.022526216 0.2633439 0.016830765 0.22550699 0.073700115 -0.20446701 -0.08838637 0.002876005
0.049903557 0.20790584 0.00024312745 -0.11967714 0.11284407 0.16495278 -0.04735566 0.15086311
-0.12514909 0.0474461 0.13355179 0.06767976 0.019725129 0.09787988 0.058141306 0.1750772
0.18656653 -0.1830516 0.2746827 -0.06556884 0.10305306 -0.05348832 -0.33058062 -0.025262477
0.060068484 0.13751553 0.18350343 -0.03891691 -0.20759585 -0.035915744 -0.08293607 0.22513716
-0.15203461 -0.13092662 -0.093392685 0.01498867 0.0693629 0.010761209 0.09681397 -0.06046846

gat1.norm.weight f4 [128]
00000000: f28b 783f f5b0 773f 9502 773f 2fb2 6c3f
00000010: 50bf 5c3f 16da 773f a482 843f 293e 7c3f
00000020: fbaa 613f a847 763f 2207 763f fcb3 863f
00000030: 71e6 703f a56e 893f b8b0 693f fc2a 5b3f
00000040: 477b 903f 0835 6d3f ace1 8a3f 6c29 833f
00000050: 6969 783f 13c9 763f 5b9e 5d3f 2f41 793f
00000060: 8d3d 723f 94c7 573f e6cd 613f 7813 673f
00000070: d61e 593f 338d 643f 9113 683f 9524 863f
00000080: c56f 883f 6e14 5d3f 4056 683f fa79 5f3f
00000090: 38e3 9b3f 8c7d 593f 1582 793f 7827 453f
000000a0: f4da 513f 6954 7e3f 9763 6d3f 8ca6 6e3f
000000b0: 1b1b 7c3f 818e 5e3f 2d72 8f3f ebdc 933f
000000c0: 941c 723f 92bc 833f b452 7c3f 88ac 563f
000000d0: b260 6a3f 266c 643f 1f8e 503f a3f3 913f
000000e0: ddde 3e3f 570c 513f b19b 713f 0e3f 5e3f
000000f0: 007c 713f 958f 5e3f d178 833f 1d0e 6b3f
00000100: 7353 703f 804e 843f f98e 613f 59ee 653f
00000110: d797 873f f91e 683f b6a7 6a3f a0ae 803f
00000120: e8a1 833f 0a7c 683f 05cf 783f c564 653f
00000130: 145a 6e3f 7934 563f 5a4e 713f 6448 563f
00000140: c668 8d3f 9055 523f deb6 683f 06cd 723f
00000150: f402 7d3f 7af5 683f d93d 873f 7439 773f
00000160: bb9d 6d3f 7626 6e3f 83bc 513f 51f6 8f3f
00000170: c465 623f a3b2 6c3f 8a73 673f 7f28 853f
00000180: 8387 8d3f c1e4 943f 36f9 823f d6fe 923f
00000190: 93a6 9c3f 3cc1 903f 254d 8c3f 353a 823f
000001a0: faee 873f 908e 813f b2b6 873f 462a a43f
000001b0: ddc1 7b3f 956d 873f e123 853f e4dc 8d3f
000001c0: 6c1b 7c3f 0e63 843f 9502 873f 813b 8f3f
000001d0: 3aab 803f f152 8e3f 1352 7f3f 8b64 7a3f
000001e0: 582c 883f 1be8 913f a0de 873f 2d68 713f
000001f0: 7dfe 8f3f 00bb 713f 902e 8d3f 7880 863f
0.9708854 0.9675439 0.96488315 0.92459387 0.8622942 0.9681715 1.0352368 0.9853235
0.8815152 0.9620309 0.96104634 1.0523677 0.94101626 1.0736891 0.91285276 0.85612464
1.1287621 0.92659044 1.085012 1.0247016 0.97035843 0.96400565 0.86569756 0.9736509
0.9462517 0.8428891 0.882048 0.9026408 0.84812677 0.8927795 0.90654856 1.0479914
1.0659109 0.863593 0.9075661 0.87295496 1.2178717 0.84957194 0.97464114 0.7701335
0.8197472 0.9934755 0.9273009 0.9322288 0.9847886 0.86936194 1.1206719 1.1551794
0.94574857 1.0291922 0.98563695 0.8385701 0.91553795 0.8922752 0.8146686 1.1402477
0.7455881 0.81659454 0.9437819 0.86814964 0.94329834 0.8693784 1.0271245 0.9181841
0.93877333 1.0336456 0.88108784 0.89816815 1.0593213 0.9067226 0.91662157 1.0053291
1.0283785 0.9081427 0.97190887 0.8960689 0.931062 0.83673817 0.9426018 0.8370421
1.1047599 0.8216181 0.90904033 0.9484409 0.9883263 0.9099957 1.056575 0.9657204
0.928188 0.93027437 0.8192827 1.1247045 0.8843653 0.9246008 0.90410674 1.0402983
1.105698 1.163231 1.0232303 1.148402 1.2238334 1.130897 1.0961043 1.0174013
1.0619805 1.0121632 1.0602629 1.2825401 0.98342687 1.0580317 1.0401574 1.1083035
0.9847934 1.0342729 1.0547663 1.1190034 1.0052254 1.1119062 0.9973461 0.97809666
1.0638533 1.1398958 1.0614815 0.94299585 1.1249539 0.94425964 1.1029835 1.0507956

gat1.norm.bias f4 [128]
00000000: 3fd5 74bd 46ea 9bbc 1578 2dbd 2e38 d8bd
00000010: bb5e ecbd 386d 60bd 857e 11bd 486d 63bd
00000020: ed87 12be fbaf 12bb 1830 d1bc d3da 08bd
00000030: e24b 84bd a19d 6cbc c44b c3bd 5bbe 8fbd
00000040: 4435 aabc 390b cdbd f79a 9abd e64e ddbd
00000050: 2665 7ebd 8a5b afbc 6ae4 c2bd 5f1e 74bc
00000060: 0389 4dbd a295 b0bd f670 12be 0643 8dbd
00000070: e43b 10be 2109 ebbd 207c fabd a91c c8bc
00000080: 2858 1fbb 9490 84bd 76d6 6bbd 85e1 84bd
00000090: ced9 c8bb 5119 c8bd ccad 2dbd 0825 00be
000000a0: 85d2 c3bd 5f0e d6bc 40b5 8cbd 59e8 c6bd
000000b0: f7c0 48bd b683 10be 4242 803c 4f6b 573b
000000c0: 49e2 86bd a556 b3bd bb9a 99bd 9ff6 cbbd
000000d0: 46bf 60bd b951 7cbd 888d 89bd db52 253d
000000e0: 05c7 bbbd aefc d1bd bad1 91bd f56a cebd
000000f0: a2ca 08be ad0a c5bd 6e5e 49bd cbdf 1fbd
00000100: 6878 92bd 4fec 063c 7488 cabd 3e07 0ebd
00000110: 2a42 77bd 08f0 e7bd 770f cdbd 1283 8cbd
00000120: 9d59 b93b 0146 7abd 67bd 43bc 9a48 debd
00000130: b267 91bd c5f3 b4bd 2c71 63bd 9bcc 7abd
00000140: 6039 81bc 5734 b4bd ebcf b8bd 22e8 9ebc
00000150: 46f3 03bd 6609 a8bd cb3c 0b3d d81c ab3a
00000160: e7f0 7abd d50f a6bd feae e1bd 0e13 013d
00000170: e58a 91bd 7894 61bd 4732 14be be1f 88bd
00000180: 4787 253d 76f1 0c3d 5867 f43b 0214 e0bb
00000190: 1470 3abe a2f7 aabd dc90 603d 46db f2bc
000001a0: feab c7bc 18da 80bd 86a6 c6bb 9e69 56be
000001b0: 1176 8cbd b033 9cbc 507b 40bc c00e 623b
000001c0: 79c6 81bd 5f05 29bc 4353 173d 9dc2 77be
000001d0: e8e5 fa3b 779d fbbd 48ef ddbc a03e b7bc
000001e0: df5a 8fbb 6338 c1bb 170f f1bb b010 963b
000001f0: 0b4d 47bb ee7c 4e3b 9cce 693c fd61 25bd
-0.05977368 -0.019032609 -0.042350847 -0.105575904 -0.11541506 -0.05479166 -0.03552105 -0.05552414
-0.14309664 -0.0022382725 -0.025535628 -0.033411812 -0.06459786 -0.014441879 -0.095359355 -0.07018729
-0.020777352 -0.10011906 -0.075490884 -0.10806064 -0.06210818 -0.021405954 -0.09516223 -0.014899819
-0.050179493 -0.0862229 -0.14300904 -0.06897549 -0.14085346 -0.114763506 -0.12230706 -0.024427729
-0.002431402 -0.064728886 -0.057577573 -0.06488327 -0.00612948 -0.09770454 -0.042402074 -0.12514126
-0.09561638 -0.0261299 -0.06870508 -0.097122855 -0.04901215 -0.14112744 0.015656594 0.0032870357
-0.06586129 -0.087567605 -0.075002156 -0.099591486 -0.054869913 -0.061601374 -0.06716448 0.04036222
-0.09168819 -0.10253273 -0.0712008 -0.10078994 -0.13358548 -0.09621177 -0.04916232 -0.039031785
-0.07151872 0.008235051 -0.098893076 -0.034674875 -0.060365833 -0.11325079 -0.10012715 -0.06860937
0.0056564347 -0.061101917 -0.0119470125 -0.108536914 -0.070998564 -0.08835558 -0.05552785 -0.061230283
-0.015774429 -0.087990455 -0.09024032 -0.019397799 -0.032214426 -0.082049176 0.033993524 0.0013054861
-0.0612649 -0.081084885 -0.11019705 0.031512313 -0.0710657 -0.05507323 -0.14472304 -0.06646679
0.040412214 0.034409963 0.0074586086 -0.0068383226 -0.18206817 -0.083480135 0.05482565 -0.029645573
-0.024374004 -0.06291598 -0.0060623316 -0.20938727 -0.06858457 -0.019067615 -0.01174815 0.0034493655
-0.06336684 -0.010316222 0.03694464 -0.24195333 0.0076568015 -0.122858934 -0.027091637 -0.02236873
-0.0043748464 -0.0058966144 -0.007356535 0.004579626 -0.0030410911 0.003150757 0.014270451 -0.040376652

gat2.gat.att_src f4 [1, 4, 32]
00000000: 2347 2d3d aece 43be e193 293e 38fd 79be
00000010: 190c 7b3e edf1 69be 4a3a 0fbb 8413 b4be
00000020: c783 e13e 5cd9 bd3e 3993 91bd 4119 a33e
00000030: 484b 2c3e 4b0d 713e 47a3 febe 74f0 8a3e
00000040: 41b8 8a3e 3a61 c23d 4672 c1be 2f95 bd3e
00000050: 9cce 0b3e af38 c33e 7ab5 b23e 119e 04be
00000060: 644b 06be 9b16 64be dfb4 d63d 34a1 19be
00000070: d9d8 6a3d fd77 1cbe f700 d3bd bd14 55be
00000080: 8a8f d0bc d550 be3e 4405 c4bd c7f2 bd3b
00000090: 2c0d 2b3e 2c0a d83e 8424 b3be 5159 a2be
000000a0: 2782 98be 6fcb da3e 479f 04bd 5fd6 54bc
000000b0: 41e8 7d3d 2005 853d a6c9 72bd c5fa 5f3e
000000c0: f38a a33b 3c58 393e 6736 ad3e cf6b 8c3e
000000d0: 10b4 5fbc 71e1 c4be 0e8d c73e f4d6 663e
000000e0: bf60 733e 0e7c bb3e 4c5e debe 6cdd 23be
000000f0: 1a1c 19bc 727e 993d 8146 17be c90f 7fbe
00000100: 3a1a be3d da2e 0e3e 5a10 98bd 8a22 b2bd
00000110: 3eda 3dbe 9c49 df3e fa14 06bf c8e1 46be
00000120: c2ed 22bc abc5 463e 3755 b3be 68ca c63c
00000130: 389d 50be 2d94 d63e 9b3d 9abe 980c 433e
00000140: 3fa6 06be 6edd 213e 9bba a03d c661 ecbe
00000150: f330 753e 1517 b1be ffd7 e03d febe 463d
00000160: b0ef 1ebe fd9e 453e b626 64be b989 8fbe
00000170: a634 ad3d 5989 2d3e c75a ecbd 6b45 f73d
00000180: 8bdc a33e c3da bd3e f7dc d2bd 1d86 ab3b
00000190: 8761 7a3d f473 e2bd 4b15 44be 6e89 9a3e
000001a0: 6f59 833e cee9 5fbd 7249 55be 8657 0c3f
000001b0: a9b9 c23e 83d8 b2bd a047 153e 385a f13c
000001c0: c458 c1be 60b3 a3be 07ec 2e3c e8b4 c7be
000001d0: 3ab2 15be 216c 15bd 9371 99be d545 adbe
000001e0: 1133 dfbe 41df edbe 9ed9 ab3d 8bef 5dbe
000001f0: 4354 a53e 94b6 e23d a341 81be 2d68 37be
0.04230417 -0.19121811 0.16560318 -0.24413002 0.24516334 -0.22846194 -0.0021854811 -0.3517114
0.4404585 0.37079895 -0.071081586 0.31855205 0.16825593 0.23540227 -0.49733946 0.27136576
0.270937 0.09491201 -0.37782496 0.3702788 0.13653034 0.38129184 0.3490408 -0.12950923
-0.13114697 -0.22274248 0.10483717 -0.150029 0.05733571 -0.15280147 -0.103029184 -0.20808692
-0.02545907 0.37171045 -0.09571317 0.0057967636 0.16704243 0.4219526 -0.34988797 -0.31708768
-0.29786798 0.42733333 -0.03237846 -0.012990563 0.061989073 0.06495118 -0.05927434 0.21873005
0.0049909293 0.18100065 0.33830568 0.27426 -0.01365377 -0.38453248 0.38974804 0.22542936
0.23767374 0.36618084 -0.43431318 -0.16002434 -0.009345079 0.07494821 -0.14772989 -0.24908365
0.09282346 0.1388506 -0.07424994 -0.08697994 -0.18540284 0.43610847 -0.5237576 -0.19422066
-0.009944381 0.19411342 -0.3502595 0.024266437 -0.20372474 0.41909924 -0.30125126 0.19047773
-0.13149355 0.15807125 0.07848092 -0.46168345 0.23944454 -0.34587923 0.10978698 0.048521988
-0.15521121 0.1929893 -0.22280392 -0.28034762 0.084573075 0.16946925 -0.11540752 0.12073787
0.32004198 0.37080964 -0.10296052 0.0052344934 0.061128166 -0.110572726 -0.19148748 0.30182976
0.2565417 -0.054666333 -0.20828798 0.5482105 0.38032272 -0.087327026 0.14578104 0.029461965
-0.37763035 -0.3197279 0.0106763905 -0.39005208 -0.1461877 -0.036480073 -0.29969463 -0.3384234
-0.43593648 -0.46459392 0.083911166 -0.2167341 0.3229085 0.1106998 -0.2524539 -0.17910834

gat2.gat.att_dst f4 [1, 4, 32]
00000000: 4f5b 86be 3859 3f3e 05fa 9a3e 177c 87be
00000010: 5e61 ad3e ac85 edbe e4c5 abbd f73d d33e
00000020: ea0e c23e 707d c3be 43c4 8abe dafd 403e
00000030: 8d1a 15be f75e 5ebd a191 55be cf62 e93c
00000040: 86cc cdbd f815 1abe c6e7 913d c672 243e
00000050: 3aa9 41be 504c b4bd 2f44 1a3e 6412 d13e
00000060: d0c2 83bd 8c20 983e 16bf c6be f37c 0c3e
00000070: a7e4 903e 0563 a6bd 5677 49bd dbac b4be
00000080: b6aa ed3d 3f8f f33d 3b74 cebe bbf4 1fbd
00000090: 29b0 723e c5ae 0ebe df3e 99be 6e0d 803e
000000a0: afd9 04bd 29c4 f3be fa0f 833e b90e cb3d
000000b0: 33e9 75be 54c3 ba3e 8788 adbe dc96 b7be
000000c0: 677c 883d 6605 abbd 7d81 973e 1219 1e3e
000000d0: 0930 1cbe 5713 bbbd 3c65 fcbc 70c0 8fbe
000000e0: 81cf f33e 7e59 e4bd c35e a23e bc61 3b3e
000000f0: f051 493e 7213 0fbf e23a cebe 2548 56bc
00000100: 3686 b03e 639c 253e 9ee3 abbe 4c73 edbe
00000110: 9636 d9bd 2319 ddbc b2ee 5a3e 0740 eabc
00000120: 5d01 ecbe df98 983e a54c 933e 328a 51be
00000130: e702 e73d 6e13 29be 4274 513e 8071 a5be
00000140: 444e 2bbd 2214 c1bd 7aca 473e 6186 9dbe
00000150: 41c7 df3c a00e 073e c682 c33e be80 033d
00000160: 176c 9fbe 645b 9c3e 1254 023e 89f4 a93e
00000170: 3e20 9a3e 3bd4 9cbe 736f d6bd 43ff a6be
00000180: cd48 033e ebe9 c0bd 5433 f13d bc04 fe3e
00000190: 834b 04be 6cb7 27be 84f1 24be b6c9 67be
000001a0: 680a c2be 7f74 2e3e c304 5d3e 9a01 7f3e
000001b0: 40a4 58be b07b af3e fa39 fbbe 5ddd 8e3e
000001c0: 46cf 44be 4dbe 0bbe 0075 3cbe daac 193c
000001d0: 9c52 083e f2e6 b8b9 e900 03bf 6601 e6bb
000001e0: 4d2c a0be 1263 eabd 5da9 b63e a0db 153e
000001f0: 4298 0abe d363 73be b55f 2c3d 3764 973e
-0.26241538 0.18686378 0.30268875 -0.2646186 0.33863348 -0.46391046 -0.08387354 0.41258213
0.37902004 -0.3818164 -0.2710286 0.18846837 -0.1456091 -0.054289784 -0.20856334 0.028489498
-0.100487754 -0.15047443 0.071242854 0.16059408 -0.18912211 -0.08803618 0.15065072 0.40834343
-0.06433642 0.2971233 -0.38817662 0.1371954 0.28299448 -0.08124355 -0.049186073 -0.35288128
0.11604826 0.118925564 -0.40323052 -0.039051753 0.23700012 -0.13933857 -0.2993078 0.25010246
-0.03243416 -0.47610596 0.25598127 0.099149175 -0.2401474 0.3647715 -0.33893225 -0.35857284
0.06664353 -0.08350639 0.2959098 0.15439251 -0.15252699 -0.09134548 -0.030809991 -0.28076506
0.4761925 -0.11149882 0.31712922 0.18299001 0.19660163 -0.55889046 -0.402793 -0.013078724
0.34477395 0.16172938 -0.33572096 -0.46377027 -0.106061146 -0.026989525 0.21380118 -0.028594984
-0.4609479 0.2980413 0.28769413 -0.20462874 0.112798505 -0.16511318 0.20454505 -0.32313156
-0.041822687 -0.09427668 0.19510832 -0.30766585 0.027316691 0.13189173 0.3818571 0.0321052
-0.31137154 0.30538476 0.12727383 0.33194378 0.30102724 -0.3063067 -0.10470476 -0.32616624
0.1282074 -0.09419616 0.11777368 0.49612987 -0.1291943 -0.16378564 -0.16107756 -0.2263554
-0.37898564 0.17036627 0.21583848 0.24902955 -0.21156406 0.34274054 -0.4906767 0.27903262
-0.19219694 -0.13646813 -0.18404007 0.00937959 0.13312763 -0.00035267283 -0.51173264 -0.0070192097
-0.312838 -0.114446774 0.3567609 0.14634562 -0.13534644 -0.23768549 0.04208346 0.29568645

gat2.gat.bias f4 [128]
00000000: 64fb 773c 10ee 5c3b 662b 5a3d f8cc 6d3d
00000010: 4b8c 1cbd 2a1e 1b3d 1418 6f3c 875e 80bc
00000020: 164a 9abd f9ba 9abc 136a 413d 68a2 e2bc
00000030: 4c8b 00bc 320e f7bc 902f 483d d83b 91bc
00000040: 95ed b13c 1eed dfbc d455 e03c 7a8b 3abc
00000050: dfd5 89bc 4e84 c53c af42 4f3d f5e6 6fbc
00000060: dfaf d9bc ad86 c6bc 3698 7e3d 4ac9 413c
00000070: cab5 bd3c 17a7 003b 189f 87bc 9499 acbb
00000080: fdd4 ebbb 884d 68ba df39 99bb 1960 a33c
00000090: fe6e c839 75e3 64ba b01c 543d 2d66 313d
000000a0: c33e ef3c 3c3c 8dbc df1e a2bd 2207 a3bc
000000b0: 5b2d 7f39 55d1 6a3b 7e00 f23c 26a0 9a3b
000000c0: 7fa6 6d3c e0c3 cebc 76b5 9fbb a97b 5dbb
000000d0: e3da c63c e7c5 8abb 3fa1 78bc 7c19 c13c
000000e0: 26ad d6bc a360 3abc 91d7 b13b bf8d b9bc
000000f0: ca9d e03c 4918 453b 95ba 01ba 37b6 293d
00000100: 1ded 2abd a74f b8bc c8f9 c43c ec5f ef3b
00000110: 4f54 4b3d 1b9b 1bbc 99cf 06bd 62a5 0ebc
00000120: 5099 253d 4918 fdbc 86d0 893c 464f 38bc
00000130: 1479 8abc 100a 8cbd 3804 323c e259 c3bc
00000140: b135 493c 07ca 37bc 814a c63c a2d9 3ebc
00000150: 93a6 30bd c308 89bc cb3f 43bb c584 c5bc
00000160: 87c8 ce3c d2b6 aebb 8329 eb3c a7e3 c13c
00000170: fae4 d5ba e13b 3138 fb70 2b3d 7dc0 4ab9
00000180: c52f 62bb 14f6 b3bc 09e4 bcbb 0f45 3b3d
00000190: a57a 4d3c 308e 09bc 7789 8c3c b34a 123c
000001a0: bade 19bc 4744 55bc 4396 b73c 2ce8 1c3c
000001b0: 7dbe 4cbc 308f 44bc e530 143d dcdd 6bbc
000001c0: c05a bc3c 23c4 1c3b 738a efbb 93b1 35ba
000001d0: 2b6d 833c 05f4 583d 9bff b63c c5c4 2abc
000001e0: 2e2c 593d 01fe 703c bfdc 33bc aee5 08bd
000001f0: 510a 0f3a 027d ab3b 836e 673b f8ac 71bc
0.01513562 0.0033711232 0.053264044 0.0580568 -0.03821973 0.037870564 0.014593143 -0.015670074
-0.07533662 -0.018887984 0.0472203 -0.027665332 -0.007845711 -0.030158136 0.048873484 -0.017728731
0.021719733 -0.027334746 0.027384676 -0.011385793 -0.016825614 0.02411094 0.050600704 -0.014642467
-0.02657312 -0.02423414 0.06215688 0.011827776 0.023157973 0.0019630843 -0.016555354 -0.0052673314
-0.007197021 -0.0008861651 -0.004676088 0.019943284 0.00038229668 -0.00087314035 0.05178517 0.043310333
0.029204732 -0.017240636 -0.079160444 -0.019900862 0.00024335591 0.0035830338 0.02954125 0.004718798
0.014505028 -0.025239885 -0.0048739268 -0.003379563 0.024274295 -0.0042350176 -0.015175163 0.023571722
-0.02620561 -0.011375579 0.005427309 -0.022650598 0.02741899 0.003007429 -0.00049487624 0.04143354
-0.041730035 -0.022498919 0.024044886 0.007305136 0.04964095 -0.009497429 -0.032912824 -0.0087064225
0.040429413 -0.03089537 0.016823065 -0.011249369 -0.016903438 -0.06837857 0.010865264 -0.02384657
0.012280867 -0.011217601 0.024205448 -0.011648567 -0.043127608 -0.01672781 -0.0029792662 -0.024111161
0.025242103 -0.0053318525 0.028706318 0.023668123 -0.0016318851 4.2255855e-05 0.041855793 -0.00019335929
-0.0034513336 -0.021967925 -0.0057644886 0.045720156 0.012541448 -0.008395717 0.017155392 0.0089289425
-0.009391481 -0.013016767 0.022410518 0.009576838 -0.012496588 -0.011997029 0.036179442 -0.014396157
0.022992492 0.0023920618 -0.0073102056 -0.00069310627 0.016043266 0.05296709 0.022338679 -0.01042289
0.05302065 0.014708997 -0.010977923 -0.033422165 0.00054565544 0.005233408 0.0035313673 -0.014750712

gat2.gat.lin.weight f4 [128, 128]
00000000: 4b82 0a3e 44b9 b93d c662 543d d032 9abd
00000010: 9625 113d 896f 71bd c485 da3d 69cc e73c
00000020: d462 14be 2a46 bb3d d678 793d d290 a4bb
00000030: d4b8 dc3d ba92 f3bc 987b 003d 5df1 503c
00000040: 8593 1cbe ee18 ebbd ddaa f93d a128 34bd
00000050: 1562 04be e8f2 13be 7495 19be e0d9 f93d
00000060: 67ac 253d 57bc 1b3d b516 d73d e5ca 03be
00000070: 3597 4f3d f329 4b3d d660 79bd a9db 7fbc
00000080: 1287 683d 63a7 0d3d 8a04 e5bc 58c9 40bc
00000090: 0088 3d3e df5a adbc 6f7a 993d e9c8 dd3c
000000a0: d272 493e 0139 87bb 66a4 333e 838c 24bd
000000b0: fb51 32be 76c0 1a3e 4077 a6bd 510a bbbd
000000c0: dfd3 9dba efe5 283e 0aa7 56bd 15aa 2abd
000000d0: f0dd a6bc fbe1 8bbb 70ce ccbb f320 9cbd
000000e0: d1c6 453e 9cfa 073e 0fb4 e33d df16 833c
000000f0: fd10 c03c 922a 04be 8770 fabc b6ab 7bbd
00000100: cb35 15be 5744 4dbe 54e6 f33d 01c4 1ebe
00000110: 7455 cf3d 3a31 2bbd e1d2 aa3d 369a fd3d
00000120: 4241 613c 39df 643d d705 503d f0e1 2fbe
00000130: eea0 ddbd e295 a73d a942 13be 8150 3fbd
00000140: 327b 803d 6c34 bcbd 15b5 193d e09d 713d
00000150: 5fd6 83bd ca99 c3bd 30da 183c d577 ee3d
00000160: 233d 04be b218 9d3d 7c45 55bd 77cc 3fbe
00000170: 5e73 7f3d 3c33 3cbd d16d 0bbe 6fef d7bd
00000180: bc33 4bbd 3eb6 a73d 03ae c3bd 5a00 1c3e
00000190: f355 9a3e 4200 733d de0d 43bd c6a7 dbbd
000001a0: 5957 143d cf85 dcbd b977 ac3d 0f19 0f3e
000001b0: 0ce6 e13d a476 80bd c934 c03d 11d4 2bbe
000001c0: cf2a 6a3e 1c5b 8cbd c12e fd3d b138 80bc
000001d0: 91e1 f13c c310 963b dd7c aebc afbb b93d
000001e0: 583a a23d bc05 f03c 9e4a 83bd ee7a 763c
000001f0: e396 b9bc 9aea 90bd c083 47bd acdc cb3b
00000200: 5b82 e03d 42aa a03d 899d f73d 14b6 673e
00000210: b7fe 56bd 1fbd 65bd ef2f 133e c8c0 273d
00000220: 126b 11be ea8e 253e 3455 323e c598 433d
00000230: 1caf 403b e5e7 89bd 24e3 bdbd 6b33 c63d
00000240: 4ebf 8dbc 1506 cf3d 5acc 1abe f66a 643d
00000250: e6dd c3bd 4b28 ab3c 3e57 ce3d 106b a13d
00000260: 872a 853d d35d ca3d 2fd9 d2bd be77 d1bd
00000270: 6a70 113e 2668 efbd 5400 963d f8a8 7e3d
00000280: 0fd1 e6ba eb67 e33d 1867 63bd 040f 73bd
00000290: abc7 1abe dcf1 00be 5e2f dabd f9f8 1dbc
000002a0: 7824 9fbd 6466 983d 370a 31bd 3e78 c13d
000002b0: 584a 8bbd a5b7 a1bd 334d 4a3c 96d2 89bc
000002c0: 6113 853d a340 27bd a25a ccbd 404c 8bbc
000002d0: ee96 d83d 44ee 56bd 43df ebbd 6e66 953c
000002e0: 1ab2 13be 700f a0bd fe04 a63d 5c79 ddbd
000002f0: e3ba 94ba 6a82 c83d b221 c93a e004 cabd
00000300: c00a f5bd 820c b3bd e9f2 8e3c 0fcb 023e
00000310: 3bfb 27be 0e65 17be 1cac 23bc bfc0 cb3d
00000320: 1575 98bd 7577 eb3a 68e6 b13b c443 ab3c
00000330: 0360 003e adbb 7d3d cd5d 433c c5f6 04bc
00000340: 6baa 5e3d 02ed c43d 4098 713d c79b dd3c
00000350: aaba 4cbd 53d9 6cbd 5fe9 d53b ba2d 66bd
00000360: 6ca3 05bd 38d5 9cbd 63d9 99bb 3df6 c43d
00000370: badc d73d c9b9 da3d 6f8d 343d 8e87 043e
00000380: 47bc 8e3d 9067 093e bfef b73d 5315 cdbd
00000390: f5aa 9e3d d925 653d 37f5 083e ba1d 8a3c
000003a0: 331c f9ba 80e2 d53b 1a78 6b3d e48a fa3d
000003b0: 7b73 0c3e 7264 3ebd 012b 833c e6f9 4abe
000003c0: c6ab 9e3d 880b 73bd e91c babd e1fb 02be
000003d0: 71bf 403e b04e c83d 926b 213e c006 e1bd
000003e0: 71e2 d93d 57e8 09be 2e4f 15bb 17cb db3d
000003f0: 5610 963d 8091 fb3d 6102 25be 76d8 2c3e
0.13526265 0.0906854 0.05185201 -0.07529223 0.035436235 -0.05894426 0.10670045 0.028295713
-0.14490825 0.09144242 0.060906254 -0.0050221467 0.10777441 -0.02973305 0.03136787 0.012752858
-0.15290649 -0.11479364 0.12190793 -0.04398406 -0.1292804 -0.1444813 -0.14998418 0.121997595
0.04044762 0.03802141 0.10502378 -0.12870367 0.05068131 0.049600553 -0.060883366 -0.015616336
0.056769438 0.03458346 -0.027956266 -0.011766754 0.18508911 -0.021161495 0.074940555 0.02707334
0.19672707 -0.0041266684 0.17543182 -0.040173065 -0.17414086 0.1511248 -0.08128214 -0.09132827
-0.0012041292 0.16493963 -0.052405395 -0.04166611 -0.0203695 -0.0042688823 -0.006250195 -0.07623472
0.19314124 0.13279194 0.11118328 0.016002117 0.0234456 -0.12906864 -0.030571235 -0.061443053
-0.14571302 -0.20045601 0.11909166 -0.15504457 0.10123721 -0.041794993 0.08341003 0.12382929
0.013748469 0.055876944 0.05078682 -0.17176032 -0.108217105 0.08182885 -0.14380898 -0.046707634
0.06273498 -0.09189686 0.03752621 0.058988452 -0.064373724 -0.09550817 0.009329364 0.1164395
-0.12913947 0.07670726 -0.05206822 -0.18730341 0.062365882 -0.0459473 -0.1361611 -0.10543715
-0.049609885 0.08189057 -0.095546745 0.15234509 0.301437 0.059326418 -0.047620647 -0.107253596
0.036216114 -0.107677095 0.08421273 0.13974403 0.11030206 -0.06272629 0.09385068 -0.16780116
0.22867893 -0.06853315 0.12362433 -0.015652033 0.029526504 0.004579635 -0.021299774 0.09069001
0.079212844 0.02929961 -0.064107165 0.015043957 -0.022654956 -0.07075997 -0.04870963 0.0062213745
0.10962363 0.07844974 0.12090594 0.22628051 -0.05248901 -0.056088563 0.14373754 0.040955335
-0.14201 0.16167799 0.17415315 0.047753114 0.0029401248 -0.067336835 -0.09271839 0.09677776
-0.017303135 0.10108582 -0.15117016 0.05576607 -0.09563808 0.020893237 0.10075234 0.07881749
0.06502252 0.09881177 -0.10295331 -0.10227917 0.14203039 -0.116897866 0.07324281 0.06217286
-0.0017609912 0.11103805 -0.05551824 -0.059340492 -0.1511523 -0.12592262 -0.10653566 -0.009641879
-0.07770628 0.074414045 -0.043222632 0.094467625 -0.06801289 -0.078963555 0.012347507 -0.016824048
0.06497837 -0.040833127 -0.09978224 -0.017004132 0.105756626 -0.05247332 -0.11517193 0.018237319
-0.14423409 -0.078154445 0.08106421 -0.10814163 -0.00113472 0.097904995 0.0015345125 -0.09864211
-0.11964941 -0.0874262 0.017449813 0.12772773 -0.1640443 -0.14784643 -0.009989765 0.09948873
-0.074442066 0.0017964678 0.005429078 0.020906337 0.12536626 0.06194656 0.011924219 -0.008115475
0.054361742 0.09615518 0.058983088 0.02705182 -0.049982704 -0.057824444 0.006528064 -0.056195952
-0.032626554 -0.07657856 -0.004695104 0.09617279 0.10540147 0.10679967 0.044080194 0.12942335
0.06969505 0.13418412 0.08981275 -0.10013833 0.07747451 0.055944297 0.13374792 0.016859878
-0.0019005596 0.006527245 0.057487585 0.122335225 0.13715927 -0.04648251 0.016011717 -0.19821891
0.07747607 -0.05933717 -0.090875454 -0.12791397 0.18823029 0.097806334 0.15763691 -0.109876156
0.106388934 -0.13467537 -0.002278279 0.10732096 0.073273346 0.12283611 -0.16114189 0.16879448

gat2.norm.weight f4 [128]
00000000: 08a8 753f d87a 753f a890 893f 9ffd 633f
00000010: 4b79 6e3f 0bb0 913f 85d6 7e3f 3892 743f
00000020: 814d 693f 8055 833f 7a05 8f3f 8c03 6a3f
00000030: 3fb0 823f 750b 823f 53ef 823f b380 673f
00000040: b1fe 923f 5a39 653f 1169 863f faa7 7f3f
00000050: 7468 7e3f 5d2d 8b3f bd49 853f 96b2 703f
00000060: 34bd 6e3f 97cc 713f f111 803f 5715 7b3f
00000070: dec2 7b3f 2efc 853f cb53 893f 4d26 863f
00000080: 2d05 633f 862a 7a3f 2d70 833f e6e1 783f
00000090: 4c69 713f 7e55 833f 0088 823f c1ef 8e3f
000000a0: ac55 7d3f cb4f 633f 4896 613f 2e63 693f
000000b0: 796b 803f 345c 813f 9a9e 643f dc8d 6f3f
000000c0: 331b 7f3f 80cd 803f 40fe 6d3f 7eea 883f
000000d0: 9425 813f 5541 703f d015 813f d22e 833f
000000e0: 2fe4 7b3f 1a0e 6e3f 4f1b 733f 38ad 703f
000000f0: a0ae 823f 1f24 8e3f f30d 743f 6fbe 6e3f
00000100: e2ae 573f eb95 823f d212 8a3f fdff 6d3f
00000110: 88af 7e3f 6fbd 813f 00fb 7e3f 2298 833f
00000120: 22c2 653f 0816 683f 0c24 823f 4725 783f
00000130: 6bac 663f aadc 713f ff29 7b3f 0715 783f
00000140: 6a96 893f 6e0e 7f3f 471f 8e3f 87fd 7f3f
00000150: e363 893f 929f 6d3f e5c5 793f bc80 753f
00000160: 1328 853f a077 843f e7c7 783f 1e31 873f
00000170: db56 823f 13f8 7f3f cf42 863f 709e 853f
00000180: 2ec6 7f3f 5256 753f 2d6c 823f a764 853f
00000190: 6c35 6e3f e433 803f 22df 7b3f c551 803f
000001a0: 05d9 873f 2b9b 783f 76e5 7e3f c162 7b3f
000001b0: d714 703f c5fb 663f 26fc 863f 59d6 5a3f
000001c0: b1d4 7d3f d266 753f 044c 6b3f 67b3 803f
000001d0: 5490 893f 5545 893f dedc 873f 01c2 863f
000001e0: 3ced 843f 988e 723f f9ba 823f 9901 553f
000001f0: 7d50 6e3f 2cc0 7b3f a3f9 713f 7377 6e3f
0.9595952 0.9589057 1.074727 0.8905887 0.9315383 1.1381849 0.9954608 0.9553561
0.91133887 1.0260468 1.1173546 0.9141166 1.0210036 1.0159746 1.0229286 0.90430754
1.1483976 0.89540637 1.0500814 0.99865687 0.9937813 1.0873219 1.0413128 0.940225
0.9325745 0.94452804 1.0005475 0.98079437 0.9834422 1.0467584 1.0728697 1.0480438
0.8867977 0.97721136 1.0268608 0.97219694 0.94301295 1.0260465 1.0197754 1.1166917
0.9895885 0.8879363 0.88119936 0.9116696 1.0032798 1.0106263 0.89304507 0.93575835
0.9965088 1.0062714 0.9296608 1.0696561 1.0089593 0.9384969 1.0084782 1.0248663
0.98395056 0.9299027 0.94963545 0.9401431 1.0209541 1.1104773 0.95333785 0.9325933
0.84251225 1.0202001 1.0786994 0.9296873 0.9948659 1.0135936 0.99601746 1.0280802
0.8974935 0.90658617 1.0167251 0.9693188 0.9010684 0.9447733 0.98110956 0.96907085
1.0749028 0.9963139 1.1103295 0.9999623 1.0733608 0.9282161 0.9756759 0.9589956
1.0402855 1.0349007 0.97180027 1.0561864 1.0182756 0.99987906 1.0489138 1.0438976
0.99911773 0.9583484 1.0189263 1.0421342 0.93050265 1.0015836 0.9838735 1.0024954
1.0613104 0.9711177 0.9956888 0.9819756 0.937818 0.9022792 1.05457 0.8548332
0.99152666 0.95860016 0.91912866 1.0054749 1.074717 1.0724283 1.0614278 1.0527955
1.0384898 0.9474883 1.021331 0.8320556 0.93091565 0.98340106 0.9452154 0.93151015
